models/critic_300000.pt (torch, 291588 bytes, 5 tensors)

network.0.weight f4 [256, 23]
0	0xbc4fa4a1	-0.012673528
1	0xbf968998	-1.176074
2	0x3f692943	0.91078585
3	0x3f7b98f5	0.9828027
4	0x3f287b2e	0.6581296
5	0xbf6cd3b9	-0.92510563
6	0xbf09bfd7	-0.5380835
7	0xbdeaa57f	-0.11457347
8	0x3e12a000	0.14318848
9	0x3eb2a28a	0.34889632
10	0xbebb1744	-0.36541188
11	0x3ebaaa1e	0.36457914
12	0xbd972387	-0.07379823
13	0xbebd7b52	-0.37008148
14	0xbe36357c	-0.1779384
15	0xbd69afc2	-0.05705238
16	0x3e209594	0.1568206
17	0xbf7809e2	-0.9689008
18	0x3fca4564	1.5802426
19	0xbf182061	-0.59424406
20	0xbf306c82	-0.6891557
21	0x3e2b452f	0.1672561
22	0xbeb3e478	-0.35135245
23	0x406501be	3.5782313
24	0x3faf4990	1.3694324
25	0xbdbda4b1	-0.09259928
26	0x3eece9bb	0.46272072
27	0xbf3e4379	-0.74321705
28	0xbeec6410	-0.46170092
29	0x3ebe164b	0.37126383
30	0x3f5d8239	0.8652683
31	0xbe862b98	-0.26205134
32	0x3f488d42	0.7834054
33	0x3f723c9f	0.9462375
34	0xbe922cb7	-0.2854974
35	0x3e685f2d	0.22692557
36	0x3d8e465f	0.06947016
37	0x3e99a3e2	0.30007845
38	0x3b766043	0.0037593998
39	0xbe600d8c	-0.21880168
40	0x3f4ce0fc	0.800308
41	0x3c8ed1d9	0.017434048
42	0xbf7e7fcc	-0.9941375
43	0x3f025a12	0.50918686
44	0x3d3bfc25	0.04589476
45	0x3f4f5e89	0.81003624
46	0xc03bf2a3	-2.9366844
47	0xbdc30db5	-0.09524099
48	0xbe7815b1	-0.24227025
49	0x3eb652e1	0.35610107
50	0x3e33ec5f	0.17570637
51	0x3e509d07	0.20372401
52	0xbeaacb26	-0.33358115
53	0x3e2b7a48	0.16745865
54	0x3ea990e1	0.33118346
55	0xbf450265	-0.7695678
56	0x3e876873	0.26446876
57	0xbe961623	-0.29313764
58	0xbe962973	-0.29328498
59	0xbec27a4b	-0.37983927
60	0xbeb4ba35	-0.35298315
61	0xbe8ceecb	-0.27525935
62	0xbe730844	-0.23733622
63	0xbf0f7c50	-0.5604906
64	0x3f14ed23	0.5817434
65	0xbf265a77	-0.6498179
66	0xbf0ccfbc	-0.5500448
67	0xbe41dc51	-0.189317
68	0x3f431b58	0.762136
69	0x3f2f765e	0.6853999
70	0xbeb20c69	-0.34775093
71	0x3d1499ce	0.036279492
72	0x3e371ff3	0.17883281
73	0xbf0f42d3	-0.5596134
74	0x3e219c8a	0.15782371
75	0xbeb496d7	-0.35271332
76	0xbe9dd528	-0.30826688
77	0xbe0b4d55	-0.13603719
78	0xbf774fd9	-0.9660621
79	0xbead6403	-0.33865365
80	0xbe0aa69f	-0.13540123
81	0xbe9a12ee	-0.30092567
82	0x3e8c0d1c	0.27353752
83	0xbe273cdd	-0.16331811
84	0x3d827c1b	0.063713275
85	0x3cb6cdf3	0.022315001
86	0xbd3687c0	-0.044563055
87	0xbe172c2e	-0.14762947
88	0x3ea8eefb	0.32994828
89	0xbee25ae0	-0.44209957
90	0xbeae6c5f	-0.34067056
91	0x3e74d9ff	0.23911284
92	0xc006383d	-2.0971825
93	0x3f0cdd00	0.5502472
94	0x3e936568	0.28788304
95	0xbe22fbd5	-0.15916379
96	0xbf08a2ad	-0.53373224
97	0xbe98f495	-0.298741
98	0xbd1df83c	-0.038566813
99	0x3e4d73ac	0.20063657
100	0xbe4b26e2	-0.19839051
101	0xbec2dad1	-0.3805757
102	0x3ef83b46	0.48482722
103	0x3e34c807	0.1765443
104	0x3b76544e	0.003758687
105	0x3eef0d23	0.4668971
106	0xbdebd8a8	-0.11515933
107	0xbe6f80b9	-0.23388948
108	0xbe7f0fef	-0.24908422
109	0x3f537b98	0.82610464
110	0x3eddf73a	0.4335268
111	0x3e5a9d5d	0.21349092
112	0x3dea5834	0.11442605
113	0xbf0d9e3e	-0.55319583
114	0xbf32cc9c	-0.6984346
115	0xbebe9705	-0.37224594
116	0x401904ec	2.3909254
117	0xbe3f45a1	-0.18678905
118	0xbea135f0	-0.31486464
119	0x3f0e888e	0.55677116
120	0xbe93a585	-0.2883722
121	0xbe180db6	-0.1484898
122	0x3e424602	0.18972018
123	0xbe6dc1db	-0.23218481
124	0xbf1c31f9	-0.6101375
125	0xbebbf7b3	-0.36712417
126	0x3e04f5b3	0.12984352
127	0xbecc1aa3	-0.39864072
128	0x3e7a49dd	0.24442239
129	0x3d25431b	0.0403472
130	0x3eccf96d	0.40034047
131	0xbe9248da	-0.28571206
132	0x3df641ea	0.12024291
133	0xbf2f9ba4	-0.68596864
134	0x3e61f88d	0.22067471
135	0xbe819bd0	-0.25314188
136	0xbf200872	-0.62512887
137	0xbf61c286	-0.88187444
138	0x3de4ca86	0.11171441
139	0xc02f3748	-2.737749
140	0x3f778a0f	0.96695036
141	0x3ee18970	0.4405017
142	0xbdbbc853	-0.09169068
143	0x3e92e027	0.2868664
144	0x3eb0f154	0.3455912
145	0x3e7c0cc6	0.24614248
146	0x3e0750b9	0.13214387
147	0xbed693fd	-0.4190978
148	0xbf2e98aa	-0.68201697
149	0xbdcd0b50	-0.10011923
150	0xbe27cd1b	-0.16386835
151	0x3dd19974	0.10234347
152	0xbe99a827	-0.30011103
153	0x3ccfd0c5	0.025368104
154	0x3d7ef259	0.06224284
155	0xbee040ae	-0.43799347
156	0x3f143532	0.5789367
157	0x3ebd0892	0.369206
158	0xbfb326ab	-1.3996176
159	0xbd91a28f	-0.07111084
160	0xbf230af8	-0.6368861
161	0x3fe37697	1.7770566
162	0x3d286f74	0.041121915
163	0x3d056296	0.032564722
164	0xbefb9f16	-0.4914481
165	0x3e45a53c	0.19301313
166	0x3f088a2a	0.5333582
167	0xbe8f6d0d	-0.28012887
168	0xbe23c001	-0.15991212
169	0x3dd3e9d4	0.103473336
170	0x3f1e0390	0.61724186
171	0xbec6d842	-0.38836867
172	0x3d58fe24	0.052976742
173	0xbeb28d3c	-0.34873378
174	0x3ed1acfd	0.40952292
175	0x3e0ac3a9	0.13551201
176	0x3ed46d7a	0.41489774
177	0x3eafe806	0.34356707
178	0xbe5dac40	-0.2164774
179	0xbe8da9d4	-0.2766863
180	0xbf796fee	-0.97436416
181	0x3e372815	0.17886384
182	0x3e9753fc	0.29556262
183	0x3cae7355	0.021295229
184	0x3e011bbe	0.12608239
185	0x3f31e170	0.69484615
186	0xbf2f11b1	-0.6838637
187	0x3f1caa35	0.61197215
188	0xbe92db01	-0.28682712
189	0xbed9887e	-0.42486948
190	0x3eff884b	0.4990867
191	0x3d394a98	0.045237154
192	0x3e586523	0.2113233
193	0xbf4fad8e	-0.811242
194	0x3e422725	0.18960245
195	0xbcb87567	-0.02251692
196	0x3d0fec17	0.035137262
197	0x3e9d378e	0.30706447
198	0x3e3a2ab9	0.1818036
199	0x3e9890f7	0.297981
200	0xbebeb9ee	-0.37251228
201	0x3f46bf44	0.776356
202	0xbe38d2c5	-0.18049152
203	0x3f293bce	0.6610688
204	0xbf10222d	-0.5630215
205	0x3cd366f0	0.02580592
206	0x3ea9eaa4	0.3318683
207	0x3fa367de	1.2766073
208	0xbe9e6fd0	-0.3094468
209	0xbf49cdb1	-0.78829485
210	0xbf30b418	-0.690248
211	0xbebeb6f6	-0.37248963
212	0xbec0200e	-0.37524456
213	0x3eb19f3b	0.34691796
214	0x3e3c1b11	0.183697
215	0x3d95a89c	0.0730755
216	0x3dae014f	0.08496343
217	0xbe9b289a	-0.30304414
218	0xbef6138e	-0.48061794
219	0xbe9d3dcb	-0.30711207
220	0xbe7d622f	-0.24744485
221	0x3ee66adf	0.4500341
222	0x3c8bb24a	0.017052788
223	0xbe8caa6e	-0.27473778
224	0x3f12c981	0.5733872
225	0x3f1b114a	0.60573256
226	0xbd359224	-0.044328824
227	0x3e37409e	0.17895743
228	0xbd98546d	-0.07437978
229	0xbe95b5d1	-0.29240277
230	0x3e6d7cf2	0.23192194
231	0xbf00d8b7	-0.5033068
232	0xbd8384de	-0.06421827
233	0x3e9bafac	0.30407465
234	0xbeedf6e3	-0.46477422
235	0x3d7d384a	0.06182126
236	0x3f0217c1	0.50817496
237	0xbeea7653	-0.457934
238	0x3e366d84	0.17815214
239	0xbd9be61a	-0.07612248
240	0xbdc90273	-0.0981492
241	0x3e8802ac	0.26564538
242	0xbda2aa80	-0.079426765
243	0xbe31e67e	-0.17373082
244	0xbc0d1fab	-0.008613507
245	0x3e09a8cc	0.13443297
246	0x3da8a974	0.082354456
247	0x3f200e8c	0.62522197
248	0x3d06d187	0.032914665
249	0x3ed5d627	0.41764948
250	0xbdf8bac2	-0.12144996
251	0xbe29840f	-0.16554283
252	0x3ec9df84	0.3942834
253	0xbfd4784d	-1.6599213
254	0x3dbb0885	0.09132484
255	0x3eec80d6	0.46192044

network.0.bias f4 [256]
0	0xbf6ebc5a	-0.9325615
1	0xbf7801fe	-0.9687804
2	0x3fb9266d	1.4464852
3	0xbfae9164	-1.363812
4	0x3fb0d7b7	1.3815831
5	0xbfb17d08	-1.3866282
6	0xbf8c2213	-1.0947899
7	0x3fd04a41	1.627266
8	0x3fcbb737	1.5915288
9	0x3fec0f2a	1.8442128
10	0x3fead889	1.8347331
11	0xbf5feca9	-0.8747049
12	0x3fd83060	1.6889763
13	0xbfc3dbe8	-1.5301485
14	0xbfbe7b31	-1.4881345
15	0x3fd10690	1.6330128
16	0x3fd07262	1.6284907
17	0xbf916b4f	-1.1360873
18	0xbfc39535	-1.5279909
19	0x3fd8cb46	1.6937034
20	0x3fd3ba8c	1.6541305
21	0x3f9878f6	1.1911914
22	0x3f17ca62	0.59293187
23	0xbf939232	-1.152899
24	0x3fb06120	1.377964
25	0x3fc1a735	1.5129153
26	0x3c19ba3a	0.009382779
27	0x3fc4dde1	1.5380212
28	0x3fc95698	1.5729551
29	0xbfa0b0a1	-1.2553903
30	0xbfaa299a	-1.3293946
31	0xbefe9739	-0.4972475
32	0x3fd858e1	1.6902124
33	0x3fd24da1	1.642994
34	0x3fa446be	1.2834089
35	0x3fb92b6d	1.4466377
36	0xbfb22a13	-1.391909
37	0xbfb59af5	-1.4187914
38	0x3fe5ba13	1.794741
39	0x3fdd04b3	1.7267059
40	0xbfc04c55	-1.5023295
41	0xbfa12e0d	-1.2592179
42	0x3fd9916f	1.6997508
43	0xbfc224fe	-1.5167539
44	0xbfad9896	-1.356219
45	0x3fad1aab	1.3523763
46	0xbfa9ec17	-1.3275174
47	0x3fd2f5e2	1.6481287
48	0xbfb1c520	-1.3888283
49	0x4002b9b0	2.0425835
50	0x3fcddcfd	1.6083065
51	0x3fd78ce1	1.6839868
52	0xbfd097f9	-1.6296378
53	0x3fcd0f18	1.6020231
54	0xbfa5bfbc	-1.2949138
55	0xbfbcba4f	-1.4744357
56	0x3fd9b29e	1.7007635
57	0x3e1f8b9d	0.15580602
58	0x3fe2f6b4	1.7731538
59	0xbfbcd41e	-1.4752233
60	0xbfa8d3f1	-1.3189679
61	0xbfb5706e	-1.4174936
62	0x3fab4361	1.3379937
63	0xbfac4afd	-1.3460385
64	0x3fdfbe58	1.7479963
65	0x3fd2ad15	1.645907
66	0xbf35763a	-0.70883524
67	0x3fbfa470	1.4972057
68	0xbfcae37d	-1.5850674
69	0xbf8630c9	-1.0483638
70	0xbfac47b1	-1.3459378
71	0xbf972d39	-1.1810676
72	0x3fd956f0	1.6979656
73	0x3ff2b26a	1.8960698
74	0xbfac615e	-1.3467214
75	0x3fca0c6a	1.5785038
76	0x3fc08a5a	1.5042222
77	0xbfa88bf0	-1.3167706
78	0x3fe42957	1.7825116
79	0x3f8dcd1f	1.1078223
80	0x3f9b4f57	1.2133588
81	0xbf9ce4d8	-1.2257338
82	0x3f99a022	1.2001994
83	0x3ff3874e	1.9025667
84	0x3fdb56ec	1.7135901
85	0xbfa1e489	-1.2647868
86	0x3ffb42ba	1.9629738
87	0x3fa92f57	1.3217572
88	0xbf5e0ced	-0.86738473
89	0x3fd04855	1.6272074
90	0xbfbd6092	-1.4795096
91	0x3fc3a76c	1.5285468
92	0x3fc9b3f0	1.5758038
93	0x3ffd0f7b	1.9770349
94	0x3fcac610	1.5841694
95	0x3fac955e	1.3483083
96	0x3fea03c8	1.8282404
97	0x3fd75410	1.6822529
98	0x3fc7b64b	1.5602506
99	0xbfb8ce02	-1.4437869
100	0xbfac3f5c	-1.3456836
101	0xbf9c7656	-1.2223613
102	0xbfa0cd4b	-1.256265
103	0x3fc8244f	1.563608
104	0xbf6d8056	-0.9277395
105	0x3fd524d7	1.6651868
106	0xbf93ddc0	-1.1552048
107	0x3fd0d7b4	1.6315827
108	0xbf8d9cde	-1.1063497
109	0x3f8884bc	1.0665507
110	0x3fc27c6a	1.5194218
111	0xbfb5cad1	-1.420252
112	0x3fca56f4	1.5807786
113	0x3fefd748	1.8737574
114	0x3fddbc77	1.732314
115	0xbfab26b0	-1.3371181
116	0xbfbf190d	-1.492952
117	0xbfbd137a	-1.4771569
118	0xbf106b62	-0.56413853
119	0x3fd0b356	1.6304729
120	0x3fd413b6	1.6568515
121	0x3fcdd162	1.6079524
122	0xbf97256e	-1.1808298
123	0xbfcce477	-1.6007222
124	0x3fe27614	1.7692285
125	0x3fd296a3	1.6452221
126	0xbfa5c334	-1.2950196
127	0xbf97a2dd	-1.1846577
128	0xbfacd362	-1.3502009
129	0xbfa94f2c	-1.3227286
130	0xbfa462b8	-1.2842627
131	0xbf7fdc28	-0.99945307
132	0x3fe45304	1.7837834
133	0xbfa07e98	-1.2538633
134	0x3fd7b582	1.6852267
135	0x3fcb335d	1.587505
136	0xbf9862cb	-1.1905149
137	0x3fce9908	1.6140451
138	0xbfa09c50	-1.2547703
139	0xbf72671c	-0.9468858
140	0x3fac2ad4	1.345057
141	0x3f9f2a7c	1.243484
142	0xbfa8ca24	-1.3186688
143	0x3ff14f01	1.8852235
144	0x3fd0bd30	1.6307735
145	0xbe1481a8	-0.14502585
146	0xbfd3138e	-1.6490343
147	0x3fb23037	1.3920964
148	0xbf50c36b	-0.81548184
149	0xbfa1fb78	-1.2654867
150	0xbf294348	-0.6611829
151	0xbf54ade5	-0.8307784
152	0x3fe22408	1.7667246
153	0xbfa18da7	-1.2621354
154	0x3fdffa6d	1.7498299
155	0xbf751682	-0.9573747
156	0x3fd693db	1.6763872
157	0x3fcc8112	1.5976889
158	0x3fe45122	1.783726
159	0x3fcfd228	1.623601
160	0x3fe70eb2	1.805136
161	0x3fec7ac3	1.8474964
162	0x3fb6458d	1.4239975
163	0x40064ab5	2.0983098
164	0x3fb01b16	1.3758266
165	0xbfb1b167	-1.3882264
166	0x3fbbb14f	1.4663485
167	0x3fe14f4d	1.7602326
168	0x3fd751c0	1.6821823
169	0xbf9b2f47	-1.2123803
170	0xbf7cfb4e	-0.9882096
171	0x4033cc34	2.8093386
172	0xbf9d967c	-1.2311549
173	0x3ea82dc2	0.3284741
174	0x3fc8d210	1.5689106
175	0xbf95a790	-1.1691761
176	0xbf8814d7	-1.063136
177	0xbfa922b7	-1.3213719
178	0x3fe8bd00	1.8182678
179	0xbf9df647	-1.2340783
180	0x3fd0248c	1.6261153
181	0x3fa08b85	1.2542578
182	0xbfb7f34b	-1.4371122
183	0x3f64ce02	0.8937684
184	0xbfc23ca9	-1.5174762
185	0x3fbf6cc9	1.4955074
186	0x3fd9e4a4	1.70229
187	0x3fdf5f65	1.7450987
188	0x3fe09b5e	1.7547414
189	0x3fb6e2a0	1.428791
190	0x3fde0049	1.7343837
191	0xbf48844e	-0.7832688
192	0x3fe646e5	1.7990385
193	0xbf72f280	-0.94901276
194	0x3fd6b9f6	1.6775501
195	0x3fa184fa	1.2618706
196	0xbfa6e146	-1.3037498
197	0x3fd2c0e6	1.6465118
198	0xbf9acb4f	-1.2093295
199	0x3fd14c46	1.6351402
200	0x3fdc303f	1.7202224
201	0x3fcdbe95	1.6073786
202	0xbfa95528	-1.3229113
203	0x3f9cf058	1.2260847
204	0x3fcc2dd8	1.595149
205	0xbfbc3ad8	-1.4705458
206	0x3fd26610	1.6437397
207	0xbfbd80da	-1.4804947
208	0x3f82fbd5	1.0233103
209	0xbfc5e04e	-1.5459077
210	0x400cde12	2.201054
211	0x40018ce4	2.0242243
212	0x3d6680c1	0.056275133
213	0xbfae0502	-1.3595278
214	0x3fe23fd6	1.7675731
215	0x3fc9535a	1.5728562
216	0xbf9e978e	-1.2390001
217	0x3cf1e018	0.029525802
218	0x3fd7126b	1.6802496
219	0x3fa4c4bf	1.2872542
220	0x3fcec933	1.6155151
221	0xbf8b48c5	-1.0881582
222	0x3fc3e17a	1.5303185
223	0x3ff4cea3	1.912556
224	0x3fe37f2f	1.7773188
225	0xbfa6ee5d	-1.3041493
226	0x3fdd0058	1.726573
227	0xbfb55ca3	-1.4168895
228	0xbfc9a92d	-1.5754753
229	0x3fe58a32	1.7932799
230	0xbfba52a2	-1.4556468
231	0x3fd244ca	1.6427243
232	0x3fd9dde8	1.7020845
233	0x3fe2dbff	1.7723387
234	0x3fcfc2f9	1.6231376
235	0xbfbfaa12	-1.4973776
236	0x3ffbfdc6	1.968682
237	0xbfb143a5	-1.3848768
238	0x3fcebe28	1.6151781
239	0x3fd4338c	1.6578231
240	0x3fb83927	1.4392442
241	0xbfbc5c16	-1.4715602
242	0x3fd9d012	1.7016623
243	0x3fe45a09	1.7839977
244	0xbf9acf4a	-1.209451
245	0xbf55286b	-0.832648
246	0x3fd86f31	1.6908933
247	0xbfc1a0f6	-1.5127246
248	0xbf923012	-1.142092
249	0x3fc2c0be	1.521507
250	0x3fd93bdb	1.6971391
251	0xbfac7f14	-1.3476281
252	0x3fc8c184	1.5684056
253	0xbfba64cb	-1.456201
254	0x3fdd8ab1	1.730795
255	0x3fcf49ca	1.6194394

network.2.weight f4 [256, 256]
0	0x3d9399db	0.0720708
1	0x3e3f6d7c	0.18694109
2	0xbdc0db4c	-0.094168276
3	0x3e3aec21	0.18254139
4	0xbd4cf2ac	-0.050036117
5	0xbe1a3ede	-0.15063044
6	0x3d52c297	0.051455107
7	0xbb400cd8	-0.002930453
8	0xbd0695b5	-0.032857616
9	0xbdb98a7e	-0.090596184
10	0xbe071849	-0.13192858
11	0xbc3864e5	-0.011254524
12	0xbe54c3f2	-0.20777872
13	0x3dd8c2e9	0.10584051
14	0x3e204be2	0.15653947
15	0x3d516b38	0.051127642
16	0xbd92c914	-0.07167259
17	0xbd7a526b	-0.061113756
18	0xbda7ca8d	-0.0819293
19	0x3d7aca8c	0.06122832
20	0x3d9c7ccf	0.07640993
21	0x3dc98ccd	0.09841309
22	0x3e0096dd	0.1255755
23	0x3e0694e2	0.13142732
24	0x3df69b94	0.12041393
25	0xbc89389f	-0.016750632
26	0xbe21e00d	-0.15808125
27	0xbdf98d72	-0.12185182
28	0x3e2ec67d	0.17067905
29	0x3e67a0b2	0.22619894
30	0x3e322c59	0.1739973
31	0x3e17679d	0.14785619
32	0x3d9687ee	0.07350145
33	0xbd076e35	-0.033064086
34	0x3d3a4f82	0.04548598
35	0x3e1009e0	0.14066267
36	0x3d0d3bcc	0.034480855
37	0x3ec56d7e	0.38560098
38	0xbc9d206e	-0.019180503
39	0xbe3a1e6c	-0.18175668
40	0x3e7a5283	0.24445538
41	0xbcc2b73e	-0.023769017
42	0xbdbfd1ca	-0.09366186
43	0x3e3023e2	0.17201188
44	0x3e04a9a2	0.12955335
45	0x3becdb6f	0.007228307
46	0xbe873206	-0.26405352
47	0x3e381408	0.17976391
48	0x3e524f22	0.20538
49	0xbed262e2	-0.41091067
50	0xbdb7df75	-0.08978168
51	0xbe1fae75	-0.15593894
52	0x3d417060	0.04722631
53	0xbd7f1308	-0.06227401
54	0x3dc1fa48	0.094715655
55	0xbde3149e	-0.11087917
56	0xbd63a546	-0.05557754
57	0xbe263d2c	-0.16234273
58	0xbd3f8708	-0.046759635
59	0x3e3f6a33	0.18692856
60	0xbdab5329	-0.08365471
61	0x3e940df4	0.28916895
62	0xbd76d6e9	-0.060263548
63	0x3e3ee1ca	0.18640819
64	0x3c83b632	0.016078088
65	0x3d6ac4de	0.057316653
66	0x3d36c149	0.044617925
67	0x3d6070fe	0.054795258
68	0xbc4dcdc2	-0.0125612635
69	0x3c8d9dc1	0.017287137
70	0x3ca3a575	0.019976357
71	0x3cf6d3ed	0.030130351
72	0xbe12fda3	-0.14354567
73	0xbe3d0c1a	-0.18461648
74	0x3e3ad323	0.18244605
75	0x3e21ae4a	0.15789142
76	0xbe602838	-0.21890342
77	0x3e1bf519	0.15230216
78	0x3db1f27a	0.08688827
79	0xbe3742e4	-0.1789661
80	0xbd811a77	-0.06303876
81	0x3d6d209a	0.05789242
82	0xbe949c51	-0.2902551
83	0xbd18db20	-0.03731835
84	0x3d566d24	0.05235018
85	0x3d9702cb	0.073735796
86	0xbdb4e9ad	-0.088336326
87	0xbdb29a82	-0.08720876
88	0x3d4783f6	0.048709832
89	0xbe16e9d3	-0.14737634
90	0x3e94faea	0.29097682
91	0xbd526c07	-0.051372554
92	0x3caa8a72	0.020817969
93	0x3bde841d	0.0067906515
94	0xbe0bcbda	-0.13651982
95	0xbd2cdc76	-0.042202435
96	0xbe5a0777	-0.2129191
97	0x3de50143	0.11181881
98	0x3d85f0a5	0.0654004
99	0xbd9eae7d	-0.07748125
100	0x3e73768c	0.23775691
101	0xbd93902f	-0.07205235
102	0xbd00ddb4	-0.031461433
103	0xbd42f218	-0.04759416
104	0xbe32f001	-0.17474367
105	0xbe094242	-0.13404182
106	0xbd171c02	-0.036891945
107	0x3cfc4b15	0.03079752
108	0xbd40f4d0	-0.04710847
109	0x3d9383b1	0.072028525
110	0x3d9735bd	0.07383297
111	0xbc28e784	-0.010309104
112	0xbdc2a89c	-0.09504816
113	0x3e06117e	0.1309261
114	0x3c876446	0.016527306
115	0x3d0a615f	0.033784267
116	0x3d670b46	0.056407236
117	0x3e8fcc58	0.2808559
118	0xbcd17eec	-0.025573216
119	0xbd5c61b6	-0.053804122
120	0xbdf66d35	-0.12032548
121	0xbe0e243a	-0.13881007
122	0x3e6b10bd	0.22955604
123	0x3e1fe67f	0.15615271
124	0xbb27587e	-0.0025534923
125	0xbe436dbe	-0.19084832
126	0xbd80fea2	-0.06298567
127	0x3e47ea45	0.1952296
128	0x3e34aecd	0.17644806
129	0x3eaf5f61	0.34252456
130	0xbdc329b7	-0.09529441
131	0xbd4d08ff	-0.050057407
132	0xbe57d1e1	-0.21076156
133	0x3ee11310	0.43959856
134	0x3ddfef65	0.10934333
135	0xbd1feaca	-0.03904227
136	0x3dcf8fc9	0.10134847
137	0xbdb7a2d8	-0.08966607
138	0xbdaede27	-0.08538466
139	0xbbe88a14	-0.0070965383
140	0xbcf500b4	-0.029907562
141	0x3e6c2a71	0.23063065
142	0xbd07c98e	-0.033151202
143	0x3e0480ef	0.1293981
144	0x3dc53598	0.09629363
145	0x3be399f5	0.0069458433
146	0x3e39ad30	0.18132472
147	0xbe7dc0cb	-0.24780576
148	0x3d69f377	0.05711695
149	0xbcffb899	-0.031215953
150	0xbe0ae132	-0.13562468
151	0xbd25f6e9	-0.040518675
152	0xbe04df6b	-0.12975852
153	0xbb8fddc9	-0.0043904525
154	0xbc6c8851	-0.014436797
155	0x3e50f0e9	0.204044
156	0xbde495b0	-0.11161363
157	0x3da4398e	0.0801879
158	0xbdfb3a4b	-0.12266978
159	0x3e55e209	0.20887007
160	0xbd4c04d6	-0.0498093
161	0x3dcab05f	0.09896921
162	0x3d517233	0.0511343
163	0xbe4cb75a	-0.19991818
164	0xbc92c6d3	-0.017917072
165	0x3e002b6f	0.12516569
166	0x3e104be9	0.14091457
167	0x3e576d94	0.21037894
168	0x3d3444fd	0.044011105
169	0xbd07f397	-0.03319129
170	0x3e0f69b8	0.14005172
171	0xbea35e12	-0.31907707
172	0xbdcad12e	-0.09903179
173	0xbcb583a4	-0.022157498
174	0xbc82f86e	-0.015987601
175	0xbdd42e69	-0.103604145
176	0x3e592d33	0.21208648
177	0x3dafc7e4	0.08583048
178	0x3ca1c2b4	0.019746162
179	0x3d52c0de	0.051453464
180	0xbdedfb60	-0.116202116
181	0xbe8b906f	-0.27258632
182	0x3e915c7c	0.28390872
183	0xbe0a4d1a	-0.13505974
184	0x3dc89363	0.09793737
185	0xbd9ff828	-0.07811004
186	0xbd8fa556	-0.07013957
187	0x3dd3dc3e	0.10344742
188	0xbe1c39d4	-0.15256435
189	0x3cfc2077	0.0307772
190	0x3e1898bd	0.14902015
191	0xbe29f590	-0.16597581
192	0xbdc58491	-0.09644426
193	0x3ce0ab51	0.02742544
194	0xbbabaa7e	-0.00523883
195	0xbbae1179	-0.0053121415
196	0x3da007ea	0.078140095
197	0xbd4e8612	-0.05042083
198	0x3d0b39fb	0.03399084
199	0x3dc670eb	0.09689506
200	0x3e0f3bc3	0.13987641
201	0xbdccadb9	-0.099940725
202	0xbe21025d	-0.15723558
203	0xbe6e7f00	-0.23290634
204	0x3e1d66d2	0.15371254
205	0x3d92f881	0.071763046
206	0x3dcd2539	0.10016865
207	0xbdb181a0	-0.08667302
208	0x3d7cc28e	0.06170898
209	0x3db3b3bf	0.08774518
210	0xbe5ea927	-0.21744214
211	0xbe3eaa42	-0.18619636
212	0xbe18415f	-0.14868687
213	0x3d8efd94	0.0698196
214	0xbd56a082	-0.052399166
215	0xbcf3687e	-0.029712912
216	0x3cbbb455	0.022913137
217	0x3de0918c	0.10965261
218	0x3e1ceb07	0.15324031
219	0xbda6abdb	-0.081382476
220	0xbd1bbc70	-0.038021505
221	0xbd458973	-0.048226785
222	0x3decfeb9	0.11572022
223	0x3dc1a778	0.0945577
224	0xbe19e2be	-0.15027902
225	0xbdbe5632	-0.09293784
226	0xbe934e61	-0.28770736
227	0x3e2b1bd8	0.1670984
228	0xbc0224a0	-0.007943302
229	0xbe481e1c	-0.19542736
230	0x3e12a0de	0.14319178
231	0x3d83ca93	0.06435122
232	0x3d363589	0.04448465
233	0xbd1b0bfa	-0.03785322
234	0xbe106193	-0.14099722
235	0x3e45f10c	0.19330233
236	0xbdff7dd3	-0.12475171
237	0x3d41d54a	0.04732255
238	0x3c95af02	0.018271927
239	0x3e2e5920	0.17026186
240	0x3e413821	0.18869068
241	0xbe36a27a	-0.17835417
242	0x3c149592	0.0090688635
243	0x3d07c2bb	0.033144694
244	0x3ca47c92	0.020078931
245	0xbe150064	-0.1455093
246	0x3dc925f6	0.098216936
247	0x3e104c1f	0.14091538
248	0x3dcd4608	0.10023123
249	0xbe6c50dd	-0.23077722
250	0xbd7a8c0d	-0.06116872
251	0x3db720ff	0.089418404
252	0xbe1de42a	-0.15419069
253	0x3e2beb04	0.1678887
254	0xbe10cc3f	-0.14140414
255	0xbcc2d052	-0.023780975

network.2.bias f4 [256]
0	0xbfd16218	-1.6358061
1	0xbfa49214	-1.285708
2	0x3fe6477d	1.7990566
3	0x3fe5524f	1.7915744
4	0x3fd99d26	1.7001083
5	0x3fe91793	1.8210319
6	0x3fe7ebab	1.8118795
7	0xbfab14fc	-1.3365779
8	0x3fd7ad18	1.6849699
9	0xbfda2e93	-1.7045463
10	0xbfc6cc3a	-1.5531075
11	0xbf8d61bf	-1.1045455
12	0x3fa3a91e	1.2785985
13	0xbfc26ea3	-1.5190014
14	0xbfbe728b	-1.4878706
15	0xbf9d72d6	-1.230067
16	0x3fe6274b	1.7980741
17	0xbf3f22f7	-0.7466273
18	0x3fe286d9	1.7697402
19	0x3fe432c0	1.7827988
20	0x3fe44285	1.78328
21	0xbfbe1974	-1.4851518
22	0x3fe3a29b	1.7783998
23	0x3fe695dc	1.8014483
24	0x3fd13c0e	1.6346452
25	0x3fe8305d	1.8139759
26	0x3fe5c773	1.7951492
27	0x3fe35857	1.7761334
28	0xbfbced7e	-1.4759977
29	0x3fe5d8c4	1.7956777
30	0xbfb6871e	-1.4259984
31	0x3fdb9889	1.7155925
32	0x3fbfc00d	1.4980484
33	0x3fe44ca3	1.7835888
34	0x3fed754e	1.8551424
35	0xbfba6d91	-1.4564687
36	0x3f311b91	0.6918269
37	0xbf9bc841	-1.2170488
38	0xbf96e194	-1.1787591
39	0x3fe466ad	1.7843834
40	0xbf36df32	-0.7143432
41	0xbfc184dd	-1.5118672
42	0x3fe3245f	1.7745475
43	0x3fe8f82f	1.820074
44	0xbfb459ba	-1.4089882
45	0xbfae8713	-1.3634971
46	0x3feab534	1.8336549
47	0x3fe93277	1.8218526
48	0x40057e22	2.0858235
49	0x3fe5ec41	1.7962724
50	0x3ff268d1	1.8938237
51	0xbfb5c235	-1.4199892
52	0x3fc8aa84	1.5677037
53	0xbf9b328f	-1.2124804
54	0x3fe5840c	1.7930923
55	0xbf9dd491	-1.2330495
56	0x3fa51ab8	1.2898779
57	0xbfb785fa	-1.4337761
58	0x3fb9d15e	1.4517019
59	0x3fe02475	1.7511126
60	0xbf8ded80	-1.1088104
61	0xbfac9d1b	-1.3485445
62	0xbfcddf70	-1.6083813
63	0x3fe32322	1.7745097
64	0x3fde9c53	1.7391456
65	0xbfb5970e	-1.4186723
66	0xbfc3b356	-1.5289104
67	0x3fe935b5	1.8219515
68	0x3feb6630	1.839056
69	0x3fe6bdb9	1.8026649
70	0x3fba3d0d	1.4549881
71	0xbfc32da4	-1.5248303
72	0xbf97d0eb	-1.1860632
73	0x3fe2e356	1.7725627
74	0xbfc70626	-1.5548751
75	0xbfc1dbfc	-1.5145259
76	0xbfaa0ec5	-1.3285757
77	0xbfa5cd7e	-1.2953336
78	0x3fdea602	1.7394412
79	0xbfb112e7	-1.3833894
80	0xbfb66d63	-1.4252132
81	0x3fe570da	1.7925065
82	0x3fd9ea5e	1.7024648
83	0x3faafdab	1.3358663
84	0xbfa73728	-1.3063707
85	0xbfb798d4	-1.4343514
86	0xbfbe3b58	-1.486186
87	0x3fe0f545	1.757485
88	0x3fc4b4ff	1.5367736
89	0xbf9774f0	-1.1832561
90	0x3fe3a2ba	1.7784035
91	0x3fe13f60	1.7597466
92	0x40024c8e	2.0359225
93	0x3fe7d800	1.8112793
94	0x3fea8c07	1.8323983
95	0xbfa47b87	-1.2850198
96	0xbfadb12b	-1.3569692
97	0x3fe92091	1.8213063
98	0x3fec5cc3	1.8465809
99	0xbf5ac260	-0.8545284
100	0xbf865e47	-1.0497521
101	0x3fe2f60b	1.7731336
102	0x3fe4991c	1.7859225
103	0xbf9d96ea	-1.231168
104	0xbf72de9a	-0.94870913
105	0x3fdc8566	1.722821
106	0x3feb72c5	1.83944
107	0xbfbad4fd	-1.4596249
108	0x3fe3603d	1.7763745
109	0x3fe37805	1.7771002
110	0xbfccc808	-1.5998545
111	0xbfaa066f	-1.3283213
112	0xbfb8c7f8	-1.4436026
113	0x3fe17926	1.7615097
114	0xbf9c3bfd	-1.2205807
115	0x3fe49ce8	1.7860384
116	0xbf90b6f5	-1.1305834
117	0xbf996b29	-1.1985828
118	0xbf9eec1e	-1.2415807
119	0x3fe41ac4	1.7820668
120	0x3fde3f3c	1.7363048
121	0x3fd250fa	1.6430962
122	0x3fe51aa3	1.7898754
123	0x3fe46827	1.7844285
124	0xbfb4a4cb	-1.4112791
125	0x3fe1e926	1.7649276
126	0xbfb7f646	-1.4372032
127	0x3fe6c44b	1.8028654
128	0xbfb02a3c	-1.3762889
129	0xbfbe7bfa	-1.4881585
130	0x3fc0081d	1.5002476
131	0x3fe41af6	1.7820728
132	0x3fe9edf3	1.8275741
133	0xbf9fde7d	-1.2489773
134	0xbfafeae1	-1.3743554
135	0x3fe2fd0c	1.7733474
136	0xbf88fe93	-1.070269
137	0xbfc6e0b0	-1.5537319
138	0x3fe661ae	1.799856
139	0x3fe36ee4	1.7768216
140	0x3fef3ad2	1.8689826
141	0x3fe32a0b	1.7747205
142	0xbfab66aa	-1.3390706
143	0x3fe617e0	1.7976036
144	0x3fe393e4	1.7779508
145	0x3fe7a850	1.809824
146	0x3fe62b47	1.7981957
147	0x3fe4784f	1.7849215
148	0x3fc77694	1.5583062
149	0x3fe5c362	1.7950251
150	0xbf9412aa	-1.1568196
151	0xbfb0b793	-1.3806022
152	0xbfb0243a	-1.3761055
153	0xbf6b4f39	-0.9191776
154	0xbfc69d32	-1.5516722
155	0x3ff3f074	1.9057755
156	0x3fe5faa4	1.7967114
157	0x3fe4f307	1.7886666
158	0x3fe35b7b	1.7762293
159	0xbfd5eb8b	-1.6712507
160	0xbfaff5ff	-1.3746947
161	0x3fe4ec03	1.7884525
162	0xbfc6a7ed	-1.5519997
163	0xbfc8de66	-1.5692871
164	0xbf910ab4	-1.1331391
165	0x3fea658f	1.8312243
166	0x3fe22ba4	1.7669568
167	0xbfaafa8a	-1.3357708
168	0xbfd103cc	-1.6329284
169	0x3fd85e09	1.6903697
170	0x3fe1af18	1.7631559
171	0x3fe3040a	1.7735608
172	0x3fce1eb5	1.6103121
173	0xbfc743ab	-1.5567526
174	0x3feb554e	1.8385408
175	0xbe77a40d	-0.24183674
176	0xbf90e777	-1.1320637
177	0x3fe4fd3a	1.7889779
178	0xbfa52c74	-1.2904191
179	0xbfc98b5f	-1.5745658
180	0xbfc6475c	-1.5490527
181	0xbfad2ec2	-1.3529894
182	0x3fe512b2	1.789633
183	0x3fe5fedb	1.7968401
184	0x3ff5a063	1.9189571
185	0xbfaddea9	-1.3583575
186	0x3ff07717	1.8786343
187	0x3fdb36ff	1.7126158
188	0x3fa15dea	1.2606785
189	0x40021374	2.0324373
190	0x3fe4886e	1.7854135
191	0x3fe4dbf8	1.7879629
192	0x3fe41698	1.7819395
193	0x3fe32cdb	1.7748064
194	0xbfb9d4fe	-1.4518125
195	0xbf2707ad	-0.6524609
196	0xbfbb2445	-1.4620444
197	0x3fd240b5	1.6425997
198	0x3fe30d5e	1.7738454
199	0xbf8e20ab	-1.110372
200	0xbfa0272f	-1.2511958
201	0xbfb4deac	-1.4130454
202	0xbfa69622	-1.3014567
203	0x400048cc	2.0044432
204	0xbf96298c	-1.1731429
205	0x3fe67f58	1.8007612
206	0x3fd5d13c	1.6704478
207	0xbfbcd574	-1.4752641
208	0x3fda3d9a	1.7050049
209	0xbf87ea0d	-1.0618302
210	0x3fd5ee46	1.671334
211	0xbfa1f6ab	-1.2653402
212	0x3fe4a62c	1.7863212
213	0x3fe44596	1.7833736
214	0x3fda7cf6	1.7069385
215	0xbfac6fa0	-1.3471565
216	0x3fef6dd5	1.8705393
217	0xbfc11fc5	-1.508782
218	0xbfbd990c	-1.4812331
219	0x3fe96d37	1.8236455
220	0x3fc926c9	1.5714961
221	0xbf960b7b	-1.1722254
222	0xbfa2a992	-1.2707999
223	0xbf91292a	-1.1340687
224	0x3fe3d0b3	1.7798065
225	0x40180633	2.3753784
226	0x3fe71d14	1.8055749
227	0xbf7096eb	-0.9398028
228	0x3fa8da9a	1.3191712
229	0xbfd59e59	-1.6688949
230	0xbf914d6d	-1.1351753
231	0x3fea2c23	1.829472
232	0x3fc6fe82	1.554642
233	0x3fe5010d	1.7890946
234	0x3fe4a739	1.7863532
235	0xbfaa17bb	-1.3288492
236	0x3fe1b92b	1.7634634
237	0xbfa7ad10	-1.309969
238	0x3fe5b30d	1.7945267
239	0xbfb0bb4f	-1.3807162
240	0xbfa09341	-1.2544938
241	0x3fe6362a	1.798528
242	0xbf950584	-1.1642308
243	0x3fde50ba	1.7368386
244	0xbf98ab2d	-1.1927239
245	0xbfc59a89	-1.5437785
246	0x3fdf4b5c	1.7444873
247	0xbf7115e0	-0.94174004
248	0xbf8796d2	-1.0592902
249	0x3fe55b75	1.7918535
250	0x3fe9d15a	1.8267014
251	0xbf97b91f	-1.185337
252	0xbfbbec12	-1.4681418
253	0x3fd2b063	1.6460079
254	0x3fc755cc	1.5573058
255	0x3fe45659	1.7838851

network.4.weight f4 [1, 256]
0	0xbea25db7	-0.31712124
1	0xbe8f7564	-0.2801925
2	0x3e789701	0.24276353
3	0x3e743350	0.23847699
4	0x3e88737c	0.26650608
5	0x3e3c8d16	0.18413195
6	0x3e01b95d	0.12668367
7	0xbe407b63	-0.18797068
8	0x3faa5193	1.3306144
9	0xbf446678	-0.76718855
10	0xbe5d2918	-0.21597707
11	0xbef1900e	-0.47180218
12	0x3ecd6dc4	0.40122807
13	0xbe702b86	-0.23454103
14	0xbeaaae4f	-0.33336112
15	0xbed70de0	-0.42002773
16	0x3e8b8a9a	0.27254182
17	0xbef7e682	-0.4841805
18	0x3e75fbbd	0.24021812
19	0x3e53caa1	0.20682766
20	0x3e60a86b	0.21939246
21	0xbf1292cc	-0.57255244
22	0x3ea493ab	0.32143912
23	0x3f02376a	0.50865805
24	0x3e7d03c6	0.2470847
25	0x3e5e3d6a	0.21703115
26	0x3e2f207e	0.17102239
27	0x3e468391	0.19386126
28	0xbf2f9e1f	-0.6860065
29	0x3e233c51	0.15940978
30	0xbeb54203	-0.35401925
31	0x3e546cd6	0.20744643
32	0x3f772ea2	0.9655553
33	0x3e221113	0.15826826
34	0x3e90e000	0.28295898
35	0xbe839b64	-0.2570449
36	0x3fb5e3be	1.4210126
37	0xbf69e83d	-0.9136999
38	0xbee59422	-0.4483958
39	0x3e745b17	0.23862873
40	0xbf34a23c	-0.7056005
41	0xbe4f8d8b	-0.20268838
42	0x3db7416e	0.089480266
43	0x3e72168a	0.2364141
44	0xbeaaa3e8	-0.33328176
45	0xbe6abdb1	-0.22923924
46	0x3e3a5e14	0.1819995
47	0x3dee669d	0.11640666
48	0x3f7775ef	0.9666433
49	0x3eeff228	0.46864438
50	0x3f6b25da	0.9185463
51	0xbef5b375	-0.47988477
52	0x3fa1ad9a	1.2631104
53	0xbe970ad2	-0.29500443
54	0x3e2e0e95	0.1699775
55	0xbec87459	-0.39151266
56	0x3ed661c6	0.4187147
57	0xbe842a8d	-0.25813714
58	0x3eecd5b0	0.4625678
59	0x3e9ac705	0.30229965
60	0xbf83dd0f	-1.0301837
61	0xbed88cf0	-0.42295027
62	0xbe559f7f	-0.20861624
63	0x3dcde152	0.10052742
64	0x3e2757d0	0.16342092
65	0xbf204a86	-0.62613714
66	0xbe33c097	-0.17553936
67	0x3e130656	0.14357886
68	0x3e360f43	0.1777926
69	0x3e4bae60	0.19890738
70	0x3e8e47c0	0.27789116
71	0xbe798cbf	-0.24370097
72	0xbe95adde	-0.29234213
73	0x3e6c93ed	0.23103304
74	0xbebb74ff	-0.36612698
75	0xbe6d7a6c	-0.23191231
76	0xbead159b	-0.33805546
77	0xbea0eb67	-0.31429598
78	0x3e821fdb	0.2541493
79	0xbe858d85	-0.26084533
80	0xbe86fe15	-0.26365724
81	0x3e6e0997	0.23245846
82	0x3ebccf19	0.36876753
83	0x3ef0cdf6	0.47032136
84	0xbefbb891	-0.4916425
85	0xbe43c4b9	-0.19118012
86	0xbe8380e8	-0.25684285
87	0x3e7a64d8	0.24452531
88	0x3fb12318	1.3838835
89	0xbf04b8d7	-0.51844543
90	0x3e31001c	0.17285198
91	0x3e923c83	0.28561792
92	0x3fadece5	1.358792
93	0x3ebd112a	0.36927158
94	0x3e055c99	0.13023604
95	0xbece2fe0	-0.402709
96	0xbecdd199	-0.40198973
97	0x3e7d1c5e	0.24717852
98	0x3e07d9fa	0.13266745
99	0xbf5db96a	-0.86611044
100	0xbf180a93	-0.59391135
101	0x3e5bcdfb	0.21465294
102	0x3e952af8	0.29134345
103	0xbfb754be	-1.4322736
104	0xbf93645e	-1.1515005
105	0x3e8d7ddb	0.27635083
106	0x3e54014a	0.20703617
107	0xbef652fc	-0.48110187
108	0x3e48fce1	0.19627716
109	0x3e902745	0.2815496
110	0xbe3e2376	-0.18568215
111	0xbef30914	-0.47467864
112	0xbf165a4d	-0.5873154
113	0x3e4d7a67	0.20066224
114	0xbf27e9ac	-0.6559093
115	0x3e6c3cb0	0.23070025
116	0xbf48f1eb	-0.7849414
117	0xbea98f27	-0.3311703
118	0xbf967029	-1.1752979
119	0x3e8a7b75	0.27047315
120	0x3e5ed662	0.21761468
121	0x3e9ede57	0.31029007
122	0x3e838413	0.25686702
123	0x3e3c18cf	0.18368839
124	0xbeaf48a8	-0.3423512
125	0x3e886526	0.2663967
126	0xbe5d5fed	-0.21618624
127	0x3fbd13e6	1.4771698
128	0xbf43834c	-0.7637222
129	0xbe8873d3	-0.26650867
130	0x3fa9858b	1.3243879
131	0x3f05203e	0.5200232
132	0x3ee7c21f	0.4526529
133	0xbf2ebcf6	-0.6825708
134	0xbeb13074	-0.3460728
135	0x3e4a1dbe	0.19737908
136	0xbf0e5d9a	-0.55611575
137	0xbf175748	-0.59117556
138	0x3e0d5882	0.13803294
139	0x3e93163e	0.28727907
140	0x3e1b11eb	0.15143554
141	0x3e38e54e	0.18056223
142	0xbe817fdb	-0.25292858
143	0x3e22ec4e	0.15910456
144	0x3e80a11f	0.25122926
145	0x3e716f35	0.23577578
146	0x3e4a4742	0.19753745
147	0x3e40620c	0.18787402
148	0x3f7afd43	0.98042697
149	0x3e842616	0.25810307
150	0xbf2f656f	-0.6851415
151	0xbe697527	-0.22798596
152	0xbef27748	-0.4735663
153	0xbf23dd72	-0.64009774
154	0xbe084be7	-0.13310204
155	0x3e8704c4	0.26370823
156	0x3e9994b6	0.2999627
157	0x3e41bd5f	0.18919896
158	0x3e7bc1ad	0.245856
159	0xbe86d2d5	-0.26332727
160	0xbeaee8b0	-0.341619
161	0x3e0ed30e	0.13947698
162	0xbe9e8ad6	-0.30965298
163	0xbe78eb1c	-0.24308437
164	0xbe8ab2e2	-0.27089602
165	0x3e7c645c	0.24647659
166	0x3e8f3500	0.27970123
167	0xbf097d0f	-0.5370645
168	0xbe526fdb	-0.20550482
169	0x3f3d9a63	0.740637
170	0x3e4cfa0e	0.20017263
171	0x3e4144a4	0.1887384
172	0x3eeec900	0.46637726
173	0xbe8080e8	-0.25098348
174	0x3e67665c	0.22597641
175	0xbfa93d80	-1.3221893
176	0xbf1240a8	-0.5712991
177	0x3e79d2af	0.24396776
178	0xbe988fc8	-0.29797196
179	0xbefa89e1	-0.48933318
180	0xbe5aab41	-0.2135439
181	0xbef387c5	-0.4756452
182	0x3e56281c	0.20913738
183	0x3e0a4065	0.13501127
184	0x3e7d8b86	0.24760255
185	0xbecb18e9	-0.39667442
186	0x3e9ff93f	0.31244847
187	0x3e90951a	0.28238755
188	0x3efd6357	0.49489853
189	0x3f85a97d	1.0442349
190	0x3e6c49be	0.23075005
191	0x3e2e6caf	0.17033647
192	0x3e1e4657	0.1545652
193	0x3e80e739	0.2517641
194	0xbeab5cbd	-0.3346919
195	0xbfe956f3	-1.822966
196	0xbf00875e	-0.50206554
197	0x3f4a8598	0.791101
198	0x3e5d8a8f	0.21634887
199	0xbe9cc323	-0.30617628
200	0xbf33b56a	-0.7019869
201	0xbf2be6eb	-0.6714923
202	0xbe5e7aae	-0.21726486
203	0x3f3b5b83	0.7318651
204	0xbee6a96a	-0.45051128
205	0x3e4d31a4	0.20038468
206	0x3eade76f	0.33965632
207	0xbeb67792	-0.356381
208	0x3e711560	0.2354331
209	0xbeb9683d	-0.3621234
210	0x3e5b63a4	0.21424729
211	0xbec1059f	-0.376996
212	0x3e8dd00a	0.27697784
213	0x3e31e2a4	0.17371613
214	0x3f1a85da	0.6036049
215	0xbe9b153a	-0.30289632
216	0x3e0c8b95	0.13725121
217	0xbea2869c	-0.31743324
218	0xbf153718	-0.5828719
219	0x3e18c590	0.14919114
220	0x3f0571b3	0.52126616
221	0xbe45a36b	-0.1930062
222	0xbe8d2ff9	-0.27575663
223	0xbf507bf0	-0.81439114
224	0x3e80d4a9	0.25162247
225	0x3faa5acf	1.3308963
226	0x3e3006ab	0.17190044
227	0xbf5fd0be	-0.8742789
228	0x3f0f2000	0.55908203
229	0xbf0542a5	-0.52054816
230	0xbf92cd01	-1.1468812
231	0x3e2ffb56	0.17185721
232	0x3ec6ab74	0.38802683
233	0x3e394ee7	0.18096505
234	0x3e82f44a	0.25577003
235	0xbe3da051	-0.18518187
236	0x3e6eaaa4	0.23307282
237	0xbfaf2601	-1.3683473
238	0x3df165f7	0.117870264
239	0xbe356120	-0.17712831
240	0xbf5059a4	-0.8138678
241	0x3ed59386	0.41714114
242	0xbf3766f5	-0.71641475
243	0x3e1fc790	0.15603471
244	0xbeb9e407	-0.36306784
245	0xbe4a8b05	-0.19779594
246	0x3e8c6d7d	0.27427283
247	0xbeb88c67	-0.36044618
248	0xbf71f772	-0.94518197
249	0x3e8dbe62	0.27684313
250	0x3e9090ae	0.28235382
251	0xbf22f9b0	-0.6366224
252	0xbeadc756	-0.33941144
253	0x3f02d50d	0.5110634
254	0x3ec29672	0.38005406
255	0x3e41db46	0.18931302
