models/critic_200000.pt (torch, 291588 bytes, 5 tensors)

network.0.weight f4 [256, 23]
00000000: d522 a83e 2aa3 80bf e987 7b3f 2aa2 623f
00000010: b0f3 663f fbc0 52bf 0a51 12bf 4ae9 cdbd
00000020: c185 1b3e fa4a 843e bf40 cebe 5693 c83e
00000030: 9a31 7fbd 3f28 bcbe 4aa2 1bbe 28c3 ffbc
00000040: d369 343e ba1f 8bbf 400a c33f 3cf0 f1be
00000050: 47e1 2fbf 8e9f 693e 34b6 9ebe a777 2440
00000060: eb1d 9d3f d194 fbbd 4db5 ba3e 30f8 23bf
00000070: 9c62 e7be c365 2a3e 0eec 1c3f 31f4 8fbe
00000080: f9bc 533f d902 723f 9dfc a8be 9838 5c3e
00000090: ce24 633d 0a9e 933e 6fff d4bc 7155 72be
000000a0: cd1c 333f c9be a13c 78ce 54bf 2491 123f
000000b0: 9d1a d63a 7ffa 3d3f 1fda 02c0 2324 b93b
000000c0: 3de0 66be ba42 a53e 5c16 6e3e 15fd 9d3e
000000d0: 1827 08be 9af7 383e 1b2a c73e 9267 33bf
000000e0: b4a2 873e d7d6 93be 210f acbe 9023 d2be
000000f0: ad90 bfbe 95b8 8ebe dd6a 93be d1ef 16bf
00000100: f7c3 123f 9ae9 25bf b7d2 01bf 3e1b f9bd
00000110: 50d0 3e3f 1f63 6a3f 71f8 cabe 42d5 bc3d
00000120: 5202 963e 54df 10bf 67a6 8f3d afd8 a5be
00000130: 12fc aebe 2c11 14be cf6e 5ebf 03a9 a9be
00000140: 96c2 07be 21b4 9cbe 82ef 8c3e 57ff 38be
00000150: a66a 903d 92a4 a83c 1b66 cdbd a63e 5dbd
00000160: c3dc 973e d119 d2be ce32 a8be c2b8 5d3e
00000170: 9b8f ecbf 7b7c e43e 9965 493e 3316 06be
00000180: e3dd 01bf f70a 99be 61e7 ddbc 50aa 633e
00000190: be1b 40be 7867 e3be 4a87 e93e cf12 483e
000001a0: 4780 423c 34fe fe3e 2261 17be 6ba6 71be
000001b0: 921c 89be a86d 543f 333d ce3e 66f1 a23e
000001c0: 6fdc 0f3e 8185 0ebf e102 2ebf df64 d8be
000001d0: e6c8 0c40 f5b4 a9bd 2362 aebd 4050 bc3e
000001e0: 77d2 81be 8e1c 6abe f50a 233d 8231 6ebe
000001f0: 291d 22bf bd08 a3be 0b09 2a3e 0697 dfbe
00000200: 5601 883e 9f6b ca3c 1cc2 d23e 75a0 a2be
00000210: 15b0 893d 0c54 0dbf 7226 6b3e d7ea 56bd
00000220: 241d 10bf 8400 6dbf 4ef4 51be dbc8 1ac0
00000230: a7d3 493f b44c 063f 9b25 31bd e4c7 2c3e
00000240: 927b 993e 782e 873e ab06 023e 12af b2be
00000250: 342e 2dbf 358f e0bd 2683 35be faea 073e
00000260: 7344 aabe 5630 0c3d 6463 953d 6361 c0be
00000270: 7d73 ff3e a9db b83e eae4 bdbf 5bc8 9ebd
00000280: 23a1 28bf 5c9e c63f dad9 9cbd b7fc 793d
00000290: 823f edbe 817c e33d bb99 f63e 4fac 44be
000002a0: 531e 48be 3d4e fe3d 6d8a 1b3f 9201 e1be
000002b0: 49bb 9a3d a671 c1be a621 d83e e4cd 073e
000002c0: 3699 de3e 2212 c43e 29dd 8abe 02fd aebe
000002d0: 1e16 74bf 35eb 873e 5527 993e bdfe f83c
000002e0: 8b3c 623e 2ece b13e 41e9 32bf e45a 293f
000002f0: 4b46 94be 98e1 d1be d86c f53e c8ba 273d
00000300: 68a5 783e a241 14bf 65d7 2a3e 8675 09bd
00000310: 0f56 7d3d 17a6 bc3e a2d1 3d3e 308d a63e
00000320: 85f0 cebe c11c 3a3f 3ce7 f3bd 8c15 2d3f
00000330: 8bdd 08bf 40ef 4d3d aeda bf3e c69f a23f
00000340: b331 dabe ee05 4dbf 8de4 22bf 2753 eebe
00000350: d6f6 d8be d3b9 b13e 5588 8b3e d6da bc3d
00000360: 1a3f 033e cf90 77be 3fe0 f6be f2ca abbe
00000370: 0e27 8abe 5550 ea3e a2ac f73c 7b05 98be
00000380: 9300 203f d5a9 153f 622c 7fbc 00e3 9b3c
00000390: 9b73 e7bd d8a3 b9be 7e08 4f3e c6dd efbe
000003a0: 1713 95bd 6abe ad3e 5657 08bf 1a82 913c
000003b0: 8584 023f b249 debe 0458 4f3e a151 4cbd
000003c0: b5f4 c0bd 7be8 8a3e e57f a0bd 2d8f 49be
000003d0: 9b31 36bc fdd5 123e 69e3 a23d 5556 253f
000003e0: cdf0 a33c 29ac ec3e 5a5c fdbd f0ac 36be
000003f0: 7376 b23e c901 8cbf 640f 64bd 6860 c03e
0.32839075 -1.0049794 0.9825426 0.8852869 0.9021559 -0.82325715 -0.57154906 -0.10054262
0.15187742 0.25838453 -0.40283772 0.39174908 -0.062303163 -0.36749455 -0.15198627 -0.031220987
0.17618494 -1.0869057 1.5237503 -0.47253597 -0.6870312 0.22814772 -0.30998385 2.569803
1.2274755 -0.12284244 0.36466447 -0.6405058 -0.4519242 0.16640382 0.6129769 -0.2811599
0.82710224 0.94535595 -0.3300523 0.21505964 0.05545502 0.28831512 -0.026000706 -0.23665406
0.6996582 0.019744294 -0.83127546 0.57252717 0.0016334836 0.7421035 -2.044563 0.00565006
-0.22546478 0.3227747 0.23250717 0.3085715 -0.13296163 0.18063203 0.3889931 -0.7007991
0.2649132 -0.28874847 -0.33605292 -0.41042757 -0.37415066 -0.278752 -0.28792468 -0.5895968
0.5733027 -0.6480957 -0.5071215 -0.12163399 0.7453661 0.91557497 -0.3964267 0.09220363
0.29298645 -0.5659077 0.070141606 -0.3239188 -0.3417669 -0.14459676 -0.8688783 -0.33136758
-0.13257822 -0.30606177 0.2752648 -0.18066154 0.070515916 0.020586286 -0.10029241 -0.054014824
0.29660615 -0.4103532 -0.3285126 0.21652511 -1.8481325 0.4462622 0.19667663 -0.13094406
-0.507292 -0.29891178 -0.02708787 0.22232938 -0.18760583 -0.44414878 0.4561103 0.19538425
0.011871404 0.49803317 -0.14783147 -0.2359864 -0.2677961 0.8297982 0.40281066 0.31824797
0.14048932 -0.5567246 -0.6797314 -0.4226446 2.1997619 -0.08286468 -0.08514812 0.36779976
-0.25355884 -0.22862455 0.03980537 -0.23261073 -0.63325745 -0.31842604 0.16605012 -0.4366991
0.2656352 0.02470952 0.4116372 -0.31763044 0.06723038 -0.5520637 0.22963884 -0.052470054
-0.56294465 -0.9257891 -0.20503351 -2.4185092 0.7883858 0.5246079 -0.043248754 0.16873127
0.2997709 0.2640264 0.12697856 -0.34899193 -0.67648625 -0.109648146 -0.1772581 0.1327323
-0.33255348 0.034225784 0.07294348 -0.375743 0.49892798 0.36105087 -1.4835484 -0.077530585
-0.65870875 1.5517077 -0.076587394 0.061032023 -0.46337515 0.111077316 0.48164162 -0.19206356
-0.19542818 0.124172665 0.60758096 -0.4394651 0.07555253 -0.3778202 0.42213172 0.13262135
0.43476266 0.38295084 -0.27121857 -0.34177405 -0.9534625 0.26546636 0.2991282 0.030394906
0.22093408 0.34727615 -0.6988717 0.66154313 -0.2895988 -0.40992427 0.47934604 0.040949613
0.24281847 -0.5791265 0.16683729 -0.033559345 0.06184965 0.36845466 0.18537 0.32529593
-0.40417877 0.72700125 -0.11909339 0.67611 -0.5346305 0.050276995 0.37471527 1.2705009
-0.42616042 -0.80087173 -0.6362999 -0.46547815 -0.4237582 0.34712085 0.2725245 0.09221427
0.1281704 -0.24176334 -0.4821796 -0.33553272 -0.2698292 0.45764413 0.030233685 -0.2969168
0.62500876 0.5846227 -0.0155745465 0.01902914 -0.11301347 -0.36257815 0.20218083 -0.46848887
-0.07279032 0.33934337 -0.53258264 0.017762233 0.5098346 -0.434156 0.20248419 -0.049882535
-0.09421674 0.27130494 -0.07836894 -0.19683523 -0.011120225 0.14339443 0.07953531 0.6458486
0.020012284 0.46225098 -0.1237113 -0.17839408 0.34855995 -1.0938045 -0.05567874 0.37573552

network.0.bias f4 [256]
00000000: 3516 57bf 05e0 52bf 650a ae3f 53e6 9ebf
00000010: a794 a43f 6ff5 a7bf 2106 79bf dea8 c23f
00000020: c03e b93f eee3 dc3f 13c7 d83f add6 40bf
00000030: ffb1 c43f 2ea5 b6bf fae8 aebf 0965 c43f
00000040: e8a0 c13f 19b9 80bf 5bc5 b1bf 5b91 c93f
00000050: d537 c73f de54 8c3f c98c 0c3f b911 90bf
00000060: 2b4b a23f c016 b43f e798 653d 9312 b53f
00000070: 6c72 b93f fbc1 91bf a8ad 9ebf 3418 c6be
00000080: 3280 c93f 0ac0 c23f 0430 953f b69a aa3f
00000090: 7e70 a3bf 09a0 a5bf 8fa2 d63f 4a82 c93f
000000a0: 22c2 b3bf b51c 93bf 9fa3 c83f b93c b4bf
000000b0: 5222 9dbf e99b 9b3f 9e25 aabf 05a3 c23f
000000c0: c2c1 a2bf 8017 f13f dba8 bf3f f591 c73f
000000d0: 2f4a bbbf 7024 bb3f 7f5c 9bbf a00f afbf
000000e0: d265 cb3f b125 9d3c 674f d53f 0b68 adbf
000000f0: 6517 9dbf 0814 aabf 20a8 9e3f 0f05 98bf
00000100: 6f06 cf3f ed6d c53f b682 23bf 6ee2 b23f
00000110: 4d06 bcbf ee2b 84bf 9967 98bf 78ea 90bf
00000120: 6cf4 c73f c63a e63f 44fc 9bbf 86fe bf3f
00000130: 2a2d ae3f 6069 97bf 256b d13f 7c78 803f
00000140: 0865 8c3f 4bdd 91bf 13a6 913f caf9 e13f
00000150: d6b9 ca3f d26e 97bf 9de3 ef3f 2548 9f3f
00000160: ebfe 4ebf 2703 c43f 80e2 abbf 0bcc b53f
00000170: ee98 b93f 8813 f13f aee9 b93f 4b37 9d3f
00000180: 80bf da3f c0f1 c73f 2833 b83f 577c a7bf
00000190: b3ed a1bf a43e 91bf e6a0 91bf cc0a b93f
000001a0: 2378 72bf 41cc c63f 88fa 85bf 8e6c bc3f
000001b0: 379f 83bf 5bb1 893f c492 b33f 72c3 aabf
000001c0: c78c bf3f 0b54 e03f 51d4 ce3f 445e 9cbf
000001d0: beb4 aebf 6aed aebf 3439 23bf cc04 c03f
000001e0: a352 c33f e5fc ba3f b0c4 8ebf d8db bcbf
000001f0: 9a16 d23f d26c c33f 00aa 96bf 8d9e 8bbf
00000200: ab01 a2bf 51ad 9bbf e64b 9abf a56a 6dbf
00000210: 18c9 d63f c97a 96bf 8dd4 c83f b4f2 b93f
00000220: 5309 8dbf 303e be3f b699 97bf a151 57bf
00000230: 8f01 a23f 7ddd 8e3f 05c3 9bbf e38c df3f
00000240: c259 bf3f 3648 c3bd ba2e c5bf ca8b a83f
00000250: 0270 44bf 1c72 85bf e6ee 19bf 3e6c 3bbf
00000260: c6b9 d13f 2007 96bf ea7d cc3f 584f 75bf
00000270: 983f c53f e5a3 ba3f e4e0 d63f 378e bb3f
00000280: b538 d63f 2d90 dd3f 38da a33f 2d71 fc3f
00000290: c04a a73f e25a a9bf 5be0 ac3f 5d93 d13f
000002a0: 5de0 c23f 26ef 94bf 8c45 78bf a0a4 3240
000002b0: a649 9cbf e621 8c3e 2381 bb3f d292 85bf
000002c0: 10af 79bf 6e00 a0bf 9f75 dc3f 506a 8fbf
000002d0: bddb c23f ca50 8f3f ac2f adbf de2d 4d3f
000002e0: aa46 b3bf 4c53 af3f 43a3 cb3f f851 cb3f
000002f0: e9c3 d23f 8a56 b03f 6301 ca3f 0d7e 52bf
00000300: d70a d73f 282f 4ebf fd86 c83f 6d51 8f3f
00000310: f0aa 96bf 9716 c63f 20a2 8ebf 8f08 c03f
00000320: f701 cd3f ff55 bf3f 29be 96bf 1d39 943f
00000330: d633 bf3f 3b59 adbf 3289 c33f 8856 bbbf
00000340: e538 6b3f 8b54 b7bf 7173 0440 5067 f43f
00000350: 9067 933d 91f1 99bf dc2e d03f 8fd0 bb3f
00000360: 13d5 93bf 41ac 423e 12fa c73f d187 983f
00000370: 3026 bb3f 559a 82bf 20c8 b53f a8b6 e73f
00000380: 0d54 d03f c1b1 8ebf 91e1 d03f 216f a5bf
00000390: 4aa6 bbbf 3b89 d63f d012 abbf 729c c23f
000003a0: 3aeb ca3f 1d91 d03f 65ca c03f 87bc b4bf
000003b0: 3975 e93f c6ea a3bf 6ac5 c03f f9b8 c63f
000003c0: e15e a33f f708 b0bf 7a59 ca3f 52ea d63f
000003d0: de9a 8dbf fc62 29bf 7d22 c63f d549 b3bf
000003e0: 7c61 84bf aff6 b43f 0a4d c93f c48e a1bf
000003f0: c3da b83f c630 acbf 68ae cf3f 53eb be3f
-0.8401826 -0.82373077 1.3596922 -1.2414039 1.2857865 -1.3121775 -0.97274977 1.5207784
1.4472275 1.7257059 1.6935753 -0.7532757 1.536682 -1.4269159 -1.3664849 1.5343333
1.512723 -1.0056487 -1.3888353 1.5747484 1.5563914 1.09634 0.5490232 -1.1255409
1.267919 1.4069443 0.056054022 1.4146293 1.4488044 -1.1387323 -1.2396746 -0.3869034
1.5742247 1.5214856 1.1655278 1.3328464 -1.2768705 -1.2939464 1.6768359 1.5742886
-1.404362 -1.1493136 1.5674933 -1.4081031 -1.2276099 1.2156955 -1.329273 1.5206
-1.271538 1.8835297 1.4973406 1.5591418 -1.4632014 1.4620495 -1.2137603 -1.3676643
1.5890448 0.019183012 1.6664857 -1.3547376 -1.2272764 -1.3287363 1.2395058 -1.1876544
1.6173838 1.5424172 -0.63871324 1.3975351 -1.4689423 -1.0325906 -1.1906615 -1.1321554
1.5621467 1.7986686 -1.218636 1.4999549 1.3607533 -1.1829033 1.6360823 1.0036769
1.0968332 -1.1395658 1.1378807 1.7654355 1.5837963 -1.1830695 1.8741337 1.2443892
-0.80857724 1.5313462 -1.3428497 1.4202894 1.4499795 1.8834085 1.4524438 1.2282499
1.7089691 1.5620651 1.4390612 -1.308482 -1.2650665 -1.1347241 -1.1377227 1.445642
-0.94714564 1.5531083 -1.0467081 1.4720628 -1.0282964 1.075725 1.4029164 -1.3340895
1.4964837 1.7525648 1.6158544 -1.2216268 -1.3648908 -1.3666203 -0.6375916 1.5001464
1.5259594 1.4608427 -1.1153774 -1.4754591 1.6413147 1.5267584 -1.177063 -1.0907761
-1.2656759 -1.2162267 -1.2054412 -0.9274085 1.6780119 -1.1756221 1.5689865 1.4527192
-1.101847 1.4862728 -1.1843784 -0.8410893 1.2656726 1.1161343 -1.216889 1.746487
1.4949267 -0.095352575 -1.5404885 1.316766 -0.7673341 -1.0425448 -0.60130155 -0.7321204
1.6384819 -1.1720924 1.5975926 -0.95824194 1.5410032 1.4581267 1.6787381 1.4652776
1.6736056 1.7309624 1.280097 1.9722039 1.3069687 -1.323086 1.3505968 1.6373097
1.522472 -1.1635482 -0.9698112 2.791298 -1.2209976 0.27369612 1.4648784 -1.0435431
-0.9753275 -1.2500131 1.7223395 -1.1204319 1.5223309 1.119653 -1.3530173 0.8014811
-1.400594 1.3697295 1.5909199 1.588439 1.6466037 1.377641 1.5781673 -0.8222359
1.6800183 -0.80540705 1.5666195 1.1196724 -1.1770916 1.5475644 -1.1143227 1.5002612
1.6016225 1.4948119 -1.1776782 1.157993 1.4937694 -1.3542856 1.5276244 -1.4635782
0.9188369 -1.4322675 2.069546 1.9094028 0.07197487 -1.2026845 1.62643 1.4673022
-1.15494 0.19011022 1.562319 1.1916448 1.4621029 -1.0203348 1.4201698 1.8102617
1.627565 -1.1147996 1.6318837 -1.2924539 -1.4660122 1.676063 -1.3365116 1.5203993
1.5853035 1.6294285 1.5061766 -1.4120034 1.8238899 -1.2806022 1.5060246 1.5525199
1.276333 -1.3752736 1.5808556 1.6790259 -1.1062887 -0.66166663 1.5479275 -1.4006907
-1.034225 1.4137782 1.5726635 -1.2621694 1.4441761 -1.3452384 1.62251 1.4915565

network.2.weight f4 [256, 256]
00000000: 1bb4 4e3d f0b8 403e 8185 bcbd 036c 2f3e
00000010: f952 fabc 2b01 1bbe c42d 0e3d a79c 61bc
00000020: 3075 50bd 3530 b0bd 088a dabd 4cec 8ebc
00000030: 3391 33be b451 c23d 43f3 043e e2b1 303d
00000040: 8404 b9bd 6fe4 42bc 1c15 a1bd 9b7e 873d
00000050: 705b 893d 0708 8d3d 15c3 fa3d 7684 d03d
00000060: e701 bd3d a15f ee3a 4c9f 21be 01cb c6bd
00000070: 5aa3 2f3e 3965 673e 9c7c e53d 2bcf 2f3e
00000080: 1661 a23d 3a05 11bd af26 333d 5294 033e
00000090: 5812 c53c 3e51 af3e e4bd b239 fd56 39be
000000a0: e507 993e 3fa7 2e3c c301 e8bd c787 2c3e
000000b0: a1cc 003e e4b8 2e3c 1018 7dbe e278 293e
000000c0: b0c3 4b3e 8281 8bbe ffcd cabd 8978 1bbe
000000d0: af93 0e3d 23f2 6fbd 097f 033e 3c11 ebbd
000000e0: 5db4 50bd 5ad0 37be 0609 85bd 31f7 533e
000000f0: d90b a9bd 388c 503e 5f87 3dbd 61ab 1e3e
00000100: fde4 9c3c e4eb 183d 89c7 043d 77fb 4c3d
00000110: 7a28 1b38 4a7a d43c f5e8 913c c372 a7bb
00000120: d975 07be c491 46be 4cb1 1b3e f0fc 0a3e
00000130: 4c24 43be 17ed 223e cc9a 9e3d d8af 48be
00000140: bd69 76bd dc51 0c3c 2d79 85be 0b01 41bd
00000150: 19d8 543d 5490 073e 7c3c cfbd 1c14 a9bd
00000160: 6e43 523d 07a5 13be 1ecf 873e 928d 76bd
00000170: 9f89 5bbc 9380 843c c922 03be 56b7 7fbd
00000180: 0bc0 4fbe 4a1e e33d d02b 783d 9b0a c9bc
00000190: 4c63 363e fb61 39bd 1dfc 13bd f01f 50bd
000001a0: d7ee e7bd b067 bbbd ad15 90bd bab2 963c
000001b0: 6411 afbc 2a0a 223d 2fc7 863d e244 1d3c
000001c0: b810 d7bd 0cf9 e33d b1d3 053d 31f7 633c
000001d0: 585b 873d 92c6 703e 4203 e33c 4668 77bd
000001e0: ae85 cfbd 603e 0bbe b09e 673e 71b5 423e
000001f0: cb59 0e3c 0ca1 17be 1c9f 70bd ce1a 443e
00000200: 61a0 1f3e aeb3 a13e d05d eabd 2730 963d
00000210: 77c7 71be d5cb c03e c1cf d93d beef 4cbd
00000220: 1a77 063e d9c3 e8bd 0385 69bd 3ac1 2dbc
00000230: 4a94 e3bc e4fe 4b3e e3e7 10bd 8a24 fe3d
00000240: 0692 b23d efa7 8fbc c1d8 393e 9876 60be
00000250: 3f9b 553d 973b eebd 6121 bcbd d4e1 0fbd
00000260: c43a 00be 8ca0 96bc c70e 30bd 34f3 313e
00000270: 71d5 e8bd 9aad bd3d f25c 03be fe63 393e
00000280: ce61 80bd 7564 c53d 0304 443d 7e9f 3fbe
00000290: 8fbc fcbc 4090 083e e851 ee3d 9748 3c3e
000002a0: bfbf 3a3d e13b 56bc 2434 6b3d a4d3 78be
000002b0: d874 b1bd 2e18 2abd 42b8 dfbb b9bf c1bd
000002c0: 138d 593e a249 933d e251 9f3c e7cd fd3c
000002d0: 3266 f8bd a41a 4dbe 1f92 603e 6cb5 0bbe
000002e0: ddab a73d b049 76bd 1786 99bc ce9b b73d
000002f0: c6ba 1fbe fc0f 04bd 8eb4 1e3e 23cc afbd
00000300: 3443 babd 1101 07bc d7ab 03bc 86fd d73c
00000310: fd7f 333d d4c9 85bd 88be b33c b322 d13d
00000320: 50be 093e b82a c4bd 4f71 d5bd f115 38be
00000330: 2520 1c3e aeaa 983d ed50 9b3d 6bec 91bd
00000340: efd7 423c fcf3 bb3d 5329 49be 884e 11be
00000350: 7aa8 30be 91f2 823d b249 4bbd 50a7 6cbd
00000360: 54e4 efbc 1762 053e ece1 2a3e f153 46bd
00000370: c509 32bd b4b3 4cbd ddac ea3d 27c2 b73d
00000380: b2aa fdbd 70b3 dabc 9418 84be cc67 0e3e
00000390: a4ca bdbc fd5f 21be d313 003e 1a87 9d3d
000003a0: 94fe 683d 61c0 1ebd 3055 b7bd 19a0 3c3e
000003b0: f676 dbbd bae7 0ebc 5245 893c 70d3 1d3e
000003c0: c0eb 0d3e 5b9c 3cbe 4f82 d43c 9864 b73c
000003d0: 7494 1a3d 9b17 05be 39e8 a93d b1fd 183e
000003e0: 856d c83d 4ab4 6abe 4b1e 7dbd eb29 ae3d
000003f0: 417c 29be 03af 0e3e f020 02be 1ccc 3fbd
0.05046473 0.18820548 -0.09205151 0.17131047 -0.030557143 -0.15137164 0.034711614 -0.013770259
-0.05089301 -0.08602945 -0.106708586 -0.01744666 -0.17535858 0.0948824 0.12983422 0.043138392
-0.090340644 -0.011895283 -0.078653544 0.06615945 0.067068934 0.06886297 0.1224424 0.10181515
0.092288785 0.0018186459 -0.15783423 -0.09706689 0.17152157 0.22597207 0.11205408 0.17168872
0.07928674 -0.035405375 0.043738063 0.12849548 0.024056599 0.3424167 0.00034092285 -0.1809959
0.29888836 0.010659992 -0.11328461 0.1684867 0.1257806 0.010664199 -0.2471621 0.1655002
0.19898868 -0.27247244 -0.09902572 -0.151827 0.03480881 -0.05858053 0.12841429 -0.114778966
-0.050953258 -0.17950574 -0.06495862 0.20699765 -0.08254213 0.20365989 -0.046271678 0.15495063
0.019152159 0.037334338 0.032416854 0.050044503 3.6992576e-05 0.025937218 0.017811278 -0.005110116
-0.13228549 -0.19391543 0.15204352 0.1357305 -0.19056815 0.15910755 0.07744369 -0.19598329
-0.060159434 0.008564439 -0.26069012 -0.047120135 0.0519639 0.1323865 -0.10118958 -0.08255789
0.051333837 -0.14418422 0.26525205 -0.060193606 -0.013399511 0.01617459 -0.12806238 -0.062430702
-0.20288102 0.110897616 0.060588658 -0.02454119 0.17811316 -0.045259457 -0.036129106 -0.050811708
-0.11324852 -0.09150636 -0.07035384 0.01839577 -0.021370597 0.039560474 0.0658096 0.0095989425
-0.10501236 0.11131486 0.032672588 0.0139139155 0.06609219 0.23513249 0.027711514 -0.060402177
-0.10132919 -0.13598013 0.22619128 0.19014527 0.0086884005 -0.14807528 -0.05874549 0.1915085
0.15588523 0.31582397 -0.114436746 0.07333403 -0.23611246 0.37655511 0.10635329 -0.050033323
0.13131371 -0.1136548 -0.057011615 -0.010605151 -0.02778067 0.19921452 -0.035377394 0.12409313
0.08719258 -0.017536132 0.18149091 -0.2192024 0.052150007 -0.116324596 -0.09186054 -0.035127476
-0.12522417 -0.018387102 -0.042982843 0.17377931 -0.11368836 0.092616275 -0.12828425 0.1810455
-0.06268655 0.09638301 0.04785539 -0.18713185 -0.03085163 0.13336277 0.11636716 0.18387066
0.04559302 -0.0130758 0.057422772 -0.24299484 -0.08664864 -0.041526966 -0.006827385 -0.09460396
0.21245222 0.07191779 0.019448224 0.030981971 -0.12128867 -0.20029694 0.21930741 -0.13643426
0.08187077 -0.060128868 -0.018740697 0.08965264 -0.15598592 -0.032241806 0.15498564 -0.08583858
-0.09094849 -0.00824 -0.008036575 0.026366007 0.04382323 -0.06532636 0.021941438 0.102116965
0.13451505 -0.095784605 -0.104220025 -0.1797712 0.15246637 0.074544296 0.07583795 -0.07125171
0.011892303 0.09177396 -0.1964467 -0.14190114 -0.17251769 0.06393922 -0.04963083 -0.05777675
-0.02928368 0.130257 0.16687745 -0.048419897 -0.04346635 -0.049976066 0.11458752 0.089725785
-0.12386073 -0.02669689 -0.25800002 0.13906783 -0.023167916 -0.15759273 0.12507562 0.07691784
0.05688341 -0.038757686 -0.08951795 0.18420447 -0.107160494 -0.00872224 0.016756687 0.15412688
0.13859463 -0.1841902 0.025941042 0.022386834 0.037739232 -0.12997286 0.08296246 0.14940526
0.09786514 -0.22920337 -0.061796468 0.08504089 -0.16551305 0.13933949 -0.12707877 -0.046825513

network.2.bias f4 [256]
00000000: 4a01 bebf fece 97bf a6c5 d23f 26d2 d13f
00000010: 6abd c53f e5ae d53f 13b2 d43f 660b 9bbf
00000020: 88b8 cb3f 5d5a c8bf 4a50 b6bf 8198 83bf
00000030: 8d16 913f 377a afbf 7ec9 abbf e5f4 8dbf
00000040: b19c d23f 29a3 27bf 0706 cf3f f8fb cf3f
00000050: dfc8 d03f af32 b2bf 0164 d03f 98f4 d13f
00000060: 425b bf3f 28b8 d43f 35cf d13f c1e9 cf3f
00000070: 4376 acbf 8680 d23f 9b0a a5bf 3029 c83f
00000080: 3101 b43f f4f4 d03f bec1 d93f a90d a9bf
00000090: 8663 473f 0437 91bf 07de 86bf fce5 d03f
000000a0: 404a 1fbf bd3c b0bf ea25 d03f e3ff d53f
000000b0: 84d6 a7bf ede6 9cbf a363 d63f 0a06 d63f
000000c0: 188e f83f fa9c d33f 93fd e83f c5b3 a5bf
000000d0: 9fad ba3f c6ff 89bf a469 d23f 2cef 8fbf
000000e0: 16f4 943f 53f0 a6bf f43d ab3f 3d9f cc3f
000000f0: 21ab 81bf 6352 a0bf dd60 babf a00e d03f
00000100: 09f5 ca3f 3ca1 a5bf 3d07 b2bf 5dea d53f
00000110: 4833 d73f 424d d33f 18d0 a83f 3aad b2bf
00000120: 8127 89bf d464 cf3f 7ba1 b5bf 4438 b0bf
00000130: b5df 96bf 459c 97bf 8cde ca3f 9408 a0bf
00000140: fccb a6bf 8ef2 d13f ec98 c53f f8d7 9a3f
00000150: 5890 98bf 7c43 a6bf 530d aebf 6b79 cc3f
00000160: ee2f ba3f 5a41 87bf b040 d03f e15f cd3f
00000170: e1a6 f83f 2fd8 d33f 1f4f d73f afef 93bf
00000180: fbde 9dbf 839d d53f 90af d73f 11e5 4bbf
00000190: f4dc 7dbf 2e7e cf3f 1d1e d03f 52f6 96bf
000001a0: b161 56bf 1797 ca3f e9fe d73f a97b a8bf
000001b0: 42f1 cf3f d501 d03f 2dbf bebf 849d 9cbf
000001c0: fdc1 a6bf ca22 cd3f 8cec 8dbf 901f d13f
000001d0: 3b97 87bf ac98 8bbf 25c5 8fbf de90 d03f
000001e0: 1f30 cb3f e99b bf3f 3b94 d13f 60ff d03f
000001f0: 9de5 a7bf 2560 ce3f 6dfe a6bf 3a4d d83f
00000200: fd23 9dbf 056b afbf 3e3a b23f 0920 d33f
00000210: ecd9 d63f 1d77 94bf 1dd6 a1bf bc8c cf3f
00000220: 4802 80bf 5bb2 b3bf e51b d33f d0e0 cf3f
00000230: d7a6 da3f 06a9 ce3f fd51 9bbf 06c0 d23f
00000240: 930f d03f 4a2a d33f 7eab d13f d70c d13f
00000250: 3a95 b43f a03c d23f 8136 82bf 801b a1bf
00000260: 6704 a0bf a595 6abf 088a b5bf 1886 df3f
00000270: 43ea d13f 9787 d13f c7e5 ce3f 8daf c2bf
00000280: cf06 a0bf 84a4 d13f 851f b8bf 006e b7bf
00000290: 4033 82bf 95e2 d63f 8da9 cd3f 43ca 98bf
000002a0: 7b50 bfbf 2ce8 c83f 1a4b ce3f 5898 cf3f
000002b0: aabc bb3f 3df7 b4bf eab1 d63f 236b 75be
000002c0: c083 81bf f37a d13f 382d 93bf 1c06 b8bf
000002d0: 2392 b4bf e8ae 9ebf 1c9d d13f c9bb d23f
000002e0: 2c1d e23f 2e6e 9dbf 31e3 dc3f 5c7e c73f
000002f0: fb9e 903f decf f63f c10a d13f ba7b d13f
00000300: aec2 d03f 30a8 cf3f 27dc a8bf f543 22bf
00000310: ad9f aebf 3084 bf3f ed94 cf3f 0dc0 81bf
00000320: ce50 93bf 6ca7 a5bf 078c 97bf 9e94 ea3f
00000330: f4c0 87bf 0d6e d33f 2204 c43f 1f0c adbf
00000340: 1554 c63f 0edf 79bf efc2 c23f a7b2 90bf
00000350: 761a d13f 06c7 cf3f 7b66 c93f 5f30 9cbf
00000360: 4829 dc3f 1c09 b1bf f606 aebf 471d d63f
00000370: 2df9 b83f 1cc7 89bf a872 92bf 9579 84bf
00000380: 334c d03f 589c 0e40 ecbb d33f eb27 56bf
00000390: 0661 993f 1f74 c5bf 7e35 87bf daca d63f
000003a0: 1b42 b63f e299 d13f 8968 d13f b763 9abf
000003b0: 09da cd3f 2cce 99bf c382 d23f e60a a4bf
000003c0: 7e26 95bf 2de0 d23f 5c9d 88bf be20 cb3f
000003d0: bbfb 8abf 126b b5bf 2ad1 ca3f c586 58bf
000003e0: 017e 76bf 03d0 d13f d844 d63f 2c5b 8bbf
000003f0: a65f abbf a7e4 bf3f bb53 b53f 99ea d03f
-1.4844143 -1.1860044 1.6466568 1.6392257 1.544843 1.6693999 1.6616844 -1.2112854
1.591569 -1.5652577 -1.4243252 -1.0280915 1.1335007 -1.3709172 -1.3420866 -1.1090361
1.6454068 -0.6548334 1.6173714 1.624877 1.6311301 -1.3921717 1.6280519 1.6402769
1.4949725 1.66187 1.639136 1.6243211 -1.3473591 1.6445472 -1.2893862 1.563757
1.4062864 1.6324754 1.701225 -1.3207294 0.77886236 -1.1344914 -1.0536507 1.6320186
-0.6222267 -1.3768536 1.626157 1.6718715 -1.311234 -1.2257973 1.6749157 1.6720593
1.9418364 1.653228 1.8202385 -1.2945486 1.4584235 -1.0781181 1.6438489 -1.1244864
1.1636989 -1.3042091 1.3378282 1.5986096 -1.0130349 -1.2525142 -1.456081 1.6254463
1.5856029 -1.293983 -1.3908459 1.6712147 1.6812525 1.6507952 1.3188505 -1.3959115
-1.0715181 1.6202645 -1.4189905 -1.3767171 -1.178702 -1.1844565 1.5849166 -1.2502618
-1.3031001 1.6402147 1.5437293 1.2097158 -1.191905 -1.2989345 -1.3597816 1.5974554
1.4545877 -1.0566819 1.6269741 1.6044885 1.9425927 1.6550349 1.6821021 -1.1557521
-1.2333673 1.6688694 1.6850452 -0.796464 -0.9916527 1.6210382 1.625919 -1.1793921
-0.83742815 1.5827359 1.6874667 -1.3162738 1.6245501 1.6250559 -1.4902092 -1.223557
-1.302795 1.6026242 -1.1087813 1.6337757 -1.0593027 -1.0905967 -1.1232039 1.629421
1.587406 1.4969455 1.6373361 1.6327934 -1.3116947 1.6123091 -1.3046395 1.6898568
-1.2276608 -1.3704535 1.3924024 1.6494151 1.6785254 -1.159885 -1.2643467 1.6214824
-1.0000696 -1.4038805 1.6492888 1.6240482 1.7082165 1.6145332 -1.2134396 1.6464851
1.6254753 1.6497281 1.638046 1.6332043 1.410804 1.6424751 -1.0172883 -1.2586517
-1.2501343 -0.9163459 -1.4182749 1.7462797 1.6399616 1.6369504 1.6163872 -1.5209824
-1.2502078 1.6378331 -1.4384619 -1.4330444 -1.017189 1.6787897 1.6067368 -1.1936725
-1.4946436 1.5695853 1.6116669 1.6218367 1.4666951 -1.4137951 1.6773045 -0.2396665
-1.0118332 1.6365646 -1.1498175 -1.4376864 -1.4107097 -1.2397127 1.6376071 1.6463557
1.7665153 -1.2299249 1.7256833 1.5585437 1.1298517 1.9282186 1.6331407 1.6365883
1.6309412 1.6223202 -1.3192185 -0.63384944 -1.3642479 1.4962215 1.6217324 -1.0136734
-1.1509035 -1.2941718 -1.1839608 1.8326604 -1.060576 1.651796 1.5313761 -1.3519324
1.549441 -0.9760598 1.5215739 -1.130452 1.63362 1.6232612 1.57344 -1.2202262
1.7200098 -1.3830905 -1.3595874 1.6727685 1.4451042 -1.0763888 -1.144124 -1.0349604
1.6273254 2.2282925 1.6541724 -0.8365466 1.1982734 -1.5426062 -1.05632 1.6780655
1.4238924 1.6375086 1.6360027 -1.206168 1.6082164 -1.2016044 1.6446155 -1.2815826
-1.1652372 1.6474663 -1.0673022 1.5869367 -1.0858072 -1.41733 1.5845082 -0.8458064
-0.96286017 1.6391605 1.673976 -1.0887198 -1.3388565 1.4991654 1.4166178 1.6321594

network.4.weight f4 [1, 256]
00000000: 5062 88be 830b 9dbe c5cf 793e 72e6 733e
00000010: ed3d 883e 60d8 3c3e 68d6 013e 6fa3 37be
00000020: fbf7 b53f 9b87 39bf 30e2 6bbe 9b93 dcbe
00000030: 0b90 bf3e 9f04 4ebe a6aa b4be 8498 c3be
00000040: 90a5 8b3e b368 f3be 7f9d 763e 1bbb 513e
00000050: 6583 5f3e c35c 16bf bd24 a73e 3524 003f
00000060: fb5c 7f3e d4a8 5d3e 463f 2d3e a820 463e
00000070: 52f4 2bbf dcb8 223e c2b5 bcbe a5f7 583e
00000080: 7d82 783f 8d9e 213e 5919 933e a759 91be
00000090: 20f4 923f bcb7 6fbf 1ba3 cbbe b2a9 743e
000000a0: 8363 2dbf 40c8 57be 0619 bc3d c182 783e
000000b0: 0a23 98be 80f7 6bbe fa4f 393e eb34 f13d
000000c0: 3896 8e3f c03c 013f 0a2d 703f cde0 f5be
000000d0: 0cc9 ab3f 5cba 95be 3076 303e b37a a2be
000000e0: 6272 ea3e d4a7 9cbe 4f6d f83e 5611 9a3e
000000f0: dd3f 7bbf 782f fdbe e33c 64be 2701 d33d
00000100: 250a 2b3e af52 1abf 176d 2bbe bbe4 123e
00000110: 2198 2f3e aff4 4b3e aab7 7e3e 1fc2 86be
00000120: 9123 7bbe 3f8e 6a3e 8a68 c7be f5bf 82be
00000130: a492 b9be fc60 a1be 09d6 813e 1536 82be
00000140: 101e 77be 31bc 6d3e 0c9e bd3e 4313 043f
00000150: df7f e7be f395 44be 6926 81be 0392 723e
00000160: cd4b c43f 0bba 16bf 1d3d 313e 208d 913e
00000170: 84be b73f aa71 be3e fd0a 043e 1895 d9be
00000180: 2292 d1be 7257 7b3e 3ade 003e 9722 21bf
00000190: c43f 11bf ffca 5c3e 0196 8f3e 64b0 afbf
000001a0: e990 7bbf 33a7 823e 4ce0 523e 008e e4be
000001b0: 94c1 483e 25a3 903e 3160 6fbe f844 ecbe
000001c0: ac84 08bf c7a5 4b3e 5127 17bf 48f3 6c3e
000001d0: f449 3ebf 7c92 aabe 1934 83bf 2a36 8a3e
000001e0: dc3e 663e bb00 9f3e db95 833e b716 3d3e
000001f0: be12 babe 8d99 883e e4a4 52be d0d8 d13f
00000200: fe45 31bf 241a 8bbe b0bc ac3f 0cc1 143f
00000210: 62ee ef3e 2497 38bf 859d c4be adc3 4b3e
00000220: 6b18 06bf 5ba8 08bf 12fa 0c3e 9bcc 923e
00000230: b4f3 173e da9a 373e d927 8dbe e225 233e
00000240: c96b 813e bad8 683e 0e8e 483e d137 3f3e
00000250: a159 653f 8be5 833e a78d f7be fc25 8dbe
00000260: 5395 efbe b60c 04bf 8259 10be 7ff6 823e
00000270: 680d 993e 531d 413e 08cb 7b3e 93d2 91be
00000280: 1a8d b5be 5b6d 103e d36d 8cbe 97f6 79be
00000290: 2fc9 82be fdef 7a3e c9f8 8e3e 74c9 e7be
000002a0: 2140 59be 8358 463f db8d 4c3e db05 423e
000002b0: ec47 e13e f0d0 89be f2ea 643e 9ba0 91bf
000002c0: 0ad5 0abf 14ef 7a3e 70cb 86be 4aeb d3be
000002d0: 035c 7abe cb9f e5be 6b58 553e cf89 0b3e
000002e0: 107c 7a3e 106d a9be 87a1 9e3e b037 8e3e
000002f0: 0085 ff3e e8f3 9d3f 71d5 6a3e d819 2e3e
00000300: b7b7 203e e78e 803e c40d adbe fa84 c3bf
00000310: bcd1 0dbf c823 4e3f 9595 5c3e 7d37 88be
00000320: 15e5 34bf 4191 2abf bf23 60be a1fd 3d3f
00000330: 6678 e8be b9eb 533e be1e b13e a7ed b2be
00000340: 0b65 753e 9b6b cbbe 4f06 5d3e 579d bbbe
00000350: 8438 8d3e 8092 2b3e d0d9 263f f459 9cbe
00000360: 20cd 0b3e dc5e a7be 0ee6 07bf f035 193e
00000370: 40fe 113f fbf0 3ebe 881d 90be adce 20bf
00000380: d257 813e bf87 aa3f 8360 313e 3696 69bf
00000390: 5137 173f 87e8 07bf fce3 8cbf a66e 2f3e
000003a0: 7ce9 cd3e 9dc3 383e 446c 833e ac6d 41be
000003b0: 7eea 6c3e eeb3 b1bf 5f51 f53d 1e15 40be
000003c0: 0321 44bf 04b4 d63e ab84 32bf 329e 283e
000003d0: 7fc8 c1be 923e 53be 3f16 8c3e 552d c6be
000003e0: 366a 62bf 9953 8d3e d919 913e 1f93 14bf
000003f0: b036 b5be 71cb 063f c031 c03e 0636 413e
-0.26637506 -0.30672845 0.24395664 0.23818377 0.26609746 0.18441916 0.12679446 -0.17933439
1.4216303 -0.7247254 -0.23035502 -0.43081364 0.37414584 -0.2011895 -0.35286444 -0.38202298
0.27274752 -0.47540817 0.24083517 0.20481531 0.21827467 -0.58735293 0.32645217 0.5005525
0.24937813 0.21646434 0.16918668 0.19348395 -0.6716968 0.15890831 -0.3685742 0.21188219
0.9707411 0.15783139 0.28730276 -0.28388712 1.1480751 -0.9363973 -0.39772877 0.23892859
-0.6772997 -0.21072483 0.0918446 0.24268629 -0.29714233 -0.23043633 0.18096915 0.117776714
1.1139593 0.5048332 0.93818724 -0.48023072 1.342073 -0.29243743 0.17232585 -0.31734237
0.45790392 -0.30596793 0.48520896 0.3009135 -0.9814432 -0.49450278 -0.22288851 0.10302954
0.16703089 -0.60282415 -0.16740833 0.14345066 0.17147876 0.19917558 0.2487475 -0.26319978
-0.24525286 0.22905825 -0.38946944 -0.25537077 -0.3624469 -0.31519306 0.25358608 -0.25431886
-0.24132562 0.2321632 0.37034643 0.5159189 -0.45214745 -0.19197826 -0.25224617 0.23688512
1.5335633 -0.5887763 0.17308469 0.28427982 1.4355016 0.37196094 0.12894817 -0.42496562
-0.40931803 0.24545076 0.12584773 -0.62943405 -0.56737924 0.21561812 0.2804413 -1.3725705
-0.9826799 0.25518188 0.20593375 -0.44639587 0.19605094 0.2824947 -0.23376538 -0.4614637
-0.5332744 0.19887458 -0.5904437 0.2313968 -0.74331594 -0.33314884 -1.0250274 0.2699445
0.22484916 0.31055245 0.25700268 0.18465696 -0.36342424 0.2667965 -0.20570713 1.6394291
-0.69247425 -0.2716838 1.3495083 0.58107066 0.4686156 -0.7210562 -0.38401428 0.19898863
-0.5238101 -0.5338189 0.13767269 0.28671727 0.14839059 0.17930165 -0.27569464 0.1593242
0.25277546 0.22738925 0.1958544 0.18673636 0.8958989 0.25761065 -0.4835026 -0.27568042
-0.46793613 -0.51581895 -0.14096645 0.25578687 0.2989304 0.18858843 0.24589169 -0.28480968
-0.35459214 0.14104216 -0.2742754 -0.24410473 -0.25544116 0.24505611 0.27924183 -0.45270884
-0.2121587 0.7747881 0.19975989 0.18947546 0.44000185 -0.2691722 0.2235525 -1.1377138
-0.5423132 0.24505264 -0.26327085 -0.4139045 -0.24449162 -0.44848475 0.2083451 0.13626789
0.24461389 -0.3309102 0.3098261 0.2777686 0.49906158 1.2340059 0.22932984 0.17002046
0.15695082 0.25109026 -0.33799565 -1.5274956 -0.55398154 0.8052335 0.21541436 -0.26604834
-0.7066205 -0.6662789 -0.21888636 0.7421513 -0.45404357 0.2069539 0.34593767 -0.3494694
0.23964326 -0.39730534 0.21584438 -0.36643478 0.2758218 0.16755104 0.65176105 -0.3053738
0.13652468 -0.3268956 -0.5308541 0.14961982 0.5702858 -0.18646614 -0.2814753 -0.6281536
0.25262314 1.3322676 0.17321973 -0.9124483 0.5906878 -0.53089184 -1.1007075 0.17132053
0.40217197 0.1804337 0.25668538 -0.18889493 0.23136327 -1.3883035 0.11978411 -0.18758056
-0.7661287 0.41934216 -0.69733685 0.16466597 -0.3784828 -0.20629337 0.27360722 -0.3870646
-0.88443315 0.27602842 0.28340033 -0.5803699 -0.35393286 0.52654177 0.37537956 0.18868265
