models/critic_800000.pt (torch, 291588 bytes, 5 tensors)

network.0.weight f4 [256, 23]
0	0xbe9635f9	-0.29338053
1	0xbfc84ada	-1.5647843
2	0x3f8fac1a	1.1224396
3	0x3fd3f2b5	1.6558443
4	0x3e2b37a0	0.16720438
5	0xbf9247da	-1.1428177
6	0xbf17e1f4	-0.5932915
7	0xbe5c8d32	-0.21538237
8	0x3e22039e	0.15821692
9	0x3f051c6f	0.5199651
10	0xbeaea7cc	-0.34112394
11	0x3e986ea5	0.29771915
12	0xbce6866d	-0.028140271
13	0xbe9acdf8	-0.30235267
14	0xbe019e83	-0.12658124
15	0xbd1f03df	-0.03882205
16	0x3ddeee13	0.10885253
17	0xbf9ba745	-1.2160422
18	0x3fbed451	1.4908544
19	0xbf367c8f	-0.7128381
20	0xbf4ecbb7	-0.80779594
21	0x3e7466c3	0.23867325
22	0xbe61e5bc	-0.22060293
23	0x40a8e4fd	5.2779527
24	0x3fc021ba	1.5010293
25	0xbc89a0a2	-0.016800229
26	0x3f44cd0c	0.76875377
27	0xbf88311b	-1.0639986
28	0xbd9c3251	-0.076267846
29	0x3da38ffe	0.07986449
30	0x3fbdb3bf	1.4820479
31	0xbea11282	-0.31459433
32	0x3f2fba1a	0.68643343
33	0x3f8fbbe6	1.1229217
34	0xbe638d36	-0.22221836
35	0x3e68c4df	0.2273135
36	0x3dbe6bb9	0.0929789
37	0x3ebb8831	0.36627343
38	0x3df772c6	0.12082438
39	0xbe700cea	-0.23442426
40	0x3f4b2879	0.7935863
41	0x3e62ac10	0.22135949
42	0xbf8d0715	-1.1017786
43	0x3f3c66ca	0.73594344
44	0xbe7b0c1b	-0.24516337
45	0x3f47458a	0.77840483
46	0xc0b7d3de	-5.7446127
47	0xbeac25c0	-0.3362255
48	0xbdd0740f	-0.101783864
49	0x3eca14d0	0.39469004
50	0x3ea13dd4	0.31492484
51	0x3dbbeace	0.09175645
52	0xbf0dfe94	-0.5546658
53	0xbcb4da1a	-0.022076655
54	0x3e5bb6a7	0.21456395
55	0xbf38027a	-0.7187878
56	0x3da42aa8	0.080159485
57	0xbe8231fb	-0.25428757
58	0xbe5821e1	-0.21106674
59	0xbe7ed06b	-0.24884193
60	0xbe9529d3	-0.29133472
61	0xbe66e4ef	-0.22548269
62	0xbe25775c	-0.16158813
63	0xbf11a832	-0.5689727
64	0x3ee07408	0.43838525
65	0xbf109a5f	-0.5648555
66	0xbf4199c5	-0.7562526
67	0xbe3cab37	-0.18424688
68	0x3f770248	0.96487856
69	0x3f7a6988	0.9781728
70	0xbf005fa2	-0.50145924
71	0x3e87b011	0.26501516
72	0xbd01605c	-0.031586036
73	0xbf1150da	-0.56763995
74	0xbedf1ea8	-0.43578076
75	0xbec17caf	-0.3779044
76	0xbe72f590	-0.23726487
77	0xbddbb8f8	-0.10728639
78	0xbfa0d530	-1.256506
79	0xbed20e5d	-0.41026583
80	0xbe0db1f9	-0.13837422
81	0xbea106b5	-0.3145043
82	0x3e8c501d	0.27404872
83	0xbe32d775	-0.17465003
84	0x3d58387d	0.052788246
85	0x3d339b0d	0.04384904
86	0x3e2c538e	0.16828749
87	0xbe8910e3	-0.26770696
88	0x3ece7e37	0.4033067
89	0xbf2c9b2a	-0.6742426
90	0xbd327af3	-0.043574285
91	0x3f1f5d39	0.6225162
92	0xc03f0034	-2.9843874
93	0x3f13a816	0.57678354
94	0x3eca5a6b	0.39522108
95	0x3cbae51d	0.022814328
96	0xbeca9878	-0.3956945
97	0xbe878948	-0.26471925
98	0x3d51f188	0.051255733
99	0x3efbccb8	0.49179626
100	0xbe812fef	-0.25231883
101	0xbe98da5f	-0.29854104
102	0x3f26c5c1	0.651455
103	0x3e1fb02d	0.1559455
104	0xbd032d70	-0.032025754
105	0x3ea84eb3	0.32872543
106	0xbbdb8e33	-0.006700301
107	0xbe26f48c	-0.16304225
108	0xbe0b0869	-0.13577427
109	0x3f714aa7	0.94254535
110	0x3f259ef5	0.64695674
111	0x3ea4170d	0.32048836
112	0x3e20bb67	0.15696488
113	0xbf095185	-0.53640014
114	0xbf767ed8	-0.962873
115	0xbbe65cc4	-0.0070301015
116	0x401ec3d8	2.4807034
117	0xbf27166c	-0.6526859
118	0xbf247481	-0.6424027
119	0x3f3364f9	0.7007595
120	0xbf160cf1	-0.58613497
121	0xbba6fe76	-0.005096252
122	0x3ec5d1ce	0.3863663
123	0xbe3ae51a	-0.18251458
124	0xbf8a92f2	-1.0826094
125	0xbeb5848c	-0.35452688
126	0x3dacb4ef	0.08432948
127	0xbea0bdc1	-0.3139477
128	0x3e2c7421	0.16841175
129	0xbcd310f3	-0.025764918
130	0x3e919e59	0.28441122
131	0xbe82d868	-0.2555573
132	0xbd001379	-0.03126857
133	0xbf8cd684	-1.1002965
134	0x3eb59af9	0.35469797
135	0xbf13356d	-0.57503396
136	0xbefb50b7	-0.49085018
137	0xbf7dff96	-0.9921812
138	0x3f0ad90a	0.54237425
139	0xc05e4d19	-3.4734557
140	0x3fd56687	1.6671914
141	0x3f0689ca	0.52554
142	0x3e33de7a	0.17565337
143	0x3f9130aa	1.1342976
144	0x3eb7f793	0.35931072
145	0x3e19ee09	0.1503221
146	0x3e2a0f2f	0.16607355
147	0xbe20e8a0	-0.1571374
148	0xbf45b4a1	-0.7722874
149	0xbe007952	-0.1254628
150	0xbe3e9033	-0.18609695
151	0x3dae8f91	0.08523477
152	0xbe692d8b	-0.2277128
153	0xbb3edc7d	-0.002912312
154	0x3d89a6a0	0.06721234
155	0xbedad562	-0.42740923
156	0x3f5749f7	0.84097236
157	0x3ee8655f	0.4538984
158	0xbfb1e17d	-1.3896939
159	0xbb6cf758	-0.003615817
160	0xbf06e59f	-0.52694124
161	0x4032ec33	2.7956665
162	0x3ebd8ab3	0.37019882
163	0xbe15a148	-0.14612305
164	0xbee98a3b	-0.45613274
165	0x3f0d876b	0.55284756
166	0x3f71d933	0.94472045
167	0xbf05e369	-0.52300125
168	0xbf090062	-0.5351621
169	0x3cd02467	0.025407983
170	0x3f54b770	0.83092403
171	0xbe6ecb60	-0.23319769
172	0x3d32701b	0.043563943
173	0xbe985497	-0.29752037
174	0x3ea06265	0.3132507
175	0x3e0a77b1	0.13522221
176	0x3ea4f368	0.32216954
177	0x3e925473	0.28580055
178	0x3dd5861a	0.104259685
179	0xbe41844d	-0.18898125
180	0xbf661199	-0.898706
181	0xbd3b12b2	-0.045672126
182	0x3e94860c	0.2900852
183	0x3d27bfed	0.04095452
184	0xbfc44e3b	-1.5336374
185	0x3f8a2a23	1.0794109
186	0xbf387c68	-0.7206483
187	0x3f4531c6	0.77029073
188	0xbebbf29d	-0.36708537
189	0xbe818179	-0.25294092
190	0x3ef8c349	0.4858649
191	0x3db77f49	0.089598246
192	0x3e0ea290	0.139292
193	0xbf989059	-1.1919051
194	0x3e416da8	0.18889487
195	0x3b36c826	0.0027890294
196	0xbcb59995	-0.02216796
197	0x3e6fd83c	0.2342233
198	0x3e12c250	0.14331937
199	0x3e37fa89	0.17966665
200	0xbe7314cf	-0.23738407
201	0x3f4a9d9c	0.7914674
202	0xbe45108c	-0.19244593
203	0x3f1c3bbc	0.6102865
204	0xbf0f0691	-0.55869395
205	0x3df13fc4	0.117797405
206	0x3e157f7d	0.14599414
207	0x3fa11c1a	1.2586701
208	0xbee46109	-0.44605282
209	0xbf3c8266	-0.7363647
210	0xbf46e2cc	-0.77689815
211	0xbe8cc2b6	-0.27492303
212	0xbf183193	-0.59450644
213	0x3e8e8378	0.27834678
214	0x3dbae6d8	0.09126061
215	0x3d428395	0.047488768
216	0x3d89da0d	0.06731043
217	0xbe91d9cf	-0.28486487
218	0xbedd9c9e	-0.43283552
219	0xbe816684	-0.25273526
220	0xbe51b785	-0.20480163
221	0x3ed66ee2	0.41881472
222	0xba9d3fd7	-0.0011997175
223	0xbe60c193	-0.21948843
224	0x3ed1c0ad	0.40967312
225	0x3f0be0fe	0.54640186
226	0xbe2591bb	-0.16168873
227	0x3ea81215	0.32826295
228	0x3dc3ff69	0.095702
229	0xbe791723	-0.24325232
230	0x3e65f7d9	0.22457828
231	0xbf323ac6	-0.6962093
232	0xbdc7a5ec	-0.09748444
233	0x3e8c8f2d	0.27452984
234	0xbe4eea8e	-0.20206663
235	0x3d71282a	0.058876194
236	0x3f0c86d0	0.5489321
237	0xbef19350	-0.47182703
238	0x3e0192a6	0.12653598
239	0xbe640252	-0.2226651
240	0xbddf17ac	-0.10893187
241	0x3e6f6c3f	0.23381136
242	0xbd47d6ef	-0.04878896
243	0xbe00cf06	-0.12578973
244	0xbc35b32c	-0.011090081
245	0x3de4df4d	0.11175404
246	0x3dc19679	0.094525285
247	0x3f24ca56	0.6437124
248	0x3c1689cf	0.00918813
249	0x3ea9a344	0.33132374
250	0xbdd10f4b	-0.10207995
251	0xbe110ba5	-0.14164598
252	0x3eeb63c0	0.4597454
253	0xc0073fcd	-2.113269
254	0x3ebf8a3e	0.37410158
255	0x3f6548ea	0.89564383

network.0.bias f4 [256]
0	0xbf9dcd81	-1.232834
1	0xbfa09435	-1.2545229
2	0x3fce7e78	1.6132345
3	0xbfd1c957	-1.6389569
4	0x3fc44a06	1.533509
5	0xbfd47bf0	-1.6600323
6	0xbfb1047a	-1.3829491
7	0x3fe1bb2a	1.7635243
8	0x3fe713c9	1.8052913
9	0x40043e0f	2.0662878
10	0x400a3bb4	2.159894
11	0xbf9befdc	-1.2182574
12	0x400200c7	2.0312974
13	0xbfe2736d	-1.7691475
14	0xbfcf9ee5	-1.6220366
15	0x3fda55ed	1.7057472
16	0x3ff12ca0	1.8841743
17	0xbfb89204	-1.441956
18	0xbfe27662	-1.7692378
19	0x3ff64294	1.9239068
20	0x3fdcbb6b	1.7244695
21	0x3f8cb8fc	1.0993953
22	0x3f3b9219	0.732698
23	0xbf823690	-1.0172901
24	0x3fc42e48	1.5326624
25	0x3fe717e4	1.8054166
26	0xbde7b63f	-0.113140576
27	0x3fe2bdb4	1.7714143
28	0x3fe6aa9d	1.8020817
29	0xbfc67829	-1.550542
30	0xbfd1900e	-1.6372087
31	0xbf7c3933	-0.9852478
32	0x3fe95926	1.8230331
33	0x3ff75311	1.9322225
34	0x3fbc946a	1.4732792
35	0x3fd94035	1.697272
36	0xbfd294a2	-1.6451609
37	0xbfe7b72b	-1.8102773
38	0x40031c90	2.0486183
39	0x4005541f	2.0832593
40	0xbfdad6c8	-1.7096796
41	0xbfcad224	-1.584538
42	0x3ff27cfd	1.8944393
43	0xbfdedc93	-1.7411064
44	0xbfc9ecd7	-1.5775403
45	0x3fbc36fb	1.4704279
46	0xbfa5a743	-1.2941669
47	0x3ff5acb8	1.9193335
48	0xbfcc2857	-1.5949811
49	0x4019b23d	2.4015038
50	0x3fdc7728	1.7223864
51	0x3fff863a	1.9962838
52	0xbffbb5df	-1.9664878
53	0x3fed4e4f	1.8539523
54	0xbfbb687a	-1.4641259
55	0xbfdf2626	-1.7433517
56	0x3ff363e7	1.9014863
57	0x3e8e1bbc	0.27755535
58	0x3ff3cae5	1.9046293
59	0xbfd8d172	-1.6938918
60	0xbfc570a0	-1.5424995
61	0xbfd03629	-1.6266528
62	0x3fc7d6df	1.5612448
63	0xbfddca83	-1.7327427
64	0x4000af1a	2.0106874
65	0x3fec885e	1.8479116
66	0xbf773ac7	-0.9657406
67	0x3fcc4081	1.5957185
68	0xbfee04a2	-1.8595164
69	0xbf6b6603	-0.9195253
70	0xbfda4b04	-1.7054143
71	0xbfb4a5d6	-1.4113109
72	0x3ffaefcb	1.9604429
73	0x40052e24	2.0809412
74	0xbfce5d13	-1.6122154
75	0x3fd8678b	1.6906599
76	0x3fe3cdc0	1.7797165
77	0xbfc12543	-1.5089496
78	0x4004062c	2.0628767
79	0x3f90056d	1.1251656
80	0x3fb84888	1.4397135
81	0xbfc1a14b	-1.5127348
82	0x3fa1a639	1.2628852
83	0x400585e3	2.0862968
84	0x3ff714e0	1.9303246
85	0xbfb8da3a	-1.4441597
86	0x4008b17e	2.1358333
87	0x3fc8154d	1.56315
88	0xbf8c4ad7	-1.0960339
89	0x3fdadd7a	1.7098839
90	0xbfe17d62	-1.7616389
91	0x3fd83edc	1.6894183
92	0x3fea02f8	1.8282156
93	0x400f37ed	2.2377884
94	0x3feaaac3	1.8333362
95	0x3fcba8b6	1.5910861
96	0x40031043	2.0478675
97	0x3ff439a1	1.9080087
98	0x3fe3e063	1.7802852
99	0xbfd7bd39	-1.6854621
100	0xbfc61429	-1.5474902
101	0xbfbe69bf	-1.4876021
102	0xbfce821c	-1.6133456
103	0x3fe5854a	1.7931302
104	0xbf3f764c	-0.7478988
105	0x3ff56a36	1.9173038
106	0xbfbadb3c	-1.4598155
107	0x3ff501ed	1.9141213
108	0xbf9f2163	-1.2432064
109	0x3f97c1ab	1.1855978
110	0x3fd6be92	1.6776907
111	0xbfc89ea8	-1.5673418
112	0x3fd6ca35	1.6780459
113	0x4004ce20	2.0750809
114	0x3ffce031	1.9755918
115	0xbfd1d09a	-1.6391785
116	0xbfdfe6a0	-1.7492256
117	0xbfdf9c63	-1.74696
118	0xbf09d7e1	-0.5384503
119	0x3ff3dca5	1.905171
120	0x3fed7232	1.8550475
121	0x3ffc6293	1.9717582
122	0xbf86e513	-1.0538658
123	0xbff2ebf6	-1.897826
124	0x40007bdb	2.0075595
125	0x3ff34c0a	1.900758
126	0xbfce01fe	-1.6094358
127	0xbfaee56a	-1.3663762
128	0xbfcfb3c9	-1.6226741
129	0xbfce4e6b	-1.6117681
130	0xbfcb6665	-1.5890623
131	0xbf8931e8	-1.0718355
132	0x4005acba	2.0886674
133	0xbfba6ab5	-1.4563814
134	0x3fe9ad1a	1.8255951
135	0x3fec8c70	1.8480358
136	0xbfb02ad0	-1.3763065
137	0x3ff8f3d7	1.9449414
138	0xbfacc50a	-1.3497632
139	0xbf983107	-1.1889962
140	0x3fb99a14	1.4500146
141	0x3fbaf0d1	1.4604741
142	0xbfc3278e	-1.5246446
143	0x40083ead	2.1288254
144	0x3ff40ac2	1.9065783
145	0xbeac247e	-0.3362159
146	0xbff4e1eb	-1.9131445
147	0x3fce2121	1.610386
148	0xbf4d10c1	-0.8010369
149	0xbfc9a4d2	-1.5753424
150	0xbf5c3d60	-0.8603115
151	0xbf8a2ab4	-1.0794282
152	0x4003a958	2.057211
153	0xbfbceec0	-1.4760361
154	0x3ff8f661	1.9450189
155	0xbf76c60e	-0.9639596
156	0x3ffee447	1.9913415
157	0x3febcb75	1.8421465
158	0x3ffd61d1	1.9795476
159	0x3ff5f91e	1.921665
160	0x400402ea	2.0626779
161	0x4005544c	2.08327
162	0x3fd931bf	1.6968306
163	0x4016338d	2.3468964
164	0x3fcc73ab	1.5972799
165	0xbfc2d17a	-1.5220177
166	0x3fd7e447	1.686654
167	0x40005bd9	2.005606
168	0x40019b0e	2.0250888
169	0xbfb76b80	-1.4329681
170	0xbf6e469b	-0.93076485
171	0x403d1b9f	2.9548109
172	0xbf9c15b7	-1.2194127
173	0x3eaf6556	0.34257
174	0x3fdefddc	1.7421222
175	0xbfcabb5f	-1.5838431
176	0xbfa0f08a	-1.2573407
177	0xbfb1300e	-1.384279
178	0x4002b1cb	2.0421016
179	0xbfc62896	-1.5481136
180	0x3fede937	1.8586797
181	0x3fcf4b2d	1.6194817
182	0xbfd07626	-1.6286056
183	0x3f7b5342	0.98173916
184	0xbfe0300c	-1.7514663
185	0x3fdbee44	1.7182088
186	0x3fe9f5e9	1.8278171
187	0x40079919	2.1187193
188	0x3ffcaea5	1.9740797
189	0x3fbd2f95	1.4780146
190	0x400295a7	2.040384
191	0xbf5647a6	-0.83703077
192	0x4001de73	2.0292022
193	0xbf9e9829	-1.2390186
194	0x3fee3644	1.861031
195	0x3fc33346	1.5250022
196	0xbfbeb4ae	-1.4898889
197	0x3fe98117	1.824252
198	0xbfbe3c1d	-1.4862095
199	0x3febb22b	1.8413748
200	0x3ff28669	1.8947269
201	0x3fedb78a	1.8571637
202	0xbfd7f78b	-1.6872419
203	0x3fbea6de	1.4894674
204	0x3fe58997	1.7932614
205	0xbfdf35ac	-1.7438254
206	0x3ff4b02c	1.9116263
207	0xbfdeb644	-1.7399373
208	0x3f831341	1.0240251
209	0xbfeb2ac8	-1.8372431
210	0x401f4965	2.4888546
211	0x40106a68	2.2564945
212	0xbf030dab	-0.5119273
213	0xbfd9efd1	-1.7026311
214	0x40047b74	2.070035
215	0x3fe69c7d	1.8016506
216	0xbfb76daa	-1.4330342
217	0xbef9221d	-0.4865884
218	0x3ff6fa22	1.9295084
219	0x3fa17191	1.2612783
220	0x3ff4eaad	1.9134117
221	0xbfb2b507	-1.3961495
222	0x3fd0f9d8	1.6326246
223	0x400589b8	2.0865307
224	0x4007eb58	2.1237392
225	0xbfd874d0	-1.6910648
226	0x3ffb6e39	1.9643012
227	0xbfdcc759	-1.7248336
228	0xbfd62fe7	-1.6733369
229	0x40019d60	2.0252304
230	0xbfda66e2	-1.7062647
231	0x3fea7a69	1.8318607
232	0x3ff73e00	1.9315796
233	0x40007c77	2.0075967
234	0x4000e007	2.0136735
235	0xbfdef144	-1.7417378
236	0x4013749b	2.303992
237	0xbfd5b9e4	-1.6697354
238	0x3fe83398	1.8140745
239	0x3fec805e	1.8476675
240	0x3fe67b58	1.8006392
241	0xbfeda19f	-1.8564948
242	0x3ffbd8ee	1.9675577
243	0x40011fe9	2.0175726
244	0xbfb475e5	-1.4098479
245	0xbf9b973b	-1.2155527
246	0x3ffd6f5b	1.9799608
247	0xbfef9b25	-1.8719221
248	0xbfb6fc7d	-1.4295803
249	0x3fe28ed7	1.7699841
250	0x3ffa75f2	1.9567244
251	0xbfcdf42a	-1.6090138
252	0x3fe67973	1.8005813
253	0xbfd6cbd4	-1.6780953
254	0x3ff7f819	1.9372588
255	0x3ff2800f	1.894533

network.2.weight f4 [256, 256]
0	0x3dacb480	0.08432865
1	0x3e40d39b	0.18830721
2	0xbd911fbf	-0.07086133
3	0x3e70cf05	0.23516472
4	0xbe00064d	-0.12502404
5	0xbd5804d6	-0.052738987
6	0x3d7483fe	0.05969619
7	0xbca98cf4	-0.020697095
8	0x3c8e5f76	0.017379504
9	0xbddbb8ea	-0.10728629
10	0xbe20f691	-0.15719058
11	0x3d0716fa	0.032980897
12	0xbe7d7273	-0.2475069
13	0x3e2d3363	0.16914134
14	0x3e5ab862	0.21359399
15	0x3d3ecc81	0.04658175
16	0xbcebcbb3	-0.028783655
17	0xbdec5efc	-0.11541554
18	0xbc6b3afc	-0.014357325
19	0x3d51879e	0.051154725
20	0x3d87505e	0.06607126
21	0xbc160ef9	-0.009158843
22	0x3e37fa09	0.17966475
23	0x3e2922da	0.16517201
24	0x3e22e1e0	0.15906477
25	0xbd60c3d9	-0.054874275
26	0x3dfc2ddb	0.12313434
27	0xbe23e418	-0.1600498
28	0x3e37bb99	0.17942657
29	0x3e733cc5	0.2375365
30	0x3e9297f9	0.2863157
31	0x3d9a0050	0.07519591
32	0x3db3cffd	0.08779905
33	0xbe065025	-0.1311651
34	0x3e04884b	0.12942617
35	0x3e19e085	0.15027054
36	0x3d38be17	0.04510316
37	0x3e8b80a8	0.27246594
38	0x3a4d99b2	0.0007843032
39	0xbe49521c	-0.19660228
40	0x3d0e77ab	0.034782093
41	0xbe554f31	-0.2083099
42	0xbcf95076	-0.030433875
43	0x3e2e0b00	0.16996384
44	0x3e50365e	0.2033324
45	0xbbaa3582	-0.005194367
46	0xbe8801c7	-0.26563856
47	0x3e375845	0.17904766
48	0x3e777432	0.24165419
49	0xbf0c80dd	-0.5488413
50	0xbdb68155	-0.08911387
51	0xbe13c4b6	-0.14430508
52	0xbd5ae3f9	-0.053440068
53	0xbd7f5f91	-0.062347
54	0x3d2f78ed	0.042839933
55	0xbd62d929	-0.05538288
56	0xbd9fe611	-0.078075536
57	0xbe687f72	-0.22704867
58	0xbe3cbcf6	-0.18431458
59	0x3e36efdb	0.17864935
60	0x3c408822	0.011751207
61	0x3ea648c3	0.32477388
62	0xbd335d08	-0.043789893
63	0x3e7d24c8	0.24721062
64	0xbb614e0b	-0.0034378793
65	0x3db8d746	0.09025435
66	0x3d296f29	0.041365776
67	0x3dc68b95	0.09694592
68	0xbda17f09	-0.07885558
69	0x3cc7b524	0.024378367
70	0x3d2ab44e	0.04167586
71	0x3e4b393a	0.19846049
72	0xbdfc237a	-0.12311454
73	0xbe09930b	-0.13434999
74	0x3e9bf3f8	0.3045957
75	0x3e02cf8c	0.12774485
76	0xbe8baa05	-0.27278152
77	0x3e0393ed	0.12849398
78	0x3d58624a	0.05282811
79	0xbdea4cb4	-0.11440411
80	0xbd3f9839	-0.04677603
81	0x3e430f69	0.19048847
82	0xbec4e536	-0.38456124
83	0xbd2e4dab	-0.04255454
84	0x3d980526	0.07422857
85	0x3de1fa9c	0.11034128
86	0xbda19bb8	-0.07891029
87	0xbd38ef71	-0.045150224
88	0xbd8e2a97	-0.06941717
89	0xbe03fab4	-0.12888604
90	0x3e94e273	0.29079017
91	0xbde1fb2d	-0.11034236
92	0x3d8747b6	0.06605475
93	0x3caa3b02	0.02078009
94	0xbecfcdb6	-0.40586632
95	0xba1c34ff	-0.0005958825
96	0xbe636f8b	-0.22210519
97	0x3ddffa4e	0.10936414
98	0x3d51c4dd	0.051213134
99	0xbe2cd15d	-0.16876741
100	0x3e61715f	0.22015904
101	0xbde3a16c	-0.11114773
102	0xbd6f9dfc	-0.058500275
103	0xbd883f77	-0.0665273
104	0xbe370b5b	-0.17875426
105	0xbe84ad7b	-0.25913605
106	0xbdb193d3	-0.08670773
107	0x3d1206a6	0.03565087
108	0xbbccd52e	-0.006250999
109	0x3d7494ba	0.05971215
110	0x3d8bcd34	0.06826249
111	0xbce224c5	-0.027605424
112	0xbda09973	-0.07841768
113	0x3e218b34	0.15775758
114	0xbd36af95	-0.04460104
115	0x3df5c090	0.11999619
116	0x3d824bb8	0.063620985
117	0x3ea49da5	0.32151523
118	0x3e44279a	0.19155732
119	0xbcda5d88	-0.026655927
120	0xbe30b697	-0.17257152
121	0xbe14b759	-0.14523067
122	0x3e8c9028	0.27453732
123	0x3e613740	0.21993732
124	0x3c94cb9e	0.018163498
125	0xbe5a789a	-0.21335068
126	0xbd80ff4f	-0.06298696
127	0x3e930d51	0.28721097
128	0x3e8dde65	0.27708736
129	0x3e336c78	0.17521846
130	0xbe0183a9	-0.1264788
131	0xbeb1ab48	-0.3470099
132	0xbe1bca8c	-0.15213984
133	0x3f276218	0.65384054
134	0x3ddee59f	0.108836405
135	0xbd17a384	-0.037021175
136	0x3d58933d	0.052874792
137	0xbdd4770a	-0.103742674
138	0xbdfcac3e	-0.1233754
139	0xbc1955ca	-0.009358833
140	0x3cdb068d	0.026736522
141	0x3e565e98	0.20934522
142	0x3c144a07	0.009050853
143	0x3de784c0	0.11304617
144	0x3dde6360	0.10858798
145	0xbdc5417b	-0.0963163
146	0x3e545e99	0.20739211
147	0xbebfe3ec	-0.37478578
148	0x3e0bce00	0.13652802
149	0x3e477afd	0.1948051
150	0xbe89216d	-0.26783314
151	0xbddc033f	-0.10742807
152	0xbe0031ce	-0.12518999
153	0x3d2ba7bf	0.041908022
154	0x3cc0202a	0.023452837
155	0x3efd0d18	0.49424052
156	0xbe00f8a9	-0.12594856
157	0x3d9655ec	0.07340607
158	0xbd88ad3e	-0.06673668
159	0x3e801c0e	0.25021404
160	0x3cef5296	0.029214185
161	0x3d94d0e6	0.07266407
162	0x3dc2d9ba	0.09514184
163	0xbe9b97c1	-0.30389217
164	0xbd56d659	-0.05245051
165	0x3dd87394	0.1056892
166	0x3e222ce6	0.1583744
167	0x3e8d9359	0.2765148
168	0x3d7b92db	0.06141935
169	0xbd8ab27d	-0.06772325
170	0x3efc5e84	0.4929086
171	0xbf214a70	-0.6300421
172	0xbe91113d	-0.28333464
173	0xbd7f7449	-0.062366758
174	0x3b33b28f	0.0027419662
175	0x3d0cf776	0.034415685
176	0x3e7814ca	0.2422668
177	0x3def3960	0.11680865
178	0x3cc9cf3d	0.024634952
179	0x3df06fd3	0.11740079
180	0xbdbd4f52	-0.09243645
181	0xbec70d12	-0.3887716
182	0x3e790e77	0.24321924
183	0xbe902fc6	-0.28161448
184	0x3dd5c7ef	0.10438525
185	0xbd89ce3e	-0.06728791
186	0xbe529f54	-0.20568591
187	0x3d2cee59	0.042219494
188	0xbe04b2f4	-0.1295889
189	0x3e3a3e26	0.1818777
190	0x3e05d443	0.13069253
191	0xbd563ee0	-0.052306056
192	0xbdacd84d	-0.084396936
193	0x3e019347	0.12653838
194	0xbc888ecf	-0.016669659
195	0xbd2f8932	-0.04285545
196	0x3ecb5329	0.39711884
197	0xbd62b355	-0.055346806
198	0x3dd4babe	0.10387181
199	0x3dc26e62	0.0949371
200	0x3e3e3b55	0.18577321
201	0xbdfbb29a	-0.12289925
202	0xbe977c04	-0.29586804
203	0xbea77598	-0.32706904
204	0x3e70d818	0.23519933
205	0x3dc25bf4	0.09490195
206	0x3dff4151	0.1246363
207	0xbe9bcc8b	-0.3042949
208	0x3d251aba	0.04030869
209	0x3e14ae53	0.14519624
210	0xbeae8392	-0.34084755
211	0xbe892eaa	-0.26793414
212	0x3dde8c7b	0.10866638
213	0x3e358a89	0.17728628
214	0xbe0a8247	-0.1352626
215	0xbc8a8dee	-0.01691338
216	0x3dcf3c23	0.10118892
217	0x3df92300	0.12164879
218	0x3d8b807c	0.06811616
219	0xbe2e8590	-0.17043138
220	0xbd11a2d3	-0.035555672
221	0xbdd09e2b	-0.10186418
222	0x3e29a232	0.16565779
223	0x3dc1dab5	0.09465543
224	0xbe49e059	-0.19714488
225	0xbe6ab2ba	-0.22919741
226	0xbea822db	-0.32839093
227	0x3e657ac8	0.22410119
228	0x3d49eaa2	0.04929603
229	0xbe7f1ca7	-0.24913274
230	0x3e25fee6	0.16210517
231	0x3c4e8713	0.012605446
232	0x3d9c7c57	0.076409034
233	0xbc961a87	-0.018323196
234	0xbea7c88e	-0.327702
235	0x3e6c1359	0.23054256
236	0xbe2ce6c4	-0.16884905
237	0x3eaa2e2e	0.33238357
238	0xbd3e3841	-0.046440367
239	0x3e49460f	0.19655631
240	0x3e8b05a3	0.27152738
241	0xbca050d1	-0.019569786
242	0x3c04b05c	0.008098688
243	0x3d40305c	0.04692112
244	0xbb5076c2	-0.0031809066
245	0xbe90d1e7	-0.28285143
246	0x3e187a3e	0.14890382
247	0x3dcd16c4	0.10014108
248	0x3b821955	0.003970305
249	0xbe5a48d6	-0.21316847
250	0xbc583f99	-0.013198757
251	0x3e650939	0.223668
252	0xbdf4e51a	-0.1195776
253	0x3e8d9b32	0.27657467
254	0xbdbda219	-0.09259433
255	0xbca60a41	-0.020268561

network.2.bias f4 [256]
0	0xc002d033	-2.0439575
1	0xbfc67f38	-1.5507574
2	0x400c3714	2.1908617
3	0x400bbbdd	2.1833413
4	0x40063780	2.0971375
5	0x400d5ffe	2.208984
6	0x400c4639	2.191786
7	0xbfd46eba	-1.6596291
8	0x3ff3ab73	1.9036697
9	0xc005a914	-2.0884447
10	0xbff5264a	-1.915231
11	0xbfa2dce1	-1.2723657
12	0x3fcd480b	1.6037611
13	0xbff0ff84	-1.8827977
14	0xbff0acdb	-1.8802751
15	0xbfcd0a21	-1.6018716
16	0x400c4048	2.1914234
17	0xbf7b8611	-0.98251444
18	0x400a5719	2.161566
19	0x400ade28	2.1698093
20	0x400b2355	2.1740315
21	0xbfe6078b	-1.7971052
22	0x400b9871	2.1811793
23	0x400e1248	2.2198658
24	0x3ffe3db7	1.9862584
25	0x400d17eb	2.2045848
26	0x400bf569	2.1868536
27	0x400a8f4c	2.1649961
28	0xbfe4bfd8	-1.7871046
29	0x400b970a	2.1810937
30	0xbfe6d849	-1.8034755
31	0x40058509	2.0862448
32	0x3fd2faab	1.6482748
33	0x400ace66	2.1688476
34	0x400f41f2	2.2384
35	0xbfe927d0	-1.8215275
36	0x3ec55011	0.38537648
37	0xbfaf97de	-1.3718221
38	0xbfbbd42e	-1.4674127
39	0x400b46d5	2.1761982
40	0xbf7fc7c4	-0.99914193
41	0xbff403d8	-1.9063673
42	0x4008e83d	2.1391747
43	0x400bee78	2.18643
44	0xbfdeb4ac	-1.7398887
45	0xbfe321cb	-1.7744688
46	0x400daed0	2.2137947
47	0x400cc3a5	2.1994412
48	0x40178e12	2.3680463
49	0x4009de28	2.1541843
50	0x4007e0f1	2.1231043
51	0xbfe5ba05	-1.7947394
52	0x3fecb7c6	1.8493583
53	0xbfc3eb0e	-1.5306108
54	0x400b04c4	2.1721659
55	0xbfbe77ca	-1.4880307
56	0x3fd240ad	1.6425987
57	0xbfe85eca	-1.8153927
58	0x3fdd6ac3	1.7298206
59	0x400909f4	2.1412325
60	0xbfa5307d	-1.2905422
61	0xbfd06dbc	-1.6283488
62	0xbffd8f8e	-1.9809434
63	0x40095205	2.145631
64	0x400805d2	2.1253552
65	0xbfd52afb	-1.6653742
66	0xbff5c5ee	-1.9201028
67	0x400d20e2	2.205132
68	0x400ef5a0	2.2337418
69	0x400c4993	2.1919906
70	0x3fe467fb	1.7844232
71	0xbff29858	-1.8952742
72	0xbfbc55ce	-1.4713686
73	0x400a814e	2.1641421
74	0xbff7fcdb	-1.937404
75	0xbfee40f1	-1.8613569
76	0xbfd78b99	-1.6839477
77	0xbfd3958f	-1.6530017
78	0x4008ab25	2.1354458
79	0xbfdcd8de	-1.7253683
80	0xbfe18942	-1.7620013
81	0x400bc66c	2.1839857
82	0x4006476c	2.0981092
83	0x3fd5790f	1.6677569
84	0xbfcbd2b4	-1.5923676
85	0xbfe49857	-1.785899
86	0xbfe97226	-1.823796
87	0x400a2a55	2.1588337
88	0x3fe684cf	1.800928
89	0xbfbfbad6	-1.4978893
90	0x400a94f8	2.1653423
91	0x400a7e86	2.1639724
92	0x4013dbf0	2.310299
93	0x400d71b7	2.2100656
94	0x400dab9c	2.2135992
95	0xbfd70c71	-1.6800672
96	0xbfd5b11e	-1.6694677
97	0x400dab38	2.2135754
98	0x400f6d2d	2.2410386
99	0xbf7f4535	-0.99714977
100	0xbfac553a	-1.3463509
101	0x400a7520	2.1633987
102	0x400c62d2	2.1935315
103	0xbfa8bf25	-1.3183333
104	0xbfabc8b7	-1.3420628
105	0x400335e6	2.0501647
106	0x400eade3	2.2293632
107	0xbfe7b84d	-1.8103119
108	0x400a9608	2.1654072
109	0x40095ba1	2.1462176
110	0xbff409de	-1.9065511
111	0xbfd0a89e	-1.6301458
112	0xbfe5ef15	-1.7963587
113	0x400994e9	2.1497138
114	0xbfbec4b4	-1.4903779
115	0x400b5687	2.1771562
116	0xbfa1a737	-1.2629155
117	0xbfc16c06	-1.5111091
118	0xbfb9f0b5	-1.4526583
119	0x400b38af	2.1753347
120	0x4006ba49	2.10512
121	0x400288b6	2.0395942
122	0x400bad8c	2.1824675
123	0x400b04cc	2.1721678
124	0xbfdbe4fd	-1.7179257
125	0x400a1d34	2.1580324
126	0xbfe53e45	-1.7909628
127	0x400172db	2.0226352
128	0xbfdaf6c4	-1.7106557
129	0xbfe36016	-1.7763698
130	0x3fe58da7	1.7933854
131	0x40081c42	2.1267247
132	0x400abff7	2.1679666
133	0xbfb9bc95	-1.4510676
134	0xbfd5d361	-1.6705133
135	0x400a607b	2.1621387
136	0xbfa1ff0c	-1.2655959
137	0xbff5a62a	-1.9191334
138	0x400babf0	2.1823692
139	0x400aedc0	2.170761
140	0x40114653	2.2699172
141	0x400b1fb9	2.1738112
142	0xbfd66db8	-1.6752234
143	0x400bb707	2.183046
144	0x400ae36e	2.1701312
145	0x400c0545	2.1878216
146	0x400c8775	2.1957676
147	0x400b190c	2.1734037
148	0x3ffa442a	1.9552052
149	0x400c051d	2.187812
150	0xbfc7884b	-1.5588468
151	0xbfdf28ac	-1.7434287
152	0xbfe2feb1	-1.7733976
153	0xbf895a38	-1.0730658
154	0xbfee85e7	-1.8634614
155	0x4013c61c	2.3089666
156	0x400b722a	2.178843
157	0x400b560d	2.1771271
158	0x400b865c	2.1800756
159	0xc005936e	-2.0871234
160	0xbfdc4d67	-1.7211121
161	0x400ae623	2.1702964
162	0xbff6be0b	-1.9276747
163	0xbff75f88	-1.9326029
164	0xbfbc72cc	-1.4722533
165	0x400e4d42	2.2234654
166	0x400b0d27	2.1726778
167	0xbfcc786d	-1.5974251
168	0xbffe33c1	-1.9859544
169	0x40029b9d	2.040748
170	0x40096221	2.1466143
171	0x400a5bc7	2.1618516
172	0x3ffc266e	1.9699228
173	0xbff6572b	-1.9245352
174	0x400fe73c	2.2484884
175	0xbeed39ac	-0.46333063
176	0xbfb409fb	-1.4065546
177	0x400b937b	2.1808765
178	0xbfd2e722	-1.6476786
179	0xbff6fd99	-1.9296142
180	0xbff67bcc	-1.925653
181	0xbfd00fe8	-1.6254854
182	0x400b7f96	2.1796622
183	0x400b6632	2.1781125
184	0x4013ef19	2.3114684
185	0xbfda3fe8	-1.7050753
186	0x401181bf	2.273544
187	0x400543c6	2.0822616
188	0x3fc8b273	1.5679458
189	0x4013658c	2.303073
190	0x400b530b	2.1769435
191	0x400b2d73	2.174649
192	0x400a9da3	2.1658714
193	0x400ab38f	2.1672094
194	0xbfe73393	-1.8062614
195	0xbf1271f6	-0.5720514
196	0xbfd38642	-1.6525347
197	0x3ffaf570	1.9606152
198	0x400a86b1	2.164471
199	0xbfb31a51	-1.3992406
200	0xbfca3484	-1.5797276
201	0xbfdc9401	-1.7232667
202	0xbfc53fc3	-1.5410084
203	0x401a975d	2.4154885
204	0xbfbc829e	-1.4727361
205	0x400b8ad3	2.1803482
206	0x40011750	2.017048
207	0xbfe40314	-1.7813439
208	0x400629dc	2.096305
209	0xbfabc494	-1.3419366
210	0x40031fad	2.0488083
211	0xbfd79928	-1.6843615
212	0x400b83ad	2.1799119
213	0x400b5dd9	2.177603
214	0x4004754f	2.06966
215	0xbfd6183b	-1.6726145
216	0x40103327	2.253122
217	0xbfecfcc9	-1.8514644
218	0xbfe98be8	-1.8245821
219	0x400d4888	2.207552
220	0x3ff6a629	1.9269458
221	0xbfb71571	-1.4303418
222	0xbfcbc2cd	-1.5918823
223	0xbfa50ab2	-1.2893889
224	0x400b0440	2.1721344
225	0x40317531	2.7727778
226	0x400c4a0a	2.192019
227	0xbf9bfaa5	-1.2185866
228	0x3fcc1694	1.594439
229	0xbffa5b09	-1.9559032
230	0xbf990af3	-1.1956466
231	0x400dd87f	2.2163389
232	0x3ff3575f	1.9011039
233	0x400b5266	2.1769042
234	0x400abe6e	2.167873
235	0xbfd449af	-1.6584986
236	0x4009e471	2.154568
237	0xbfce2208	-1.6104136
238	0x400b016b	2.1719615
239	0xbfd7721f	-1.6831702
240	0xbfbe005b	-1.4843858
241	0x400d0242	2.2032628
242	0xbfba5fad	-1.4560448
243	0x40073b63	2.1129997
244	0xbfbd6f4e	-1.4799592
245	0xbff56c11	-1.9173604
246	0x4008924c	2.1339293
247	0xbf9bf2c9	-1.2183467
248	0xbfb81dd6	-1.4384105
249	0x400bddce	2.185413
250	0x400e188d	2.2202485
251	0xbfb76816	-1.432864
252	0xbfe96415	-1.8233668
253	0x400175ed	2.0228226
254	0x3fefa13c	1.872108
255	0x400b0888	2.1723957

network.4.weight f4 [1, 256]
0	0xbeb95fb1	-0.3620582
1	0xbe817546	-0.25284785
2	0x3e6a073e	0.22854325
3	0x3e6d732e	0.23188469
4	0x3e86f5ab	0.26359305
5	0x3e33bc8d	0.17552395
6	0x3de7afe3	0.113128446
7	0xbe2eff01	-0.17089464
8	0x3f96bf04	1.1777043
9	0xbf5115ab	-0.8167369
10	0xbe62aafd	-0.2213554
11	0xbf2cc2b1	-0.67484576
12	0x3ed50bd6	0.41610593
13	0xbec2b151	-0.38025907
14	0xbe74a80e	-0.23892233
15	0xbedcc183	-0.43116388
16	0x3e87e39e	0.26540846
17	0xbec0f20c	-0.37684667
18	0x3e6e34e4	0.23262364
19	0x3e4ef246	0.20209607
20	0x3e5a8913	0.21341352
21	0xbed4ac4d	-0.41537705
22	0x3e904a15	0.2818152
23	0x3effe597	0.4997985
24	0x3e6bccf8	0.23027408
25	0x3e58979f	0.21151589
26	0x3e25c17e	0.16187093
27	0x3e3c79ee	0.18405887
28	0xbf082f99	-0.5319763
29	0x3e19d9e2	0.15024522
30	0xbea3fe07	-0.32029745
31	0x3e193b35	0.14963992
32	0x3f5da32c	0.86577106
33	0x3e181473	0.14851551
34	0x3e7cca94	0.24686652
35	0xbe47dbd3	-0.1951745
36	0x400254b7	2.0364206
37	0xbf835bee	-1.026243
38	0xbea49f6a	-0.32152873
39	0x3e6e0755	0.23244984
40	0xbf1340a3	-0.575205
41	0xbe903134	-0.2816254
42	0x3d6b9412	0.057514258
43	0x3e553cd5	0.20823987
44	0xbeada67e	-0.33916086
45	0xbe5e5c02	-0.21714786
46	0x3e2a77a0	0.16647196
47	0x3dd1cab4	0.10243741
48	0x3f3552f9	0.7082973
49	0x3edd95d8	0.43278384
50	0x3f6a3111	0.9148112
51	0xbef6cc1b	-0.48202595
52	0x3f8ca818	1.0988798
53	0xbec63203	-0.3871003
54	0x3e1fa085	0.15588577
55	0xbf1cfdc7	-0.61324733
56	0x3ed52afc	0.41634357
57	0xbe03423c	-0.12818235
58	0x3edcbc74	0.43112528
59	0x3e8816cd	0.26579896
60	0xbf5132b5	-0.81718
61	0xbe9c9565	-0.3058273
62	0xbd978c0a	-0.07399757
63	0x3d99cd0b	0.07509812
64	0x3e014c9a	0.12626877
65	0xbf14410c	-0.57911754
66	0xbe3a3951	-0.18185927
67	0x3e086ceb	0.13322799
68	0x3e38895f	0.18021153
69	0x3e454102	0.1926308
70	0x3e8688fe	0.26276392
71	0xbe61e313	-0.22059278
72	0xbecdf079	-0.4022253
73	0x3e69e81e	0.22842452
74	0xbe8f5856	-0.27997082
75	0xbe4e1868	-0.20126498
76	0xbea4a969	-0.321605
77	0xbe5511f3	-0.20807628
78	0x3e7e4683	0.24831586
79	0xbe2db614	-0.16963989
80	0xbe5ec4b6	-0.21754727
81	0x3e670564	0.2256065
82	0x3e9ec52b	0.31009802
83	0x3ecc28e1	0.39874938
84	0xbf0bd8df	-0.54627794
85	0xbe89614f	-0.26832053
86	0xbe7c2a8f	-0.2462561
87	0x3e7c48a8	0.24637091
88	0x3f89425c	1.0723376
89	0xbf0f9e4e	-0.5610093
90	0x3e28e891	0.16494967
91	0x3e88bfd9	0.26708868
92	0x3f9f3833	1.2439026
93	0x3eb39c01	0.3507996
94	0x3dfa970f	0.122358434
95	0xbe9ffcf5	-0.31247678
96	0xbeafb658	-0.34318805
97	0x3e783b1c	0.24241298
98	0x3e0a3f8c	0.13500804
99	0xbfa44f78	-1.2836752
100	0xbf03b4b7	-0.51447624
101	0x3e4ed26b	0.20197456
102	0x3e9a415a	0.30127984
103	0xbfb5702c	-1.4174857
104	0xbf8cf96d	-1.1013619
105	0x3e8e8c4f	0.27841422
106	0x3e4e5599	0.2014984
107	0xbef2c155	-0.47413126
108	0x3e3feac6	0.18741903
109	0x3e82f7b3	0.25579605
110	0xbe84a2b0	-0.2590537
111	0xbee64f72	-0.44982487
112	0xbf2457d5	-0.6419652
113	0x3e4c53f5	0.19953902
114	0xbf2756a3	-0.6536657
115	0x3e5eeda2	0.21770337
116	0xbf83408f	-1.0254077
117	0xbea29891	-0.31757024
118	0xbfa6badc	-1.3025775
119	0x3e870f3d	0.26378813
120	0x3e52ca26	0.20584926
121	0x3ea256ce	0.31706852
122	0x3e7c933f	0.24665545
123	0x3e2e4cd9	0.17021503
124	0xbed09098	-0.40735316
125	0x3e84b92a	0.2592252
126	0xbe70b485	-0.23506363
127	0x3f98efc4	1.1948171
128	0xbf2681c7	-0.65041775
129	0xbe975301	-0.29555514
130	0x3f8c7aa8	1.0974932
131	0x3edc4458	0.43020892
132	0x3eb4be15	0.3530127
133	0xbf0cf4f0	-0.55061245
134	0xbe7c6b42	-0.2465029
135	0x3e38f13a	0.1806077
136	0xbf127373	-0.5720741
137	0xbf0eaf8b	-0.5573661
138	0x3e049ace	0.12949678
139	0x3e90e220	0.2829752
140	0x3e11331c	0.14179653
141	0x3e273322	0.163281
142	0xbdda6f71	-0.10665787
143	0x3e1bc618	0.15212286
144	0x3e7386e4	0.23781925
145	0x3e7b7116	0.24554858
146	0x3e3b4398	0.18287504
147	0x3e3a34f5	0.18184264
148	0x3f85d62e	1.0455987
149	0x3e814c9e	0.25253767
150	0xbf55e459	-0.83551556
151	0xbe95fb2e	-0.29293197
152	0xbecbe2a3	-0.39821348
153	0xbf4aa105	-0.79151946
154	0xbe081cfc	-0.13292307
155	0x3e8ec17f	0.27882
156	0x3e8de554	0.27714026
157	0x3e39b442	0.18135169
158	0x3e6264c5	0.22108753
159	0xbe8996c0	-0.26872826
160	0xbe987381	-0.29775622
161	0x3df97fb7	0.12182563
162	0xbe9d781f	-0.30755708
163	0xbe2b886a	-0.16751257
164	0xbe9a6cb9	-0.30161074
165	0x3e771f50	0.24133039
166	0x3e86778f	0.2626309
167	0xbf5f89e4	-0.8731978
168	0xbe0f6a7d	-0.14005466
169	0x3f1cd091	0.6125575
170	0x3e4127ec	0.18862885
171	0x3e35e7c3	0.17764191
172	0x3f00a4e1	0.50251585
173	0xbe982afa	-0.2972029
174	0x3e5498c5	0.20761402
175	0xbfa36d29	-1.2767688
176	0xbeee6ef6	-0.4656903
177	0x3e6daea0	0.23211145
178	0xbeb49a60	-0.3527403
179	0xbf09d4e2	-0.5384046
180	0xbdb330a5	-0.087495126
181	0xbea36f32	-0.31920773
182	0x3e4d48cc	0.20047301
183	0x3df4aa24	0.11946514
184	0x3e7f5c5d	0.24937578
185	0xbf1f02d6	-0.621137
186	0x3ea0bb9b	0.31393132
187	0x3e952ca5	0.29135624
188	0x3eba2b4f	0.36361167
189	0x3f1b0e73	0.6056892
190	0x3e69e0bd	0.22839637
191	0x3e25ea92	0.16202763
192	0x3e0a1ead	0.13488264
193	0x3e7a0687	0.24416552
194	0xbea9cd87	-0.33164617
195	0xc0354e19	-2.8328917
196	0xbec2f414	-0.38076842
197	0x3f89159d	1.0709721
198	0x3e576f7d	0.21038623
199	0xbebf301e	-0.37341398
200	0xbf054722	-0.52061665
201	0xbf125a87	-0.57169384
202	0xbe91771d	-0.2841119
203	0x3f39c299	0.7256256
204	0xbec0bff2	-0.37646443
205	0x3e228388	0.15870488
206	0x3e9b7f07	0.30370352
207	0xbeab7186	-0.3348505
208	0x3e55150d	0.20808811
209	0xbea1707c	-0.3153113
210	0x3e56d49b	0.2097954
211	0xbed4c84d	-0.41559067
212	0x3e8b55e8	0.2721398
213	0x3e4666c0	0.19375134
214	0x3eec82aa	0.4619344
215	0xbe0f7c10	-0.1401217
216	0x3e067b55	0.13132985
217	0xbea98ba7	-0.3311436
218	0xbf031d5c	-0.51216674
219	0x3e0d4d56	0.13799033
220	0x3ed9d2e0	0.42543697
221	0xbe54279c	-0.20718235
222	0xbeac6bb1	-0.33675912
223	0xbf9fb4b6	-1.2477024
224	0x3e7782fd	0.24171062
225	0x3fa31c3b	1.274299
226	0x3e21aed9	0.15789355
227	0xbf4522b5	-0.77006084
228	0x3ee2edba	0.44321996
229	0xbefc2e4f	-0.4925408
230	0xbf96f049	-1.1792079
231	0x3e28810e	0.1645548
232	0x3ebc05eb	0.36723265
233	0x3e32a339	0.17445077
234	0x3e737e88	0.23778737
235	0xbe4720a1	-0.1944604
236	0x3e6a7f1b	0.2290005
237	0xbf94cec9	-1.1625606
238	0x3dcbe8e4	0.0995653
239	0xbe83a991	-0.25715306
240	0xbf3bbdfb	-0.7333676
241	0x3eead531	0.45865777
242	0xbf12c98c	-0.57338786
243	0x3deb34da	0.1148469
244	0xbe879b04	-0.26485455
245	0xbe75be48	-0.23998368
246	0x3e83ca6d	0.25740376
247	0xbe836712	-0.25664574
248	0xbf4cbee9	-0.79978806
249	0x3e8b9fa0	0.27270222
250	0x3e898923	0.2686244
251	0xbf35c080	-0.70996857
252	0xbea5bd52	-0.32371002
253	0x3ed57fda	0.41699106
254	0x3ec0449e	0.3755235
255	0x3e393dfd	0.18090053
