models/critic_1000000.pt (torch, 291598 bytes, 5 tensors)

network.0.weight f4 [256, 23]
00000000: d4c6 6fbe 7196 cebf cfcb 953f 16f6 e23f
00000010: 13ba a83d b43c 8cbf 0b1e 1ebf 9632 93be
00000020: 0aaf 273e 55c9 e33e b9aa b6be ab38 9e3e
00000030: 879a 83bc 7331 9abe 566c f2bd b0b7 08bd
00000040: 0575 f03d 4acc a4bf 34db c03f d251 3ebf
00000050: b634 4fbf 3c70 6f3e d19d 7cbe 5f92 b440
00000060: 2041 c23f b3a0 22be 181a 6f3f e4ab 90bf
00000070: d165 8b3d ab5f 6abd 8e24 e13f 5298 a8be
00000080: 1e2c 4b3f 0d47 963f 5b65 4abe 9e66 743e
00000090: e853 cf3d dcf6 ba3e b780 283e 5411 79be
000000a0: 0e70 3a3f f5f7 8e3e d88c 8ebf f74c 613f
000000b0: 9f9b a5be 986a 4a3f b183 d2c0 3143 9fbe
000000c0: 6abe d5bc 43ad e63e 5e27 bb3e daf2 013d
000000d0: 261c 06bf 4d9f 3cbd 8818 513e 84a7 48bf
000000e0: 7d34 ec3c bf6d 77be 9c71 40be 71ce 68be
000000f0: 2268 92be b2c7 41be d19b 11be 6688 05bf
00000100: 6800 dc3e 8655 09bf 7c5e 53bf 86f0 febd
00000110: 01f8 813f 596d 363f ded7 abbe d4d4 d23e
00000120: c960 49bc b506 0fbf bef7 e2be 5494 bcbe
00000130: 0ed3 89be 771c fabd 081a aebf 0bcc e6be
00000140: 5b77 16be 85d5 b0be 9884 883e bfb0 36be
00000150: 39da 2c3d b59f 1f3d 1a4e 0d3e 6de1 8dbe
00000160: a30a cc3e c5d1 48bf 04aa 8c3d 2be6 3b3f
00000170: b4c4 58c0 a101 013f 65e1 b33e 0bf6 b13d
00000180: 02e2 a6be 6ded a8be e8f3 033d fe1b 0a3f
00000190: 8961 7fbe a68a a7be d470 2f3f 8b59 0d3e
000001a0: d3d2 b5bb 5ddb a03e 6313 99bc af53 01be
000001b0: d365 edbd c266 773f 170e 243f 0055 ae3e
000001c0: 3ec5 3b3d 6683 00bf 5c7d 87bf 3b2b 423d
000001d0: 954a 1b40 e551 64bf 1616 1bbf 14ff 3b3f
000001e0: 31c2 1fbf c86d 0e3e af3d c13e e731 34be
000001f0: 5487 9fbf 60df bbbe 2dbe 233d 6a16 a8be
00000200: 248e 383e 1794 56bd 34fd 863e 258d 88be
00000210: 237f e5bc 1c4c 92bf 9825 d83e 920f 0abf
00000220: 50cc fcbe 0969 82bf 89a7 433f ac28 68c0
00000230: ed21 f03f ac69 223f cbd6 e13e 931e 953f
00000240: 1ab9 923e 0e86 b33e a15f 383e 6d73 873b
00000250: e765 5cbf db15 30be da6a 3cbe d753 e83d
00000260: 38e3 6cbe 9d91 ffbb 371a 943d cfb1 e7be
00000270: 0a38 783f d38f fd3e 4e30 b2bf d615 8e3d
00000280: c2a7 0bbf f8c4 4640 fdfb 043f 0bad 26be
00000290: 5e09 eebe 263a 163f dd26 873f fd97 13bf
000002a0: b4ae 29bf 6f41 d0ba 8fb6 453f 2f0f 68be
000002b0: 1836 2b3d e116 8cbe f3ea 883e 614d fd3d
000002c0: ec0f 963e 20e9 823e f136 843e 6ef2 0bbe
000002d0: 8c7c 5cbf bc1a e0bd 87cd 943e 2aad 213d
000002e0: 2d27 edbf 380f 8f3f 1e79 46bf 0e4b 583f
000002f0: 1b62 b2be d245 4ebe 926d f83e 97a4 e13d
00000300: 6f87 0a3e cd43 9abf 9d46 303e fbfe 2abc
00000310: a108 fdbc 2df8 643e abdf 023e c743 253e
00000320: fca2 57be 2966 433f f046 3abe 214e 133f
00000330: d83d f9be 542f 343e 00f1 1b3e 0dc3 a93f
00000340: 743e 13bf 5e2c 42bf 9992 41bf 9dd6 6abe
00000350: 9c3a 1bbf 32b8 903e e404 ed3d 73eb 353d
00000360: 28fc 463c fe0f 83be d843 d6be b79b 74be
00000370: 07dd 41be e577 d03e dcbf 58bb ccb5 4fbe
00000380: d6e7 b33e ea09 023f c21b 26be ec31 b03e
00000390: d016 163e 57d9 7bbe dfe2 f23d 8537 45bf
000003a0: 45c3 d4bd bb43 8e3e 8778 0ebe d5f6 2c3c
000003b0: 2dfb 103f 1e22 f2be 51a9 f33d 8ce2 87be
000003c0: 3b74 d7bd ec9c 5e3e da59 2cbd dbe3 e9bd
000003d0: 4c31 37bc cd0a cd3d ea56 d63d 74d4 2a3f
000003e0: 81fc bb3a 6494 b83e 883f dfbd ed87 18be
000003f0: ac6a e43e 7dac f0bf 05a5 043f 5727 793f
-0.2341569 -1.6139661 1.1702822 1.773135 0.08238616 -1.0956025 -0.6176459 -0.28749532
0.16375366 0.44489542 -0.35677126 0.3090261 -0.016064895 -0.30115852 -0.1183707 -0.033378303
0.1174107 -1.2874844 1.5066895 -0.743436 -0.80939806 0.23382658 -0.24669577 5.6428676
1.5176125 -0.15881614 0.9339919 -1.1302457 0.06806529 -0.057220142 1.7589281 -0.3292871
0.7936419 1.1740433 -0.19765227 0.2386727 0.10123426 0.36516464 0.16455351 -0.24323016
0.7282723 0.2792355 -1.1136732 0.88008064 -0.32345292 0.790689 -6.5785756 -0.3110595
-0.026091773 0.45054063 0.36553472 0.031725742 -0.523867 -0.04605036 0.20419514 -0.7838061
0.028833622 -0.24162959 -0.18793339 -0.22735001 -0.28595072 -0.18923834 -0.14219595 -0.5216125
0.4296906 -0.53646123 -0.82566047 -0.1244822 1.015381 0.712606 -0.3356313 0.41178
-0.012291142 -0.5586961 -0.44329637 -0.36831915 -0.26918834 -0.122124605 -1.3601694 -0.45077547
-0.14693968 -0.34537902 0.2666366 -0.17840861 0.0422003 0.038970668 0.13799325 -0.2771105
0.39851865 -0.7844508 0.068683654 0.73398083 -3.3870058 0.5039311 0.351329 0.08689507
-0.32594305 -0.32993641 0.03221503 0.5394896 -0.2493955 -0.32722968 0.6853154 0.13803689
-0.005548814 0.3141736 -0.018686002 -0.12629579 -0.11591687 0.9664117 0.64084 0.34049225
0.0458424 -0.502005 -1.0585132 0.04740451 2.4264271 -0.8918746 -0.60580575 0.73436093
-0.6240569 0.13909066 0.37742373 -0.17597161 -1.2463174 -0.3669386 0.039976288 -0.328296
0.18022972 -0.052387323 0.26365054 -0.26670185 -0.028014725 -1.1429477 0.42216182 -0.5393001
-0.49374628 -1.0188304 0.76427513 -3.6274824 1.8760353 0.6344249 0.44109187 1.1649956
0.28656846 0.35063213 0.1800523 0.004133633 -0.8609299 -0.17195837 -0.18400136 0.11344116
-0.23133552 -0.007799341 0.072315626 -0.45252845 0.9696051 0.49523792 -1.3920991 0.069377586
-0.54552853 3.105772 0.51947004 -0.16276948 -0.46491522 0.5868248 1.0558735 -0.5765379
-0.662822 -0.0015888641 0.7723169 -0.22662042 0.041799635 -0.27361205 0.26741752 0.123682745
0.29309022 0.25568485 0.25823167 -0.13666698 -0.86127543 -0.10942599 0.29063055 0.039471783
-1.852758 1.1176519 -0.7752856 0.84489524 -0.34840474 -0.20143822 0.48521096 0.11017721
0.13528226 -1.2051941 0.17214437 -0.010436769 -0.030887904 0.22360297 0.12780635 0.16139136
-0.21058267 0.7632776 -0.18191123 0.5754109 -0.48679996 0.17596179 0.15228653 1.326265
-0.5751717 -0.7584895 -0.75614315 -0.22933431 -0.60636306 0.2826553 0.115731984 0.044413995
0.01214508 -0.2559814 -0.41848636 -0.23887525 -0.18931971 0.40716472 -0.0033073341 -0.20284194
0.35137814 0.5079638 -0.16221526 0.34413087 0.1465714 -0.24594627 0.118596785 -0.7703784
-0.10388807 0.2778605 -0.13913165 0.010556896 0.56633264 -0.47291654 0.11897529 -0.2654003
-0.10520216 0.21739548 -0.042077877 -0.11420413 -0.011181187 0.10011826 0.10465796 0.6673043
0.001434222 0.36050713 -0.109007895 -0.14895602 0.44612634 -1.8802639 0.518143 0.9732565

network.0.bias f4 [256]
00000000: dcb5 acbf c9bf a1bf c23e d33f d6dc e0bf
00000010: 86d1 c53f d662 ddbf c698 b6bf d1d8 e23f
00000020: 4e87 ea3f b2bc 0740 e65c 0f40 a12c a3bf
00000030: 2c8f 0740 6a69 ebbf effd cbbf 4fa3 da3f
00000040: 4e37 f73f aa25 c4bf 75df e8bf 5d5f fb3f
00000050: 81b0 d93f 3075 833f 0d16 373f 82cf 70bf
00000060: 1793 c63f 82dd f03f 7614 ebbd 4f7f ea3f
00000070: 4ebd ee3f c3d0 d1bf c298 dcbf 2649 81bf
00000080: a8f5 e73f 6c76 ff3f e5f3 c03f 8292 e13f
00000090: 6a36 d8bf 7e74 f6bf 8922 0640 685a 0b40
000000a0: 6dff dfbf 1c65 d6bf d9a9 f63f 5be1 e6bf
000000b0: d34e cfbf 1e44 ba3f aafb a8bf cffa fd3f
000000c0: 0fad d3bf 81d5 1d40 a6d9 da3f 3be7 0440
000000d0: 9343 02c0 5696 f43f a775 c1bf 908d e8bf
000000e0: 8e09 f83f 9a8d 863e 6577 f63f 7ed3 debf
000000f0: 0b40 d0bf 09b8 ddbf 3fa2 cd3f e68f e7bf
00000100: 9c9e 0340 925c f33f c9fc 83bf 23e3 cb3f
00000110: b67a f2bf 38ae 63bf e367 e9bf e9e5 bcbf
00000120: 49fc 0140 0413 0940 c39b d7bf 63ad da3f
00000130: 3cc2 e83f 18c5 c6bf c512 0840 2a5c 893f
00000140: 8771 ba3f b1cf cbbf c25b 943f 2312 0740
00000150: 5706 fe3f 4681 bfbf f71e 0c40 81e6 d23f
00000160: e6b0 91bf 25a3 dc3f 5d19 e9bf 2fba d93f
00000170: 5d61 f23f 70d0 1240 cdac f43f 701b d13f
00000180: 88cf 0640 067f f93f 145f ea3f 35b3 dabf
00000190: dfea c8bf 71c8 c3bf a57e d9bf 3db6 eb3f
000001a0: 61eb 29bf faf2 fc3f 0be5 c4bf f335 fc3f
000001b0: 1d1d a3bf ac79 9b3f 516e d53f 9d7c cbbf
000001c0: c763 d73f 74d9 0540 78cb 0240 8705 d8bf
000001d0: 8672 e8bf 14aa eabf d372 17bf 75db fb3f
000001e0: d504 f13f 5b2a 0440 acce 7fbf f498 fbbf
000001f0: 8a86 0340 a2c3 fb3f 634d dfbf aaa0 b2bf
00000200: 4d94 d1bf 6db5 d9bf 1c92 d7bf 2b86 87bf
00000210: 35d6 0840 b020 c2bf 3021 eb3f c4b6 f23f
00000220: 564c b5bf 9a2c 0140 de01 aabf 7045 9fbf
00000230: 3e32 b73f fbcb bd3f b758 c8bf 3b87 0b40
00000240: d105 fc3f d319 d4be 0538 00c0 000c d43f
00000250: eaa6 42bf 8daf d0bf 93e1 6dbf f0eb 94bf
00000260: 369b 0640 8fd6 c0bf b6e7 fc3f 9249 74bf
00000270: babb 0440 4526 f23f 66e5 0040 dfa2 fe3f
00000280: 148a 0740 c97e 0940 d23f e03f 88b6 1840
00000290: a659 d43f 7d4c cfbf ce09 de3f 7ecf 0440
000002a0: 9742 0640 c5e7 b8bf c095 55bf 2f70 4040
000002b0: f72a 97bf 90ec c63e b835 df3f 9f99 debf
000002c0: 6c91 a9bf 62e7 b2bf 2de8 0540 a4f3 ccbf
000002d0: 0d4f f53f 668f d73f 0bf1 d4bf 684a 7b3f
000002e0: 6156 e6bf cd34 e03f ddf2 ed3f 2000 0e40
000002f0: 2a97 0040 06a4 bf3f ea81 0640 dae6 5bbf
00000300: 6ab4 0440 c393 a8bf 78ae f13f 7bbb c43f
00000310: 847c c8bf 9dff ee3f 9215 c6bf 6156 f13f
00000320: fdd0 f53f 9a3b f63f e819 e4bf 9977 d03f
00000330: bc06 ed3f 33e3 e5bf 51bf fc3f 9bf7 dfbf
00000340: 9c59 7a3f 56b8 f3bf 055a 2340 adac 1440
00000350: b73f 2cbf 2c29 e1bf 122e 0840 b75e ed3f
00000360: a6cd bfbf 2619 3cbf a945 f93f 992e a33f
00000370: 8414 fc3f bab3 b9bf c373 ce3f ab59 0640
00000380: 316e 0c40 3997 e8bf 9cc8 0240 b01d e9bf
00000390: fbd2 d8bf 970d 0440 42cd e5bf e7b7 ef3f
000003a0: 49db ff3f 03e2 0340 b22a 0940 ac8f eabf
000003b0: 95e3 1740 92bf dcbf 483b f03f ab0f f13f
000003c0: 5ffb ea3f 0782 fcbf 0531 0240 b8e9 0440
000003d0: 1f51 bebf 8e0e a4bf 802b 0340 2d38 fdbf
000003e0: d227 c2bf 0eee e93f cc16 0140 fe78 d7bf
000003f0: 68b3 ec3f 8d7b d3bf d90c fd3f c4b3 fb3f
-1.3492999 -1.2636653 1.6503527 -1.7567394 1.5454566 -1.7295787 -1.4265373 1.7722417
1.8322542 2.120892 2.240045 -1.2747995 2.1181135 -1.8391545 -1.5936869 1.7081088
1.9313753 -1.5323994 -1.8193194 1.9638478 1.700699 1.0270138 0.7151802 -0.9406663
1.5513638 1.8817599 -0.11478512 1.8320101 1.8651521 -1.6391834 -1.7234118 -1.0100448
1.8121843 1.9958014 1.5074431 1.7622836 -1.6891606 -1.92543 2.0958579 2.177393
-1.7499825 -1.6749606 1.9270583 -1.8037523 -1.619593 1.4552038 -1.3201802 1.9842166
-1.6537188 2.4661562 1.7097671 2.0766132 -2.0353744 1.9108379 -1.511403 -1.8168201
1.9377916 0.26279908 1.9255186 -1.7408292 -1.6269544 -1.7321788 1.6065139 -1.8090789
2.0565557 1.9012625 -1.0311519 1.5928692 -1.8943698 -0.8893771 -1.8234829 -1.4757663
2.0310233 2.1417856 -1.684441 1.7084163 1.8184276 -1.5528898 2.1261456 1.0731251
1.4565896 -1.5922757 1.1590502 2.110482 1.9845685 -1.4961326 2.18939 1.6476594
-1.138211 1.7237288 -1.8210865 1.7009944 1.8935963 2.293972 1.9115235 1.6336498
2.1064167 1.949189 1.8310266 -1.708594 -1.5696677 -1.5295545 -1.6991774 1.841499
-0.66374785 1.976165 -1.5382398 1.9703964 -1.274326 1.2146506 1.6674291 -1.5897404
1.6827325 2.0913973 2.0436687 -1.6876687 -1.815995 -1.8333154 -0.5915958 1.9676348
1.88296 2.0650852 -0.9992473 -1.9656053 2.0550866 1.9669077 -1.7445492 -1.3955281
-1.6373383 -1.7008492 -1.6841464 -1.058782 2.1380742 -1.5166225 1.8369503 1.8962026
-1.4163921 2.0183473 -1.328182 -1.2443066 1.4312208 1.4827875 -1.5652074 2.1801288
1.9689275 -0.41425952 -2.0034192 1.6566162 -0.7603594 -1.6303574 -0.92922324 -1.1634502
2.1032233 -1.5065478 1.9758213 -0.9542476 2.073958 1.8917929 2.0140014 1.9893454
2.1178026 2.1483634 1.7519476 2.3861408 1.6589859 -1.6195217 1.7346742 2.0751643
2.0978143 -1.444573 -0.83431625 3.0068471 -1.1809987 0.38852358 1.7438269 -1.7390631
-1.3247504 -1.3976862 2.092296 -1.6011853 1.9164749 1.6840637 -1.663606 0.9816041
-1.7995111 1.7516114 1.8589741 2.2187576 2.0092263 1.4971931 2.1016793 -0.85899127
2.0735116 -1.3170093 1.8881369 1.5369714 -1.5662999 1.8671757 -1.5475333 1.8854486
1.9204403 1.9236939 -1.7820406 1.6286498 1.851768 -1.7959961 1.9745885 -1.7497438
0.97792983 -1.904063 2.5523694 2.3230393 -0.6728472 -1.759069 2.127812 1.854453
-1.4984634 -0.73475873 1.9474384 1.2748595 1.9693761 -1.4507973 1.6129078 2.099223
2.1942255 -1.817115 2.0434942 -1.8212185 -1.6939386 2.0633295 -1.7953265 1.8727998
1.9988796 2.0606697 2.143231 -1.8325095 2.3732655 -1.7245963 1.8768091 1.8832906
1.8357962 -1.9727181 2.034242 2.076765 -1.4868506 -1.2816942 2.04953 -1.9782768
-1.5168402 1.8275774 2.0170164 -1.6833799 1.849225 -1.652208 1.9769546 1.9664235

network.2.weight f4 [256, 256]
00000000: 1ed2 e13d 9d6c 2a3e e36b 93bd fa84 4d3e
00000010: 3b62 14be 08ae 17bd 0d43 513d a769 3cbd
00000020: daa4 203d ad24 cabd e79d 18be 6314 393c
00000030: f39c 89be 74bd 433e 683b 6a3e 7adf 333d
00000040: 879e 08bd 6246 19be 91f9 9cbc c800 2c3d
00000050: 3f73 433d 5175 d8bd 4554 4d3e 06cb 093e
00000060: 66cc 413e f2c0 0bbd ba88 1c3e 9d55 15be
00000070: a0db 3b3e 7221 783e 9595 a93e 2ac3 973d
00000080: 98a2 af3d 9401 20be 8939 233e 73bb 0d3e
00000090: 3378 713d ded5 1e3e 5e85 693c 825b 4ebe
000000a0: f4db 243c a394 98be 165b 61bc 8ad8 383e
000000b0: 9c35 433e 7ca0 a13b 600a a1be d921 363e
000000c0: 98f6 663e 815c 25bf ac4e b7bd c9dc 0ebe
000000d0: d9e4 b0bd f8d9 6abd 5d41 183c 3692 98bc
000000e0: 02f7 b4bd a896 3abe 1dbf 50be fdfd 3c3e
000000f0: 05de 6f3d 2ce0 b73e e4e0 45bd b10f 7f3e
00000100: 6d9f afbb 9782 c83d 2141 873a a4d7 d63d
00000110: 6684 e2bd 0a7d 493d bda5 8a3d 47b6 613e
00000120: 1fbc f7bd b27f 05be 9c80 ab3e 2ef7 f03d
00000130: 7c3b 90be 76c8 e73d 430b 5f3d 37d5 93bd
00000140: ee37 15bd 03f4 523e a354 e9be 2cd7 06bd
00000150: 75f1 ab3d 30e2 283e f2ff 91bd 2f79 3bbd
00000160: 249d edbd 8ab3 d1bd afa0 a73e c6da edbd
00000170: 9028 a23d a018 953c 4527 f8be f3ec 013c
00000180: 4a63 6abe cbec e43d ee89 923d c80c 32be
00000190: d2dc 6e3e becf 03be 0b91 84bd b67c a4bd
000001a0: 8496 3bbe d021 8ebe 89cf b0bd a949 3f3d
000001b0: 2d97 8abd 01ba 103d a5de 8f3d 9047 9dbd
000001c0: 8d2f 92bd e4bc 1f3e 18a4 3abd 3ac0 b83d
000001d0: 1baa b13d f1e9 a53e 5d95 863e 74c3 56bc
000001e0: 88b5 3abe d1b2 17be 81ae 6b3e 88fb 513e
000001f0: 980c 073d b360 58be 06b9 c2bd 5a04 a53e
00000200: fe3f a23e a704 053e dd04 27be 8425 adbe
00000210: cec7 05be 2e90 323f bf72 e83d 3a17 37bd
00000220: a27c 103d 7de8 f0bd 9023 dbbd 924e 88bc
00000230: 14da 573d 6ed6 463e 33d5 683b 722b eb3d
00000240: a9dc fb3d 1732 eebd 1750 733e f9f1 cfbe
00000250: 8857 303e 9b27 453e fa76 89be 3ce4 0fbe
00000260: 05a6 d3bd 1064 d83d 875f c43c c464 f93e
00000270: 3362 0bbe c2a7 b23d bc34 88bd ac91 843e
00000280: d126 4c3d 302b 9a3d 97e4 e53d 6fc8 a9be
00000290: 9f30 85bd 0a99 a03d 0135 2f3e 989e 9b3e
000002a0: e86b 8c3d fa87 11bd c98c 033f bce8 4cbf
000002b0: 8dde a9be ff6f bbbd a8c4 14bb ff43 833c
000002c0: 2bbb 6a3e c436 e43d acb0 063d d721 0a3e
000002d0: 3c24 acbd 64f0 d5be f6bf 713e 99a1 a7be
000002e0: f5db c33d 687a 78bd f21e 8cbe 914e e33c
000002f0: d433 19be 7d47 5c3e aa34 153e 8877 db3c
00000300: 72f5 babd 64d0 b23d 59cf c4bb 6fb4 21bd
00000310: a3ca f73e e64b 8ebd 0e96 d83d 716e de3d
00000320: faa1 4c3e 483f 04be 22f2 84be 8ab5 aabe
00000330: 9a29 943e 4b72 f73d ff60 f63d 09d8 8fbe
00000340: 3dc6 703d 2f96 293e 5954 b9be b3d4 93be
00000350: 3962 2a3e de45 843e cffc 0fbe 58e8 95bc
00000360: 3307 cf3d 7285 163e c3fd 423d c344 1bbe
00000370: bbf0 2ebd 3f0b fabd 3148 513e 008a a33d
00000380: a529 47be cc1c 5ebe 04da b2be 3df6 783e
00000390: 7774 843d 20f2 6bbe 8b08 1e3e faff 563c
000003a0: 4d38 b53d 76a4 48bb 2e46 bbbe fb5f 693e
000003b0: 39c8 29be eb13 b83e 05ae 1ebd f1ff 503e
000003c0: 381f 903e 479a 0c3b 5188 b33c 4579 373d
000003d0: 174f 21bc 5fba 88be acff 2c3e 77df 953d
000003e0: cd0d 90ba f2bd 44be 6fe9 aabb 6efe 863e
000003f0: 727d f1bd dc86 ba3e 1ef3 7dbd 9cf6 81bc
0.11026405 0.16642995 -0.07198312 0.20070258 -0.14490597 -0.037031204 0.051089335 -0.045999195
0.039219715 -0.098702766 -0.14903985 0.0112963645 -0.26877555 0.1911524 0.22874224 0.043914296
-0.03335431 -0.14968255 -0.019161971 0.041992933 0.04771733 -0.10569251 0.20051678 0.13456354
0.18925628 -0.034119554 0.15286532 -0.1458344 0.18345499 0.24231508 0.33121935 0.074102715
0.08575934 -0.15625602 0.15939917 0.13841037 0.05895252 0.15511271 0.014252989 -0.20152095
0.010062207 -0.298009 -0.013754627 0.18051353 0.19063419 0.0049324613 -0.31453228 0.1778635
0.22555006 -0.64594275 -0.08950552 -0.1395141 -0.08637399 -0.057336777 0.009292928 -0.018624406
-0.088361755 -0.18221533 -0.20385404 0.18456264 0.058561344 0.35913217 -0.048310176 0.2490833
-0.005359581 0.09790533 0.0010319093 0.10490349 -0.11060409 0.049191512 0.06769893 0.2204219
-0.12096428 -0.13036993 0.3349656 0.11765896 -0.28170383 0.11317532 0.0544541 -0.07218402
-0.03643029 0.20600896 -0.45572385 -0.032920048 0.08395664 0.16492534 -0.07128896 -0.045769867
-0.11602238 -0.102393225 0.3273978 -0.11613993 0.07917893 0.018200219 -0.4846746 0.007930028
-0.22889438 0.11177977 0.07155214 -0.17387688 0.23326424 -0.12872216 -0.06472977 -0.08031599
-0.18319136 -0.27760172 -0.08633334 0.046701107 -0.06767116 0.035333637 0.07024888 -0.07679665
-0.07137976 0.155994 -0.04556665 0.09021039 0.08675023 0.32405046 0.2628583 -0.013108123
-0.18233311 -0.14814307 0.23015787 0.20506108 0.032970995 -0.21130638 -0.09507947 0.32229882
0.31689447 0.12990056 -0.16310449 -0.33817685 -0.130645 0.6975125 0.11350011 -0.044699885
0.03527511 -0.117630936 -0.107001424 -0.016639028 0.05269821 0.19417736 0.0035527467 0.11482896
0.12297947 -0.11630648 0.2376102 -0.40614298 0.1722089 0.1925339 -0.26848584 -0.14051908
-0.103344 0.105659604 0.023971332 0.4870969 -0.13611679 0.087234035 -0.06650683 0.2589239
0.049841706 0.075277686 0.11225241 -0.3316073 -0.06503414 0.0784169 0.17110063 0.30394435
0.06856519 -0.035530068 0.51386696 -0.80042624 -0.33177605 -0.09152221 -0.0022700224 0.016023634
0.22922961 0.11143258 0.03288333 0.13489471 -0.08405349 -0.41784966 0.23608384 -0.32740477
0.09563438 -0.06066361 -0.2736736 0.027747424 -0.14961177 0.21511646 0.14570871 0.026790395
-0.09128846 0.087311536 -0.006006163 -0.039478716 0.48396787 -0.0694807 0.10575496 0.10860909
0.19983664 -0.12914765 -0.25965983 -0.33341628 0.2893799 0.120823465 0.12030219 -0.2809451
0.058782805 0.16561197 -0.36197165 -0.28873214 0.16639031 0.25834554 -0.14061283 -0.018299267
0.10108795 0.14699343 0.047605287 -0.1516295 -0.042710047 -0.12209176 0.20437695 0.07985306
-0.1944948 -0.21690673 -0.34931958 0.24312682 0.064675264 -0.23041582 0.15432946 0.013122553
0.08848629 -0.0030615604 -0.3657698 0.2279052 -0.16580285 0.35952696 -0.038740177 0.20410134
0.28148818 0.002145426 0.021915587 0.044793386 -0.009845517 -0.2670469 0.16894406 0.07318013
-0.0010990441 -0.19213083 -0.0052158157 0.2636599 -0.11791505 0.36431015 -0.061999433 -0.015864663

network.2.bias f4 [256]
00000000: e588 09c0 3462 d1bf e024 1340 6dab 1240
00000010: 8fde 0c40 9933 1440 cbd8 1240 9cc6 e0bf
00000020: 2a00 fb3f 4b80 0cc0 1e81 01c0 7eae a8bf
00000030: da27 d93f 4ecf fbbf ef48 ffbf 5635 dbbf
00000040: ca3a 1340 bf95 86bf d446 1140 760d 1240
00000050: cc0b 1240 1e39 f2bf 35d0 1240 ca5b 1540
00000060: 4b1b 0540 91ff 1340 599b 1240 3a68 1140
00000070: 98ec efbf ad56 1240 3836 f5bf e99c 0b40
00000080: ba1b d63f 4c8c 1140 bf01 1640 b4fc f6bf
00000090: 7337 893e 3732 b1bf fced c6bf 0437 1240
000000a0: 64a5 85bf 1572 01c0 ec8c 0e40 b1a6 1240
000000b0: 11a1 ebbf 28d7 f1bf 9c47 1440 7841 1340
000000c0: f5e3 1a40 07e0 0f40 9658 0c40 3551 f3bf
000000d0: 87f2 f53f a643 cfbf bfd5 1140 d799 c6bf
000000e0: 63b4 de3f 025e f7bf 098b e73f 009a 0f40
000000f0: d820 aabf 0324 d9bf 132a 05c0 2b76 0f40
00000100: 47a5 0e40 2c3d ddbf e06e 02c0 b4cf 1340
00000110: 3f89 1540 9a27 1340 3cdf f03f 9875 00c0
00000120: cb4c c5bf 1d70 1140 cb4c 03c0 c0ac fabf
00000130: 1110 e3bf 2c90 e1bf c09c 0f40 2722 e8bf
00000140: 419f eebf d6b3 1240 f409 0d40 4973 e03f
00000150: b0f9 d6bf 4894 f2bf 7f4f f5bf 30f8 1040
00000160: 624c f13f 5f65 cabf 5761 1140 6370 1140
00000170: c845 1940 0542 1440 b64c 1440 081f e4bf
00000180: f873 dfbf 5f9e 1440 b338 1640 c00d 81bf
00000190: 4658 b8bf ac57 1140 1b9b 1340 885a acbf
000001a0: 1758 b6bf afce 0840 8390 1540 22be f3bf
000001b0: a870 1140 44b1 0f40 8a34 00c0 899f ddbf
000001c0: 690c f2bf 3b88 1040 740c c9bf f93f 1240
000001d0: d11e a4bf 841c cdbf acf3 bfbf 8f32 1240
000001e0: dd28 0d40 0d07 0940 e3a1 1240 69d4 1140
000001f0: 85e9 e7bf d715 1140 35c1 f1bf 4a20 0440
00000200: 45da e4bf 4a17 eebf 1802 f03f 01b5 0e40
00000210: bbb0 1040 52dc c0bf 6f97 e0bf d936 1140
00000220: 519f a8bf f7c8 00c0 6856 1240 a7ec 1140
00000230: 431e 1840 53f9 1140 6c02 e4bf fa78 1240
00000240: a3d4 1140 9f05 1240 1865 1340 48f1 1140
00000250: a43e 0440 c8fb 1240 1f36 d5bf a590 edbf
00000260: c5b1 f0bf 60ae 8ebf dc72 fabf 6ed7 1a40
00000270: c528 1240 502d 1240 095b 1240 1ef1 0cc0
00000280: faec e8bf 5584 1140 ef25 01c0 a555 02c0
00000290: 8bd5 c6bf 4f40 1540 de07 1240 4f8e d1bf
000002a0: dbfa 04c0 47b9 0840 aeec 0f40 c730 1140
000002b0: c615 0440 bf92 01c0 7577 1640 4121 04bf
000002c0: 47b4 bdbf 1a83 1240 a11f dfbf 6031 02c0
000002d0: f6e6 01c0 cdf8 dabf b961 1240 fa01 1240
000002e0: e9e4 1a40 dd27 e5bf bb87 1840 a379 0b40
000002f0: 50c5 d23f 20ae 1840 9441 1240 6bf7 1140
00000300: 7e4b 1140 4ba7 1140 7dd1 f3bf 3d88 04bf
00000310: fe6f dabf 6780 0240 016e 1140 df5b bebf
00000320: e370 d6bf d5ae e6bf a09c cebf ed71 2140
00000330: 8637 c7bf 45fe 1140 8928 0740 67a0 efbf
00000340: b727 0d40 1bd3 b6bf 2e12 0a40 2806 e6bf
00000350: ed7f 1240 eeff 1140 2683 0a40 9c9a e1bf
00000360: 2ce0 1640 d0e6 f7bf 9663 f4bf 66fc 1340
00000370: 73ec 0140 bfa9 c2bf 6af8 d6bf eda8 a7bf
00000380: 29f7 1140 004b 3840 5f0f 1340 982d a6bf
00000390: c8ff d23f b242 02c0 4ced 99bf ada4 1440
000003a0: 3183 ff3f b525 1240 536f 1140 6000 e1bf
000003b0: d7e9 1040 2d42 d9bf 2579 1140 f739 e3bf
000003c0: 3dcf c4bf e11c 1440 6e81 c5bf cca3 0d40
000003d0: e7cd c7bf dc39 02c0 5477 0f40 56bf a7bf
000003e0: ccef c3bf ecd9 1240 e212 1540 1e90 bfbf
000003f0: c52e f6bf 91fd 0740 05b5 f93f a0df 1140
-2.1489804 -1.6358094 2.2991257 2.291713 2.201084 2.3156493 2.294482 -1.7560611
1.9609425 -2.1953304 -2.0235057 -1.3178251 1.6965287 -1.9672639 -1.9944133 -1.7125652
2.3004632 -1.0514449 2.269948 2.2820716 2.28197 -1.8923681 2.293958 2.3337274
2.0797908 2.3124735 2.2907317 2.2719865 -1.8744078 2.2865403 -1.9157171 2.181452
1.6727211 2.274188 2.3438566 -1.9295869 0.26800117 -1.3843449 -1.5541377 2.284608
-1.0441098 -2.022588 2.2273512 2.291424 -1.8408529 -1.8893785 2.3168707 2.300871
2.4201634 2.2480485 2.1929069 -1.9009157 1.9214638 -1.619252 2.278671 -1.5515698
1.73988 -1.9325564 1.8089305 2.2437744 -1.3291273 -1.6964115 -2.080693 2.2415874
2.2288377 -1.7284293 -2.0380173 2.3095522 2.3365018 2.299292 1.8818126 -2.0071774
-1.541406 2.2724679 -2.051562 -1.9583969 -1.7739278 -1.7622123 2.2439423 -1.8135422
-1.864235 2.2922263 2.2037325 1.7535182 -1.6794949 -1.8951502 -1.9164885 2.2651482
1.8851435 -1.5812186 2.2715662 2.2724845 2.394884 2.3165295 2.317182 -1.782197
-1.7457266 2.3221662 2.3472106 -1.0082321 -1.4401939 2.270976 2.306342 -1.3465128
-1.4245633 2.137615 2.3369453 -1.9042399 2.272501 2.2451944 -2.0032067 -1.7314311
-1.8910037 2.2583148 -1.5706925 2.2851546 -1.2821904 -1.6024327 -1.4996238 2.2843359
2.205619 2.1410553 2.2911308 2.2785895 -1.811814 2.266958 -1.8887087 2.0644708
-1.787911 -1.8600857 1.8750639 2.2297976 2.2607868 -1.5067236 -1.7546214 2.2689726
-1.317362 -2.012266 2.2865238 2.280069 2.376847 2.2808425 -1.7813239 2.2886338
2.2786033 2.281593 2.3030453 2.2803516 2.0663233 2.2966175 -1.6657141 -1.8559767
-1.8804251 -1.1146965 -1.9566302 2.4193988 2.2837384 2.2840157 2.2868063 -2.2022166
-1.819732 2.273702 -2.0179403 -2.0364773 -1.5533918 2.33205 2.2817302 -1.6371554
-2.077811 2.1363084 2.2488208 2.2686021 2.063829 -2.0245817 2.351041 -0.5161324
-1.4820641 2.2892518 -1.7431527 -2.0342636 -2.0297217 -1.7107178 2.2872145 2.2813706
2.4202216 -1.790279 2.3832843 2.179299 1.6466465 2.3856277 2.2852526 2.2807262
2.2702327 2.2758358 -1.9048306 -0.51770383 -1.7065427 2.039087 2.272339 -1.4871787
-1.67532 -1.8022105 -1.6141548 2.5225785 -1.556382 2.2811444 2.111849 -1.8720826
2.205549 -1.4283174 2.1573596 -1.7970629 2.289058 2.2812457 2.1642547 -1.7625308
2.3574324 -1.9367313 -1.9092891 2.3122802 2.0300567 -1.5208052 -1.679456 -1.3098427
2.2807105 2.8795776 2.2978132 -1.2982664 1.6484308 -2.0353208 -1.2025542 2.322551
1.9961911 2.2835515 2.2724197 -1.757824 2.2642725 -1.697332 2.273019 -1.7752064
-1.5375744 2.3142626 -1.5430124 2.2131224 -1.5609711 -2.0347815 2.2416582 -1.3105266
-1.5307555 2.294551 2.3292775 -1.4965856 -1.9233023 2.1248515 1.9508368 2.279274

network.4.weight f4 [1, 256]
00000000: aaa2 bbbe 9f7d 72be fd9b 643e a7ef 6a3e
00000010: 7299 843e 0b4b 303e ef2a db3d 0186 33be
00000020: 0563 933f 7f12 52bf 104c 5ebe 8ed0 2bbf
00000030: 4011 d23e 9331 d8be bf46 56be 7740 d9be
00000040: 0389 863e 1a90 cebe 294a 6b3e 4d05 4c3e
00000050: e5eb 573e dd3d ccbe c886 893e 8cec 013f
00000060: 94b3 633e cf4e 563e b0ad 1f3e f4d8 373e
00000070: 652a 05bf 2348 153e 97ba abbe 7baf 013e
00000080: ce92 573f d357 133e a24e 723e b653 29be
00000090: c35f 0f40 d053 8cbf 57cf 98be 4fb3 6b3e
000000a0: dc20 15bf 43d7 abbe 15d6 183d eba4 4c3e
000000b0: be8e b3be 7a38 70be f26e 2a3e a7c3 c33d
000000c0: f34a 3a3f 8f9b d53e 0a19 693f a860 e2be
000000d0: 6d7c 883f 5be5 cebe 1da4 1a3e 3ddb 16bf
000000e0: 7868 d03e bb7e eebd ae8f db3e 4e05 7e3e
000000f0: 5059 3dbf 36e8 a7be 9647 13bd 858c 7d3d
00000100: ddb9 ee3d a88f 0dbf b18e 1cbe d2dc 033e
00000110: 5c1f 3b3e a53c 423e a670 8e3e 11a6 6ebe
00000120: f8fd dcbe ce07 683e 6542 80be f346 53be
00000130: 7873 a4be d769 5cbe aa66 793e b279 3cbe
00000140: b602 33be 0b5e 643e 8732 9a3e 53fa d03e
00000150: 2c6c 0fbf aa1c 91be 0236 88be 3507 773e
00000160: fe4a 803f c0be 11bf 84c3 253e 1b92 843e
00000170: db55 983f 9f5a b33e 7588 f13d 03c8 9cbe
00000180: e8ef b8be 94a9 753e 481c 073e cb2e acbf
00000190: 2ea9 0bbf 6d5c 493e f538 9b3e f732 b1bf
000001a0: cb49 89bf fc30 8c3e 0c18 4c3e 1064 d3be
000001b0: 36a2 3b3e 7eb9 7b3e ed77 9bbe 24de dfbe
000001c0: 8e95 1fbf 958a 4a3e dfa9 2abf 4667 5a3e
000001d0: 5a9c 85bf 6ea1 a6be cb48 a2bf 5fc0 853e
000001e0: f2ea 573e c174 a23e 10b2 783e 8df8 283e
000001f0: 3ff1 e2be d663 833e 0ae1 62be 4774 973f
00000200: dd54 1cbf 4209 94be cfce 853f 9906 d73e
00000210: 665c a43e 4109 12bf 7158 6dbe 37b6 323e
00000220: 7f68 16bf 1f7e 0dbf 962c 003e 7e14 903e
00000230: 2b98 0a3e 14a4 1d3e 3932 acbd 91d1 183e
00000240: b500 6f3e 15c1 7b3e b8cb 333e da4d 373e
00000250: 020a 853f 851a 803e 894f 4dbf 12e2 93be
00000260: 5a4e c2be 823c 52bf 9dbb 11be 826b 903e
00000270: bc89 8a3e ee29 363e 7248 553e b2f7 98be
00000280: 3e10 99be 6ce5 e93d 6c60 9ebe feec 21be
00000290: 1b84 a6be 46af 743e ad64 823e 7dfc 6bbf
000002a0: 390c f9bd 4f1a 103f 6477 3c3e 5499 313e
000002b0: cb27 003f 70a2 90be 30db 453e 61f6 a2bf
000002c0: 4c11 e0be 4ef8 693e 430e b3be 045f 08bf
000002d0: a43c 68bd 197b 9abe f29c 493e 3c9a e73d
000002e0: a462 7f3e 7b25 1bbf 9895 a03e 6d24 983e
000002f0: a273 a23e 8f94 143f 7551 683e 3616 223e
00000300: 5ad4 013e 7de4 763e a54a a7be b9ee 49c0
00000310: cd43 c3be 7586 813f 0a92 543e 444c b1be
00000320: 3920 f3be 3b47 15bf 1833 97be c688 353f
00000330: 1f89 b1be 147d 103e 0dba 933e b31d aabe
00000340: 7991 4e3e d193 a5be 26c7 583e d74b cfbe
00000350: e749 8a3e 013d 4a3e 825c e33e 9a90 dfbd
00000360: a3c7 023e 89ec aabe e836 e7be f535 083e
00000370: b61a df3e 7ba8 5cbe 2d5e bdbe 5bfc a4bf
00000380: 560f 743e 5265 a13f e7d4 1b3e 7d61 2bbf
00000390: e78f d53e 9f04 edbe 7f41 95bf 6c36 253e
000003a0: 010e c53e 55a3 2f3e 6bb2 6b3e 8867 5bbe
000003b0: 6fe0 663e f862 8cbf 1165 bb3d 81f0 94be
000003c0: 2df0 33bf 2d21 e93e b180 0cbf ae99 d13d
000003d0: 46da 6dbe a79d 87be 7527 803e 4b26 5dbe
000003e0: 4a87 3bbf 3799 8a3e 2e21 873e 8ae3 36bf
000003f0: a3ee 9dbe 9f2b c43e 0ba0 ba3e 9487 353e
-0.3664754 -0.23680733 0.2232513 0.22942983 0.2589832 0.17216127 0.10701548 -0.17531587
1.1514593 -0.8205947 -0.21708703 -0.67115104 0.41028786 -0.42225322 -0.20925425 -0.42431995
0.26276407 -0.40344316 0.22977509 0.19923897 0.2108608 -0.39890948 0.26860642 0.50751567
0.22236472 0.209285 0.155936 0.17953855 -0.52017814 0.14578299 -0.33540794 0.12664597
0.8420838 0.14388971 0.23662809 -0.1653584 2.2402198 -1.0963078 -0.29845688 0.2301762
-0.58253264 -0.3356267 0.03731354 0.19984786 -0.3506984 -0.23459044 0.16643885 0.09558802
0.72770613 0.41720244 0.9105383 -0.44214368 1.0662972 -0.4040936 0.15101667 -0.5892828
0.40704703 -0.11645266 0.42883056 0.24806711 -0.73964405 -0.3279435 -0.03595694 0.061901588
0.11656544 -0.5529733 -0.15288807 0.12877205 0.18273681 0.18968447 0.2782032 -0.23305537
-0.43162513 0.22659227 -0.25050655 -0.20632534 -0.32119346 -0.2152475 0.2435557 -0.18405798
-0.17481503 0.223015 0.30116674 0.40815982 -0.5602443 -0.2834218 -0.26603705 0.24123843
1.0022886 -0.56931686 0.16187865 0.2589272 1.1901201 0.35030076 0.11793605 -0.30621347
-0.36120534 0.2399047 0.13194382 -1.345178 -0.5455502 0.19664164 0.30316892 -1.3843678
-1.0725645 0.27381122 0.19931048 -0.4128728 0.18323597 0.24582478 -0.30364934 -0.43724167
-0.6233758 0.19779427 -0.6666545 0.21328458 -1.043834 -0.32545036 -1.2678465 0.2612333
0.21085718 0.317297 0.24286675 0.16501065 -0.4432468 0.25662106 -0.22156158 1.183236
-0.6106699 -0.28913313 1.0453738 0.4199722 0.32101744 -0.5704537 -0.23178269 0.17452322
-0.587532 -0.5527057 0.12517008 0.28140634 0.1353461 0.15394622 -0.08408017 0.14923693
0.23340113 0.24585374 0.17558181 0.17900792 1.0393679 0.25020233 -0.80199486 -0.28883415
-0.37950402 -0.8212358 -0.14231725 0.28207022 0.27058208 0.17789432 0.20828417 -0.29876477
-0.29895204 0.11420712 -0.3093294 -0.15813062 -0.32522663 0.23894987 0.25467435 -0.9218214
-0.121605344 0.56290144 0.18404919 0.17343646 0.5006072 -0.2824893 0.19321895 -1.2731439
-0.43763196 0.22848627 -0.34971818 -0.5326998 -0.056698456 -0.3017204 0.19688776 0.11308715
0.24939972 -0.60604066 0.3136413 0.2971529 0.31728846 0.5803918 0.22687323 0.15828785
0.12678662 0.24110599 -0.32674137 -3.1551955 -0.38137665 1.0119158 0.20758834 -0.346285
-0.4748552 -0.58311814 -0.2953117 0.70911825 -0.34674928 0.14110214 0.28852883 -0.33225784
0.20172681 -0.32339337 0.21169719 -0.4048755 0.27009508 0.19749834 0.44406515 -0.109162524
0.12771468 -0.33383587 -0.45159078 0.13301833 0.43575066 -0.21548645 -0.36985913 -1.2889513
0.23833975 1.2609046 0.15217935 -0.6694563 0.4171135 -0.46292588 -1.1660613 0.16134042
0.38487247 0.1715215 0.2301728 -0.21426213 0.22546552 -1.0967703 0.09150136 -0.2908974
-0.70288354 0.45533124 -0.5488387 0.1023439 -0.23227796 -0.26487467 0.25030103 -0.21596639
-0.7325331 0.2707002 0.26392502 -0.7144095 -0.30846128 0.3831453 0.36450228 0.177275
