models/critic_100000.pt (torch, 291588 bytes, 5 tensors)

network.0.weight f4 [256, 23]
00000000: 35fe 9c3f b842 0ebf dab7 833f c988 4c3f
00000010: 806e 9b3f 337f 27bf 372d 1fbf 3eda 4f3e
00000020: 3ef8 273e 7321 533e d893 e3be 1be6 e33e
00000030: a6f8 7ebd f6da bdbe 8578 ebbd 7767 8db9
00000040: f26a 793e acf8 9bbf f188 b23f 97d0 d2be
00000050: c9e4 64bf c855 cb3e 72b3 a6bd 7bd3 4a3f
00000060: 133f 3f3f 81d7 6c3d df58 0a3c 2280 fdbe
00000070: 0667 c0be c81c 59be a908 b33e 45dc b2be
00000080: febd 3f3f c068 4f3f e19f c4be 464a 573e
00000090: 0308 013d a9c4 ba3e 957a 85bd f51f 4bbe
000000a0: 6f0a f13e 192e c4bd a96b 20bf ad6f 3a3f
000000b0: 33d9 b53d 1dee 133f 1535 80bf 8e7b 493c
000000c0: a8dc f4bd c09c 5f3e 3aad 993e 25e3 003f
000000d0: 6e46 113d 8c7b 4d3e d27f ec3e f2d5 eabe
000000e0: 8cb7 973e 5587 aabe e511 d3be e168 dfbe
000000f0: 964a cfbe 681b 8abe 14fc a1be 3dc2 1fbf
00000100: 1706 d73e 4881 2ebf 61c8 95be baa4 1dbd
00000110: de9d 313f fb25 943f 2ed4 58be c721 ca3d
00000120: b0cc db3e 1689 13bf 913d e73c 8f93 87be
00000130: 7666 b3be f48f 23be d2a8 32bf ae29 87be
00000140: fd1f 01be 4e62 a4be 7e8f a13e 6304 53be
00000150: a9da cc3d b479 c7bc 87bc 1ebe dd4a 94bd
00000160: 81b9 303e 1c21 cfbe 7140 8cbe c2c6 443e
00000170: fc10 e0bf b0ce 993e daa0 a63c 81ea 3dbe
00000180: c398 e7be ca69 81be 231d c03d 13b2 953e
00000190: bdc4 2cbe 6192 09bf c5b7 f03e 35a1 5a3e
000001a0: b0f0 66bc 3f45 063f bdd6 2dbe 9ff5 7ebe
000001b0: 5e77 97be 536c 5d3f 5f4b bd3e 9d88 1a3f
000001c0: bc1f dd3d bc1a 10bf 1759 20bf 345f 2abe
000001d0: 93bf d23f 8fcd a03d 28a5 013d 906f 643e
000001e0: 34ad 8dbe abf6 91be 5f42 3bbe c19f 7bbe
000001f0: f61c 21bf cda5 a2be 260e 723e 0588 eebe
00000200: aafc 8c3e 4932 7e3d 42b9 e13e 4fd4 c8be
00000210: c386 59bd a1f7 f7be 57fd 083e 847a 8e3e
00000220: 9726 debe c933 0dbf 288e ee3d f299 a1bf
00000230: 0bb7 0f3f 43fa 363f 8fa3 94bc 0b6f a83d
00000240: d84a 9a3e d90a 613e 87c7 ca3d d35d a7be
00000250: 490e 3fbf 69df dcbd d304 45be 109b 3e3e
00000260: b5ed b0be 7a40 353d 732f bd3d 072a 91be
00000270: 5881 013f c885 d13e 4ad3 d3bf c12a 9bbd
00000280: bee1 49bf 88a8 a73f c9c9 0dbe 2c87 a53d
00000290: 9d33 07bf c95e 933d 9150 f43e 22fb 28bc
000002a0: 4c66 81be 3960 223e 55fe 393f 0008 f5be
000002b0: 28ad c03d 372d cdbe 7a1c e23e fd01 fb3d
000002c0: e96c eb3e ef7f dd3e 2a22 8ebe 273b babe
000002d0: 5480 64bf d9e8 e23e 0d24 b13e 6680 933d
000002e0: 80b9 8c3e 6a52 fd3d 4022 3abf 58f1 323f
000002f0: ef44 b2be a243 7cbe e0b9 e93e 5ea0 2bbd
00000300: d213 9a3e ac23 0cbf 2805 1b3e baab 5cbc
00000310: 781a 8e3d 7a3c da3e 92f2 623e 4214 b33e
00000320: 5103 e7be 6484 2d3f 7c7d 9fbd 3320 2f3f
00000330: a436 0ebf 1025 763d bc66 b33e 8108 9c3f
00000340: 2f6c 28bf 5ebf 4dbf 4362 2bbf 0b0b 1ebf
00000350: 3308 28bf 56c8 c43e 11ae ad3e f372 103e
00000360: 41d8 133e 8a27 35be 0f25 febe 0f59 b7be
00000370: d265 8abe aa6a ec3e b6ec 093d b086 a7be
00000380: 9c80 213f 03f8 153f 718b e3bb 1e1b 0cbe
00000390: b584 d3bd a2d8 e4be fd74 8c3e ed9f c3be
000003a0: 50db 28bd eaa2 cb3e c800 17bf 2447 63bd
000003b0: 5fa6 ff3e ecf9 c5be 9996 803e 9c2e 40bd
000003c0: 9ffe babd fb15 933e 27ca 9abd 8e4c 5bbe
000003d0: 9d4a b4bc cd43 2d3e 90c3 923d 0a6c 2d3f
000003e0: bd09 9d3c 3433 f63e 2cfe c8bd a674 51be
000003f0: bb0d 973e ba77 45bf 2ea3 25bd eb4a 343e
1.2265078 -0.55570555 1.0290482 0.7989622 1.2143097 -0.65428466 -0.6217837 0.20298097
0.1640329 0.20618229 -0.44448733 0.44511494 -0.06224885 -0.37081116 -0.11497597 -0.00026970703
0.24357203 -1.2185264 1.3948041 -0.41174766 -0.894116 0.39713883 -0.08139695 0.79228944
0.7470562 0.057822708 0.00844404 -0.4951182 -0.375786 -0.21202385 0.34967545 -0.34933677
0.7489928 0.8101921 -0.38403228 0.21024427 0.03150178 0.36478165 -0.06517521 -0.1983641
0.47078273 -0.09579105 -0.62664276 0.72826654 0.08879318 0.5778521 -1.0016199 0.012297524
-0.11956149 0.21837139 0.30014974 0.50346595 0.035467558 0.2006666 0.4619127 -0.45866352
0.29632223 -0.33306375 -0.4122459 -0.43634704 -0.40486592 -0.26974034 -0.31637633 -0.6240576
0.41996834 -0.6816602 -0.2925444 -0.038487174 0.6938151 1.1574091 -0.2117469 0.09869724
0.42929602 -0.5763105 0.0282276 -0.26479766 -0.3503911 -0.15972883 -0.6978885 -0.26398987
-0.12609859 -0.3210625 0.31554788 -0.20607142 0.100026436 -0.024350025 -0.15501605 -0.072408415
0.17258264 -0.40454948 -0.27392915 0.19216445 -1.7505183 0.30040503 0.020340372 -0.18546487
-0.45233735 -0.25276023 0.093805574 0.29237422 -0.16871925 -0.5373898 0.47015205 0.21350558
-0.01409547 0.5244941 -0.16976447 -0.24898385 -0.29583257 0.86493415 0.36971566 0.60364705
0.107970685 -0.56290793 -0.6263594 -0.1663788 1.6464714 0.07851707 0.031651646 0.22308183
-0.27671206 -0.28508505 -0.18287037 -0.2457266 -0.62934816 -0.3176712 0.2363821 -0.4658815
0.27536517 0.062059674 0.44086653 -0.3922448 -0.053107034 -0.48431113 0.13377891 0.27827847
-0.43388817 -0.5515714 0.11648208 -1.2625105 0.56138676 0.7147562 -0.018144397 0.08224305
0.30135226 0.21976794 0.09901338 -0.3268877 -0.7463117 -0.107847996 -0.19240122 0.18613839
-0.34556356 0.044250943 0.09237566 -0.28352377 0.5058799 0.4092238 -1.6548855 -0.07576514
-0.7886008 1.3098307 -0.13846506 0.080824226 -0.5281313 0.07195813 0.47717717 -0.010313781
-0.2527336 0.15857019 0.72653705 -0.47857666 0.09408027 -0.4007356 0.4416235 0.122562386
0.4598153 0.43261668 -0.2776044 -0.36373255 -0.89258313 0.44318274 0.34597817 0.072022244
0.27485275 0.12369235 -0.7270851 0.6989951 -0.34818217 -0.24635175 0.45649624 -0.041900985
0.30093247 -0.5474193 0.15138686 -0.013468677 0.06938642 0.42624265 0.22162846 0.34976393
-0.45119718 0.6778014 -0.07787606 0.6840851 -0.55552125 0.06009394 0.35039318 1.2190095
-0.65790075 -0.8037013 -0.6694681 -0.617356 -0.6563751 0.38434094 0.33921865 0.1410635
0.14437963 -0.17690864 -0.49637648 -0.35810134 -0.27030808 0.46175128 0.03367301 -0.32719946
0.6308687 0.5858156 -0.006944113 -0.1368222 -0.10328046 -0.44696528 0.27433005 -0.3820795
-0.041224778 0.3977273 -0.5898557 -0.055487767 0.4993162 -0.38667238 0.25114897 -0.04691945
-0.09130596 0.28727707 -0.07558089 -0.21415922 -0.022008235 0.16920395 0.07166207 0.6774298
0.019169683 0.4808594 -0.098141044 -0.20454654 0.29502663 -0.77135813 -0.040438823 0.17606704

network.0.bias f4 [256]
00000000: 4498 1ebf 3e6e 25bf 2c48 983f e007 83bf
00000010: 8894 8e3f 40b2 8bbf 1fcd 42bf 68cb a33f
00000020: 1064 993f cdaf c13f f8ee b63f 2caf 15bf
00000030: c334 a03f 1fc7 9fbf ec6c 90bf b186 a13f
00000040: 2862 a73f b469 45bf afc9 8fbf 868e ab3f
00000050: b4b3 a93f 8062 583f 7385 df3e 9581 6bbf
00000060: 05d1 8a3f 1a6c 963f a246 c1bd 8d6b 953f
00000070: a083 983f c38f 6fbf b8bf 84bf ccd3 98be
00000080: b570 ab3f 554d a43f 9e94 7b3f f82d 8c3f
00000090: c30f 88bf 379f 89bf c118 b63f b628 a53f
000000a0: 9643 97bf 804b 6bbf 5d55 a73f 4e32 9fbf
000000b0: cadc 81bf 16fa 803f e77f 9dbf 5ff0 a33f
000000c0: 12d9 82bf f828 d63f 8e0d a33f 1471 a53f
000000d0: bbc3 91bf 37be 983f 2a02 82bf 96b0 8ebf
000000e0: 89c0 af3f b91c 01be 662d b63f 2c7d 8dbf
000000f0: 38b3 84bf a481 92bf 5be6 873f 16a3 72bf
00000100: bdd6 ae3f 7373 a73f 99f0 f9be 9482 983f
00000110: 7425 a2bf eade 61bf 8e52 6fbf b678 7fbf
00000120: 8bb6 a83f 4cfa c73f 4d7f 7dbf 4526 a43f
00000130: fe97 8e3f a52c 7abf b7cd ac3f bc6a 543f
00000140: c2e7 663f 798d 76bf d31d 7a3f d526 c13f
00000150: 74cd a93f a63d 85bf 5c93 d83f e1d2 853f
00000160: 2b8b 28bf c2cb a73f c142 8fbf f408 953f
00000170: 7d37 9a3f ac70 dd3f d9ed 983f 4576 803f
00000180: ba9c b73f 2be8 aa3f 8868 983f 2773 89bf
00000190: c8fd 88bf f8c2 6cbf 5fe7 6ebf c0b1 933f
000001a0: a4c2 64bf d35a a43f b59f 65bf 8e27 963f
000001b0: f92d 5cbf 91bf 683f 1a28 943f 2a79 95bf
000001c0: d356 a63f 000f c43f f9e9 b33f b272 82bf
000001d0: 151c 8cbf 4865 90bf 02f7 32bf 9b10 a33f
000001e0: 0749 a13f 87d2 993f 5e7e 79bf 5ad0 9cbf
000001f0: 3ba2 b03f e699 a33f b003 83bf ff04 68bf
00000200: 2756 83bf 6001 84bf 2c2d 81bf 1bde 52bf
00000210: 0f3f be3f 89d2 7dbf e5bf a63f 3220 993f
00000220: da67 80bf cc46 a03f 0b3f 87bf 62e5 2fbf
00000230: 23b3 893f a284 663f 76a5 82bf d31d bc3f
00000240: 30f6 9c3f d7d4 d2bd 6bca a4bf eb58 923f
00000250: 857c 36bf 78d5 82bf aa72 f5be eb60 03bf
00000260: 4077 b33f eec3 7cbf 22b9 ab3f fe8d 57bf
00000270: 24d4 a33f 967e 993f 4b42 bc3f c620 993f
00000280: 90f5 b73f 22c6 ba3f 781b 853f 43f9 db3f
00000290: 15d8 8f3f 53f4 8ebf 9eaa 8e3f 39cc af3f
000002a0: fca3 a03f a45c 7fbf c3af 60bf 8332 2f40
000002b0: 38ef 88bf 6b37 283e 43da a23f c251 64bf
000002c0: 9b81 50bf 955d 8abf a6a0 bf3f 5705 67bf
000002d0: f7c9 a33f eab6 5e3f 4adb 93bf 68b3 1b3f
000002e0: 1d2c 93bf 73c8 8c3f 71e1 ae3f 1acd a33f
000002f0: 9b35 b83f bb02 983f 87d0 a63f a774 48bf
00000300: fd3c ba3f ea4a 2ebf a625 ad3f bf8c 6c3f
00000310: edc6 7fbf a2fc aa3f 88fd 68bf 7966 9f3f
00000320: 82b1 b03f 69d6 a13f 2838 80bf ec62 7c3f
00000330: 32c4 a63f 5434 91bf a66d a73f 055d bcbf
00000340: a3dc 363f 18cd 9dbf 37c2 e83f 345d dc3f
00000350: b65c 2fbc 85db 81bf d1e2 ad3f c05f 9f3f
00000360: 4235 77bf 3c47 f43e c066 a93f 41f6 813f
00000370: 8a6d 9a3f c72a 61bf 18b7 9b3f 5e93 cd3f
00000380: cb67 af3f b884 5ebf e1eb af3f c3f5 89bf
00000390: b732 a4bf b521 b63f 2046 93bf 9d1b a43f
000003a0: 782e a93f 4322 b03f f1cc aa3f e071 9cbf
000003b0: 088c c63f aae5 87bf e1c7 a53f 9680 a73f
000003c0: 4ccf 7c3f a33b 8fbf caf1 a83f d685 bb3f
000003d0: a0eb 6cbf 7a49 f3be 6767 a63f 7dcf 9fbf
000003e0: 8f92 55bf 0f9b 963f 120f af3f fe0d 8cbf
000003f0: 053a 983f bf99 92bf 298f b43f 0214 9e3f
-0.6195109 -0.6462134 1.1897025 -1.0236778 1.1139078 -1.0913773 -0.7609424 1.279645
1.1983662 1.5131775 1.4291677 -0.58470416 1.2516102 -1.2482642 -1.128324 1.261923
1.307683 -0.77114415 -1.1233424 1.340287 1.3257966 0.845253 0.436565 -0.919946
1.0845038 1.175174 -0.094373 1.1673447 1.1915169 -0.9357874 -1.0371008 -0.29849088
1.339377 1.28361 0.98273647 1.0951529 -1.062981 -1.0751714 1.4226304 1.2903049
-1.18175 -0.9191208 1.3072926 -1.2437227 -1.0145504 1.007632 -1.2304658 1.280773
-1.0222495 1.6731253 1.2738512 1.2925134 -1.1387857 1.1933049 -1.015691 -1.114764
1.3730632 -0.12608613 1.4232605 -1.1053824 -1.0367193 -1.1445813 1.0617174 -0.947801
1.3659283 1.3082107 -0.48816374 1.1914849 -1.266768 -0.88230765 -0.93485343 -0.99793565
1.3180708 1.562326 -0.9902237 1.2824179 1.1140134 -0.9772437 1.3500279 0.82975364
0.90197384 -0.9630962 0.9770176 1.5089976 1.3265824 -1.0409439 1.691997 1.045498
-0.65837353 1.3109057 -1.1192247 1.1643357 1.2048184 1.730001 1.1947585 1.0036093
1.4344704 1.3352102 1.19069 -1.0738267 -1.0702448 -0.92485 -0.93321794 1.153862
-0.893595 1.2840217 -0.8969682 1.1730821 -0.8600765 0.9091731 1.1574738 -1.1677601
1.2995247 1.5317078 1.4055778 -1.0191252 -1.094607 -1.1280909 -0.69908154 1.2739443
1.2600411 1.2017373 -0.97458446 -1.2251084 1.3799509 1.2781341 -1.02355 -0.90632623
-1.0260667 -1.031292 -1.009191 -0.82370156 1.4862994 -0.99149376 1.3027312 1.196295
-1.0031693 1.2521605 -1.0566114 -0.68709385 1.0757793 0.9004613 -1.0206745 1.4696602
1.226263 -0.10294502 -1.2874273 1.1433386 -0.7128375 -1.0221395 -0.47939044 -0.5131976
1.4020767 -0.98736465 1.3415873 -0.8420104 1.2799115 1.1991756 1.4707731 1.1963127
1.4371815 1.4591715 1.0399008 1.7185444 1.1237818 -1.1168312 1.1145818 1.3734199
1.2550044 -0.99750733 -0.8776819 2.737458 -1.0698004 0.1642739 1.2722858 -0.8918725
-0.8144776 -1.0809809 1.4970901 -0.9024252 1.279601 0.86997855 -1.1551297 0.6082063
-1.1497837 1.0998672 1.3662549 1.2796967 1.4391359 1.1875833 1.3032387 -0.78303
1.4549862 -0.6808306 1.3527114 0.9240226 -0.9991291 1.3358347 -0.9101186 1.2453147
1.3804171 1.2643558 -1.0017138 0.9858844 1.3028624 -1.1344094 1.3080337 -1.4715887
0.71430415 -1.2328215 1.818427 1.7215943 -0.010703256 -1.0145117 1.3584844 1.2451096
-0.9656564 0.47710598 1.3234482 1.0153276 1.2064679 -0.879559 1.2165251 1.6060598
1.370355 -0.8692126 1.374386 -1.0778126 -1.2827977 1.4229037 -1.1505775 1.2820927
1.3217306 1.3760456 1.3343793 -1.2222252 1.5511484 -1.0616963 1.2951623 1.3086116
0.9875381 -1.1190075 1.3198788 1.4650218 -0.92547035 -0.47516996 1.3000306 -1.2485195
-0.83426756 1.176607 1.3676474 -1.094177 1.1892706 -1.145317 1.4106189 1.2349856

network.2.weight f4 [256, 256]
00000000: c533 fe3c f054 403e bdb6 adbd 40b4 183e
00000010: 39c4 7ebc 0747 c8bd de27 963c ff4e 9abc
00000020: 9c47 8ebd 2689 79bd df46 56bd aee1 45bc
00000030: a511 13be 90aa 163e c7b3 f03d c213 f53c
00000040: f1c4 edbd 8045 7f3d 2fc2 81bd a539 373d
00000050: aaab 8f3d 6321 d1bb 2efe fa3d aaa3 033e
00000060: 06ff 8c3d 2447 8b3c b059 1cbe 7011 7cbd
00000070: 3b77 203e 445e 653e adfb 823d cfce 303e
00000080: 2980 b63d 5826 dfbc 62d9 093d 5d70 023e
00000090: df09 0d3d 5f52 513e f696 f13c e3c1 31be
000000a0: 3193 963e 808a d3bc 306d 11be 7252 193e
000000b0: 97ab 143e 64e5 053c 2811 71be 74b1 1b3e
000000c0: 5b92 303e 8223 04be 7192 d1bd cf68 16be
000000d0: fbe6 993c 3f64 8ebd a474 2c3e e4dc e1bd
000000e0: 17d9 4ebd 0016 f2bd 1c46 e8bd 2b21 603e
000000f0: c625 29bd 2a8b 033e a5d9 01bd 0fbe d33d
00000100: 10fd cc3c 2d9d f3bb 69e8 4b3d 7804 373d
00000110: fca5 2abc 0efa c33d d7f7 5a3d 0c85 493d
00000120: 70d1 29be 7399 3fbe ab94 073e 60e4 de3d
00000130: 5c84 0cbe efa9 123e 4938 f43c b6e5 33be
00000140: 4f53 72bd 5a74 573c 0eb2 52be ec57 3dbd
00000150: db17 8d3d b454 293e 1462 06bd aa39 9cbd
00000160: d32a 543d 0835 23be 70e0 4d3e 6442 a3bd
00000170: 9a62 38bd d04b 863d 5a3b 01be 6447 9ebd
00000180: 2e80 23be 98ef f43d 54f2 6c3d da29 b03d
00000190: 0b85 d63d a0a9 163d 5365 8dbc ef0c 23bd
000001a0: f00c 0bbd d649 90bd 990e 93bd 26d0 e43c
000001b0: e249 133e 5cd0 8c3d 00cf 123d 552c b13c
000001c0: 687f e0bd e45c bc3d 099b 893d eef9 d63c
000001d0: 2143 893d 29b1 193e 2e4a 6e3d 10d3 50bd
000001e0: 28c4 c3bd 4408 03be 1ec5 283e 3494 3d3e
000001f0: 55eb 263c 2246 54bd 9f7f 0fbd 03c1 373e
00000200: 05df 083e bd7c 8f3e ca75 11be 9d49 2d3e
00000210: 4d6e 71be 568e 973e 4edf e23d cab9 66bd
00000220: 1048 2e3e 0f30 0fbe d2e1 a23c 036d efb8
00000230: 6931 e4bc 181a 1c3e 4a9c 46bd 3c88 fc3d
00000240: 5371 a03d 6d81 ffbc a7b4 e53d 202d 35be
00000250: 2d3d bb3d dc62 373d d00a 88bc a239 27bd
00000260: dbbd 0ebe d39c 47bd a5c5 acbd c277 fa3d
00000270: a69a fdbd 07f4 ef3d f8ce debd 0115 0d3e
00000280: e4ab 3cbd 176e cd3d 3b34 413d a72d 1ebe
00000290: 66c3 1fbd 0d7b 193e b028 c53d fc0f 213e
000002a0: e3f7 c83c 7b22 123d 370d c03d b0ae 34bc
000002b0: b052 eebc dad7 81bd 3662 57bc cb3e 9abd
000002c0: 523a 4f3e 0df0 ad3d 2743 093d 841d 633c
000002d0: 17cc ffbd d9a5 c9bd 271c fc3d 21d4 fcbd
000002e0: 5262 633d 9ce7 0bbc 68bf 31bc 869b 6e3d
000002f0: 0b95 0abe 1bd6 92bc fc96 173e 32f5 cf3c
00000300: dcd8 90bd 5435 203d b5eb 15bc 8ab7 a23d
00000310: 4ba9 bb3d ed9f b1bd 01f0 993c 5fcf aa3d
00000320: 4f6b 083e 9765 dabd 4549 7ebd 7e36 e6bd
00000330: 7766 fb3d d985 a83d 1408 463d e120 063e
00000340: a435 99bd fe19 de3d 23e7 43be 014b d4bd
00000350: cb47 34be 67b4 863d c3d4 63bd 1c83 cdbd
00000360: 54c6 75bd db60 023e 266b 093e 1bd9 e73b
00000370: a871 3bbd cc64 d8bd e8f4 ff3d 3fc3 e43d
00000380: a1e2 9cbd 84be 303b 3d35 4cbe 0a7c db3d
00000390: 08d7 45bd 09a0 f6bd 5cb6 d43d 2921 f33d
000003a0: 1111 703d 9c95 2cbd be15 9ebc 8b58 1e3e
000003b0: 1b7f 94bd 6694 23bd 1c34 833c a328 0d3e
000003c0: 242f 153e a335 99bd 9490 3b3d 70dc 153d
000003d0: cb7e 333d f5bd edbd a937 b43d 4d51 7b3d
000003e0: bd29 e63d 12b2 5dbe c705 16bd d46a 933d
000003f0: 9e2c 1dbe b708 363e f6b7 d3bd b34c 98bd
0.031030545 0.18782401 -0.0848212 0.1491251 -0.015549713 -0.097791724 0.018329557 -0.018836496
-0.06947252 -0.06092181 -0.05231368 -0.012077732 -0.143622 0.14713502 0.1175304 0.029916648
-0.11609829 0.06232214 -0.06335866 0.04473271 0.07015164 -0.006382154 0.12255512 0.12855402
0.06884579 0.017001696 -0.15268588 -0.061540067 0.15670483 0.2239924 0.063956596 0.17266391
0.08911163 -0.027239963 0.033654578 0.12738176 0.034433242 0.20441578 0.02949093 -0.17359118
0.29409173 -0.025822878 -0.14201808 0.14972857 0.14518581 0.008172367 -0.23541701 0.15204412
0.1724333 -0.1290417 -0.102330096 -0.14688419 0.018786898 -0.06952714 0.1684137 -0.1102846
-0.0505 -0.118206024 -0.11341497 0.21887653 -0.04129579 0.12846056 -0.031701703 0.10338985
0.025023013 -0.0074345083 0.04978219 0.044681996 -0.01041555 0.095691785 0.053459015 0.04919915
-0.165838 -0.1871088 0.13240306 0.10883403 -0.13722366 0.14322637 0.029811995 -0.17568097
-0.05916148 0.013150299 -0.20575735 -0.046226427 0.06889316 0.16536218 -0.03280838 -0.07628186
0.051798653 -0.15938199 0.20105147 -0.079716474 -0.04501591 0.06557429 -0.12620297 -0.077284604
-0.15966865 0.119597614 0.05784829 0.086017326 0.10474595 0.03678286 -0.01726023 -0.039807256
-0.033947885 -0.07045333 -0.07180519 0.027931284 0.14383653 0.06875679 0.03584194 0.021627584
-0.10961801 0.09197405 0.06719024 0.026242223 0.06702257 0.15008987 0.058176212 -0.050982535
-0.09558898 -0.12796122 0.16481444 0.18513566 0.0101879435 -0.051824696 -0.03503382 0.17944722
0.13366325 0.28024855 -0.14205089 0.16922612 -0.23577233 0.2960078 0.11077748 -0.056329526
0.17019677 -0.13983177 0.01988307 -0.00011416713 -0.027855592 0.15244329 -0.048488893 0.12330672
0.07834115 -0.031189645 0.11216097 -0.17692995 0.09142528 0.044772014 -0.016606718 -0.040826447
-0.13939612 -0.048733544 -0.08436135 0.12229873 -0.123830125 0.117164664 -0.1087932 0.13777544
-0.046062365 0.100307636 0.04716895 -0.15447102 -0.039004706 0.14988346 0.09626901 0.15728754
0.024532264 0.035677414 0.093775205 -0.011027977 -0.029092163 -0.063399985 -0.013145974 -0.07531508
0.20237091 0.08493052 0.033511307 0.013862018 -0.12490099 -0.09846086 0.12310057 -0.12345148
0.055513687 -0.008539107 -0.010848857 0.058253787 -0.13533418 -0.017924359 0.1480369 0.025385473
-0.07072613 0.039113358 -0.009150435 0.079451635 0.091631494 -0.086730815 0.0187912 0.08340334
0.13322185 -0.10663908 -0.062081594 -0.11240862 0.12275403 0.082286544 0.048347548 0.1309848
-0.07480934 0.10844801 -0.1913114 -0.10365868 -0.17605512 0.06577378 -0.055622827 -0.10034773
-0.060003594 0.1273226 0.1341978 0.0070754415 -0.045762688 -0.105661005 0.12497884 0.11170053
-0.076604135 0.0026969025 -0.19942184 0.10717018 -0.048300773 -0.12042243 0.10386345 0.11871559
0.058610026 -0.042134866 -0.019297477 0.15463464 -0.07250806 -0.039936446 0.016016059 0.13785033
0.14568764 -0.074809335 0.045792177 0.03658718 0.04382209 -0.11608497 0.08799679 0.06135683
0.1123843 -0.2164996 -0.036626603 0.0719811 -0.15349051 0.17776762 -0.10337822 -0.07436504

network.2.bias f4 [256]
00000000: b66e 99bf 6238 80bf 8f83 af3f f091 ae3f
00000010: 289d a33f 5087 b23f 8ebb b13f 2873 7ebf
00000020: 755c b73f 158d acbf 2ed9 96bf afe1 64bf
00000030: fa35 633f cd90 8ebf 13d9 8bbf eafb 76bf
00000040: c551 af3f 3502 09bf fec4 ab3f 104b ac3f
00000050: 558f ad3f c1d5 9bbf 772c ae3f 5238 ad3f
00000060: b0a4 9f3f 3380 b13f 1ce3 ae3f 4bbc ac3f
00000070: cde0 8ebf 806a af3f bbe2 86bf 5371 a53f
00000080: e9bf a33f b0df ad3f 7c50 b53f 2a10 8cbf
00000090: fe0b 383f 7ea8 73bf 2afe 59bf 9da5 ad3f
000000a0: 1df9 f7be 7ae2 90bf ca6a ad3f 4a37 b23f
000000b0: 3037 8cbf 1676 7ebf 4295 b23f 9f1c b33f
000000c0: 9e14 d93f d587 b13f f290 d23f 2166 87bf
000000d0: 2974 a43f 1ece 54bf d8d2 af3f 36c9 6fbf
000000e0: c5c6 743f bd81 89bf e7a6 8f3f 39dc a93f
000000f0: 54a6 59bf eb9c 87bf 32da 97bf 353c ad3f
00000100: 58ba a73f 30f8 88bf 1c76 91bf a5e1 b23f
00000110: f899 b23f 3f1d b03f 050f 8a3f cbe4 94bf
00000120: 6fbd 5dbf 7326 ac3f 62a1 98bf f90d 91bf
00000130: fc39 67bf 0b4b 79bf 3dab a73f 0173 81bf
00000140: c460 8abf 0eb4 ae3f 311e a13f 9a4a 7e3f
00000150: 294e 79bf 790b 88bf e085 90bf 2ce1 a83f
00000160: 4828 a73f 41fd 56bf 2c20 ad3f de8f ab3f
00000170: ae19 e23f da7e af3f f956 b43f bb5d 75bf
00000180: 7fa2 80bf 7a5a b23f 9014 b43f 8e60 2cbf
00000190: 2d4c 63bf 4e45 ac3f 96dc ac3f 31df 80bf
000001a0: f869 33bf 21fd a93f 93cb b43f 3f1e 87bf
000001b0: 07c3 ac3f e963 ac3f 61ac a3bf 3bd1 84bf
000001c0: d994 88bf 7551 aa3f ac1e 68bf e5e1 ad3f
000001d0: fe41 65bf 42e5 66bf cd6b 6cbf 9346 ad3f
000001e0: 200e a93f 158d 9e3f 9b4d ae3f fad6 ad3f
000001f0: d775 8fbf 5c17 ab3f 7c49 89bf 1480 bd3f
00000200: fc9f 7abf 1060 91bf 4082 933f ff84 b53f
00000210: 4b8d b43f 8af6 7bbf 3f5c 86bf 695c ac3f
00000220: 8992 52bf 4e56 90bf 1019 b03f a092 ac3f
00000230: 291f b73f db47 ac3f 224a 7fbf 1caa af3f
00000240: 0ccb ac3f 1faa af3f 7eb6 ae3f 85e2 ad3f
00000250: 206d 963f aef5 ae3f 0323 4bbf 7414 8bbf
00000260: 2343 85bf 3c98 51bf 6fde 96bf 8a94 bb3f
00000270: 19e0 ad3f 275d ae3f 588a ab3f 2b53 a0bf
00000280: cee5 82bf 419e ae3f 687b 9bbf 2f42 96bf
00000290: 0e3b 53bf 7e9f b33f fa7c ab3f cb4c 6cbf
000002a0: e1d8 a0bf 45e5 ab3f 3c3a ac3f 4f6d ac3f
000002b0: 9956 9a3f c8f2 93bf e1b4 b23f 292d 72be
000002c0: 0858 4ebf 4338 ae3f 434f 66bf 79c2 9bbf
000002d0: 358b 93bf bd42 83bf d467 ae3f 7fba af3f
000002e0: 61da be3f 15c7 7dbf 4a8f b93f 1c51 a43f
000002f0: ad86 613f 4b84 dc3f 57cd ad3f ea5c ae3f
00000300: 423e ae3f a863 ac3f fe2e 8abf 420d 17bf
00000310: 8643 92bf 7e4d 9d3f 785c ac3f 61bf 5abf
00000320: ed8e 7abf 406e 88bf 09c9 71bf f0b4 c53f
00000330: 4239 5bbf 1f03 b03f f556 a43f a613 8dbf
00000340: 3587 a43f 5d6b 50bf e795 a13f c74f 68bf
00000350: 5fce ad3f f8c9 ac3f 260a a63f 5099 80bf
00000360: 8128 b93f d53d 91bf 586d 92bf fb0e b33f
00000370: 409d 9f3f c24a 66bf 41ec 6dbf 9111 5ebf
00000380: 0c07 ad3f e989 fb3f 8b9b b03f 5ea2 27bf
00000390: 686b 7b3f 4dc5 a5bf bd93 69bf c9ab b33f
000003a0: 853f 983f 4a74 ae3f 9b37 ae3f bc33 7dbf
000003b0: b13e ab3f 3a13 7cbf 9294 af3f c56f 8bbf
000003c0: 82b7 85bf 340b b03f 2571 63bf b8dc a83f
000003d0: 092c 66bf de87 96bf 3e16 a73f 0e75 30bf
000003e0: 5cb6 5fbf 8384 ae3f 3928 b33f e75d 64bf
000003f0: a57e 8dbf 824d 9d3f 67ed 943f 2ec0 ad3f
-1.1986911 -1.0017207 1.3712023 1.3638287 1.2782335 1.3947544 1.3885362 -0.99394464
1.4325091 -1.3480555 -1.1785028 -0.89406866 0.88754237 -1.113794 -1.0925621 -0.9647814
1.3696829 -0.5351899 1.3419492 1.3460407 1.3559366 -1.2174608 1.360732 1.3532813
1.2472134 1.3867248 1.3663058 1.3494962 -1.1162354 1.3704376 -1.0537943 1.2925209
1.2792941 1.3583889 1.4165187 -1.0942433 0.718933 -0.95178974 -0.8515345 1.3566166
-0.48432246 -1.1319115 1.3548214 1.3923123 -1.0954342 -0.99398935 1.39518 1.399311
1.6959417 1.3869578 1.6450484 -1.0578042 1.2847949 -0.8312701 1.373622 -0.936664
0.956158 -1.0742718 1.122281 1.3270332 -0.8501942 -1.0594763 -1.1863463 1.3533999
1.3103743 -1.0700741 -1.1364169 1.3975111 1.3953238 1.3758925 1.0785834 -1.1632322
-0.8661718 1.3449234 -1.192425 -1.1332389 -0.9032285 -0.9738013 1.3099133 -1.0113221
-1.081078 1.3648698 1.2587339 0.9933258 -0.9738489 -1.0628501 -1.1290855 1.3193717
1.3059168 -0.83980185 1.3525443 1.340328 1.7664087 1.3710587 1.4089042 -0.95846146
-1.004959 1.3933861 1.4068775 -0.6733483 -0.8878811 1.345865 1.3504817 -1.0068113
-0.7008357 1.3280374 1.4124626 -1.0556105 1.3497018 1.346799 -1.2786981 -1.0376352
-1.0670425 1.3306109 -0.906718 1.3584563 -0.8955382 -0.9019357 -0.9235199 1.3537163
1.3207436 1.2386805 1.3617433 1.3581231 -1.1207837 1.3366504 -1.0725551 1.4804711
-0.97900367 -1.1357441 1.1524124 1.4181212 1.4105619 -0.98423064 -1.0496901 1.3465701
-0.82254845 -1.1276338 1.3757648 1.3482246 1.4306384 1.3459429 -0.9972249 1.3723788
1.3499465 1.3723792 1.3649442 1.3584753 1.1752052 1.3668725 -0.793503 -1.0865617
-1.0411114 -0.81872916 -1.1786631 1.4654706 1.3584014 1.3622178 1.3401594 -1.2525381
-1.0226381 1.3642045 -1.2147036 -1.1738948 -0.82511985 1.4033048 1.3397515 -0.92304677
-1.2566186 1.3429343 1.3455272 1.3470858 1.2057678 -1.1558466 1.396145 -0.2365004
-0.80603075 1.361092 -0.89964694 -1.2168723 -1.1526858 -1.0254742 1.3625436 1.3728789
1.4910394 -0.991319 1.4496853 1.2837253 0.88096124 1.7227873 1.357829 1.3622105
1.361275 1.3467913 -1.0795591 -0.59004605 -1.1426857 1.2289274 1.3465719 -0.8544827
-0.9787434 -1.0658646 -0.9444738 1.5445843 -0.85634243 1.3750952 1.2839037 -1.1021621
1.2853762 -0.81413823 1.2623872 -0.9074673 1.3578604 1.3499136 1.2971847 -1.0046787
1.4465486 -1.1346995 -1.1439619 1.3988947 1.2469864 -0.8995782 -0.9293862 -0.86745554
1.3517776 1.9651462 1.3797468 -0.6548213 0.98210764 -1.2950836 -0.91241056 1.40368
1.1894385 1.3629239 1.361072 -0.98907065 1.3378507 -0.9846684 1.3717215 -1.0893484
-1.0446627 1.3753419 -0.8884452 1.3192358 -0.8991094 -1.1760213 1.3053663 -0.6892861
-0.87387633 1.3634189 1.399665 -0.89205784 -1.1054274 1.2289279 1.163495 1.3574274

network.4.weight f4 [1, 256]
00000000: 95e4 4dbe 51af a7be 280d 773e 0ea9 6f3e
00000010: 3b12 863e 9770 393e d549 f83d 3504 36be
00000020: 66b2 d03f 8897 20bf 317a 5cbe 701e 86be
00000030: c43b a93e 52e6 34be e4f4 aebe c0cd 86be
00000040: 64e4 893e 4945 f6be a4b5 733e d7db 473e
00000050: 828f 593e ef18 0dbf a5fa a23e 10cb ee3e
00000060: 774d 753e cdad 593e b6a9 283e bc5d 413e
00000070: 512b 17bf 4cd8 1d3e 03c6 b7be 5761 523e
00000080: 81f5 8b3f 5a5a 1d3e df0d 923e 3803 9fbe
00000090: 2c2b 403f be3f 57bf cecd 8ebe e642 723e
000000a0: 771f 22bf 8920 51be cfc5 b43d ce98 7b3e
000000b0: a15f 7abe 2e2b 4dbe 80a5 313e ec34 eb3d
000000c0: 6a96 a23f a4b7 003f a48b 7e3f 8307 d9be
000000d0: c54b b73f ec8a 86be 8702 2f3e d8c1 83be
000000e0: 5d12 df3e 053d abbe 8fe2 093f 6622 943e
000000f0: 62a9 4cbf dced fcbe 0f51 69be 4d4e d03d
00000100: dc9b 2b3e 3b40 00bf aa60 24be e64c 0e3e
00000110: 1be6 243e 6083 483e e003 5a3e f68f 88be
00000120: 266d 2ebe 8ead 633e e66c b0be b686 90be
00000130: 0fda b6be c2b8 9dbe daea 7a3e be2e 52be
00000140: ceb1 69be 3999 693e 97bb b63e f683 0d3f
00000150: 35d1 c3be 833d 41be cdfb 61be 2687 633e
00000160: d9ff dd3f 3c84 34bf 7358 2e3e dd38 8f3e
00000170: f576 cb3f 834c bb3e 93f9 fb3d 8dc2 dbbe
00000180: d96e cbbe 8cf2 743e 1aa8 ed3d 4f68 a8be
00000190: e4d4 01bf dce4 583e 365e 873e ccd1 98bf
000001a0: 3d8b 41bf 443d 693e 3ae7 4d3e da95 9fbe
000001b0: e709 453e 63c7 8e3e 3cca 8dbe d076 bebe
000001c0: c185 febe 9ac5 443e 5540 f5be a6aa 693e
000001d0: 30c7 44bf 5237 9dbe 2c60 38bf e0a5 873e
000001e0: 2559 603e caca 993e 8631 813e b194 383e
000001f0: 00a6 b2be 2e68 873e 0e46 59be 8ee7 da3f
00000200: 5452 11bf f0f4 81be 4ea7 a43f f1ad 2a3f
00000210: 92f6 f93e 07c4 18bf f658 bebe 6835 493e
00000220: 5cb6 dcbe 091c bfbe 605e 083e 42a4 903e
00000230: 20cf 0c3e a631 313e 70ea 8abe 804e 203e
00000240: a560 803e d4c6 553e 5061 413e b72f 383e
00000250: 1427 403f 3e8d 813e c959 9bbe daf6 8fbe
00000260: 8f13 01bf 893e e6be 182d 27be 687f 783e
00000270: d36d 953e cf30 3b3e 4d48 753e 2d54 88be
00000280: dcda b0be fb93 0c3e f9de 60be 0e11 4dbe
00000290: 6f19 5ebe 51f5 743e 493c 8d3e fcb1 c6be
000002a0: e21d 41be 4b43 4f3f 290b 453e 4866 3f3e
000002b0: 1fe7 d13e 5160 61be 7fb5 593e 27a9 8bbf
000002c0: 058d c2be adb8 773e 58f7 5cbe c39b bdbe
000002d0: f42c 84be 4704 ccbe 2432 4f3e e839 083e
000002e0: 27bb 733e e1b3 80be e2fb 9a3e e73d 843e
000002f0: 38a9 f73e cbea b43f ff32 653e 1ae9 283e
00000300: 8304 1e3e c2f7 7b3e bbc9 9ebe da43 90bf
00000310: c679 13bf 5a4e 553f aae6 563e d832 6ebe
00000320: 13c0 33bf 1d55 0cbf 3ebe 6bbe f66a 413f
00000330: 3f03 e0be b390 553e 809b a53e d87c 9dbe
00000340: 31ea 773e e193 c1be bb7b 5d3e ad26 9fbe
00000350: bc49 8a3e a918 1d3e 05a9 2e3f aa1b 95be
00000360: f6ba 073e b61e b8be 9605 d3be 865d 153e
00000370: bd0b 273f f5a7 3fbe aed0 9ebe 9f5f 04bf
00000380: 7435 7f3e e2dc ad3f 60f1 2d3e 9437 54bf
00000390: 6232 113f 6802 f5be 9d11 73bf ac44 2b3e
000003a0: e044 c93e c51c 343e 0b36 813e b05c 3abe
000003b0: ae6a 663e b422 85bf ea0f f03d 07da 2fbe
000003c0: b763 30bf 95af d33e 6fc0 2ebf f934 2d3e
000003d0: bfc1 adbe d419 4fbe 0bd0 873e cbbf c2be
000003e0: a9e5 33bf 8326 8b3e 9e5c 8f3e c1e6 dfbe
000003f0: 4b79 adbe 685e 073f e7eb b63e 1e37 3c3e
-0.20106728 -0.32750943 0.24126112 0.23404333 0.26185784 0.18109356 0.12123457 -0.17775042
1.6304443 -0.6273122 -0.21530987 -0.26195097 0.3305341 -0.17665985 -0.34171212 -0.2632885
0.2693206 -0.48099735 0.23799759 0.19517456 0.2124615 -0.5511617 0.31831852 0.466393
0.23955332 0.21257706 0.1647099 0.18883413 -0.5905047 0.15414542 -0.35893258 0.20544945
1.0934297 0.15366498 0.28526208 -0.31057143 0.75065875 -0.8408164 -0.27891392 0.23658332
-0.6332926 -0.20422567 0.088267915 0.24570009 -0.24450542 -0.20036003 0.1734829 0.114847034
1.2702153 0.50280213 0.99431825 -0.42388543 1.4319998 -0.26277864 0.17090808 -0.2573383
0.43568698 -0.33444992 0.53861326 0.28932494 -0.7994596 -0.49400222 -0.22784828 0.10171185
0.16758674 -0.5009801 -0.160525 0.13896522 0.16103403 0.19581366 0.2129054 -0.26672333
-0.17033824 0.22234175 -0.34458083 -0.28227776 -0.3571324 -0.30805022 0.24503651 -0.20525643
-0.22821733 0.22812356 0.35689995 0.5527948 -0.3824555 -0.18871121 -0.2206871 0.22219524
1.7343704 -0.70514274 0.17025928 0.2797307 1.5895678 0.3658181 0.12303462 -0.42921868
-0.39733008 0.2392065 0.116043285 -0.3289208 -0.5071547 0.21181053 0.26439065 -1.1939025
-0.75603086 0.22777277 0.20107737 -0.31169015 0.19242059 0.27886495 -0.27693355 -0.37200022
-0.4971142 0.19216004 -0.47900644 0.22819003 -0.76866436 -0.3070627 -0.72021747 0.2649374
0.21909006 0.30037528 0.25233096 0.18025471 -0.34892273 0.2644667 -0.2121813 1.7101915
-0.5676625 -0.25382185 1.2863557 0.66671664 0.4882093 -0.59674114 -0.37177247 0.19649279
-0.4310788 -0.37326077 0.13317251 0.2825032 0.13750887 0.17304096 -0.27131987 0.15654945
0.25073734 0.20876628 0.18884778 0.17986952 0.7505963 0.25303072 -0.30341938 -0.2811802
-0.5042047 -0.44969586 -0.16325796 0.24267352 0.29185352 0.18280338 0.23953362 -0.2662672
-0.34541976 0.13728325 -0.21960057 -0.20026037 -0.2168939 0.23921706 0.27585056 -0.38807666
-0.18859056 0.80962056 0.19242539 0.18691361 0.40996644 -0.22009398 0.21260642 -1.0910996
-0.37998214 0.24191542 -0.21578729 -0.370329 -0.25815547 -0.39847013 0.20233971 0.1330334
0.23801862 -0.25137237 0.30270296 0.25828478 0.4837129 1.4134153 0.22382735 0.16495171
0.15431409 0.24606231 -0.31013283 -1.1270707 -0.57607687 0.8332268 0.20986429 -0.23261583
-0.70214957 -0.5481737 -0.2302179 0.75553834 -0.43752477 0.2085598 0.323452 -0.3075931
0.2421043 -0.37808135 0.2162923 -0.31084195 0.2700938 0.15341438 0.68226653 -0.29122669
0.13254914 -0.3596093 -0.412152 0.14586458 0.65252286 -0.18716414 -0.31018585 -0.51708406
0.24922734 1.3583033 0.16986609 -0.82897305 0.56717503 -0.47853398 -0.9494875 0.16725415
0.3931036 0.175891 0.25236544 -0.1819942 0.22501633 -1.0401216 0.11721785 -0.17173015
-0.6890215 0.41344896 -0.6826238 0.16914739 -0.3393688 -0.20224696 0.26525912 -0.3803695
-0.7027231 0.2717782 0.2800035 -0.4373074 -0.33881602 0.5287843 0.35726854 0.183804
