models/critic_600000.pt (torch, 291588 bytes, 5 tensors)

network.0.weight f4 [256, 23]
00000000: 78df b4be 6d53 bdbf b404 813f c06c b93f
00000010: 5347 9b3e 7336 8cbf 7322 14bf a44e 33be
00000020: f12b 193e 53c8 043f ee31 b9be f2ac 963e
00000030: 5a9f 3cbd a2c0 a8be 947c 15be 88a1 83bd
00000040: f78b fd3d ae4c 8dbf 4723 c53f 7bd7 38bf
00000050: aace 38bf 7017 263e 7704 4bbe 81dc 9640
00000060: 5418 b43f d931 023c bbaa 183f a6c8 59bf
00000070: ee6e 4dbe 09bb 913e 7f2e a63f a7b2 9cbe
00000080: 55d8 233f 35c0 8d3f 959f 7ebe 2fb7 703e
00000090: 2aec c23d 1f11 b73e 8ea5 a93d 064c 77be
000000a0: 4906 5d3f 9189 2e3e 3917 8dbf 00ef 203f
000000b0: da93 03be b1f7 583f bfd8 98c0 47f7 a7be
000000c0: 12bc 37be 5f38 b13e f318 483e 523c d93d
000000d0: 888b 0abf ef4a c13d 21b4 803e 7bec 39bf
000000e0: c895 2a3e d634 8cbe 8c15 66be 2b48 91be
000000f0: 694c 99be 69fa 82be 749a 35be 608f 10bf
00000100: f448 013f 81cb 16bf 1461 26bf 2bd4 7abe
00000110: c5d9 613f 6c90 853f 4cb5 0cbf 937e e63d
00000120: f6e5 09bd 72fb 13bf 727d 81be 365d b9be
00000130: 4616 56be ad84 e9bd 694d 8dbf 9279 cabe
00000140: 48cf 13be 06bb 96be 3e48 8b3e 5471 2abe
00000150: ba06 813d 473a 263d 15fb 4b3e 79f0 83be
00000160: 0973 cb3e ff08 e8be d191 54be 19fd e43e
00000170: c497 28c0 598c 203f 7cfe a43e 4d3c 9abd
00000180: 2c68 e2be c906 8dbe c376 9f3d a018 e93e
00000190: 9b62 73be 3b49 9ebe 9b3b 1a3f 9ace 243e
000001a0: 28b2 d7bc 2b3e ba3e 2d74 6bbb cf00 41be
000001b0: e250 35be a8c1 673f 1636 203f 18eb 993e
000001c0: c091 423e 504b 11bf c933 6bbf 9e16 f2bd
000001d0: cc33 2240 d85f d1be 49ce 1dbf 2191 273f
000001e0: a771 00bf 8462 fcbd fb6e af3e cf48 45be
000001f0: d83f 61bf 25d4 c3be e812 b83d cb8c acbe
00000200: 2dd8 303e 0b3d 1bbc 8bd2 a53e 1b76 88be
00000210: e4e1 ccbb aa09 81bf ff4f 8a3e 2a07 03bf
00000220: 46f1 12bf cb49 64bf f10b 073f a891 50c0
00000230: a9d4 b43f fd08 e23e 274a a1bd 59b2 6b3f
00000240: 70c9 c83e 5b60 eb3d a03e 153e ce32 81be
00000250: be4d 2cbf ffa7 c8bd 3ef7 2dbe 6c3b 783d
00000260: 8589 70be 56e4 573b e83a 6c3d 826b eabe
00000270: de25 333f d286 d63e ec4c b7bf 09cb 68bd
00000280: c301 10bf 2ee2 1a40 7c65 5e3e b563 c0bd
00000290: eec1 f7be 386e 023f 1991 533f ec69 edbe
000002a0: f0c0 acbe e039 533d a5be 453f f7cf 85be
000002b0: cfa7 453d 9556 a4be 1d3f b63e 7a80 0b3e
000002c0: 06c9 b53e bbf9 9d3e a48c 4dbd 3630 35be
000002d0: f5e4 6fbf 9dc6 b5bc fba7 9a3e cf2a cd3d
000002e0: 7865 82bf 6088 843f 3824 2ebf 8a9b 2c3f
000002f0: dac2 b1be e5ef acbe 8ea9 023f c4f6 a83c
00000300: 9729 193e 9afb 91bf 6cc2 433e 42b5 883c
00000310: e4d5 78bc 5da5 7f3e ba54 233e bd64 573e
00000320: ccf6 8abe b52a 4b3f 921c 59be 1b69 2a3f
00000330: 9806 28bf ec9a 603d 8d21 3d3e 80e8 9a3f
00000340: 8344 aebe ae09 3cbf 5b45 45bf ef33 a0be
00000350: 08c7 07bf d3ee 9d3e d00d 993d 7f9c 623d
00000360: f1b6 c13d 64dd a5be 428a e8be 5dfc 8abe
00000370: 2c4f 5fbe c65e d73e 02d2 8f3b 9b59 71be
00000380: cd0e ed3e 1d93 183f 2d9d 04be bbf3 993e
00000390: 12df c63c c5e2 6dbe 7769 8f3e 5ac9 22bf
000003a0: 81a2 aabd 30f0 883e 6a3b 93be 58ee da3d
000003b0: a3a7 083f 3425 f0be b45b 113e 6085 28be
000003c0: f699 dbbd 4345 7c3e 4098 75bd 6515 0dbe
000003d0: cf43 84bc e3fc f93d f515 aa3d 1010 1e3f
000003e0: c228 4f3c 86cd ab3e 45d2 cdbd 725e 02be
000003f0: d450 ef3e 8c6f 14c0 3722 593e 02ce 413f
-0.35326743 -1.4791085 1.007956 1.4486313 0.30327854 -1.0954117 -0.57865065 -0.17510468
0.14958169 0.5186817 -0.36170906 0.29428822 -0.046050407 -0.32959467 -0.14598304 -0.06427294
0.12380212 -1.1039026 1.5401391 -0.722038 -0.72190344 0.16219878 -0.19825922 4.714417
1.4069924 0.007946455 0.59635514 -0.8507179 -0.20061848 0.2846301 1.298294 -0.3060505
0.6400197 1.1074282 -0.24865563 0.23507379 0.09517701 0.3575525 0.0828353 -0.24150094
0.86337715 0.17044665 -1.1022712 0.62864685 -0.1284937 0.8475295 -4.7764583 -0.32805845
-0.17942837 0.3461332 0.19540767 0.10607208 -0.5411916 0.094381206 0.25137427 -0.72626466
0.166587 -0.2738406 -0.22469157 -0.28375372 -0.2994111 -0.25581673 -0.177347 -0.5646877
0.5050194 -0.5890427 -0.6499188 -0.24494998 0.88222915 1.0434699 -0.5496414 0.11254611
-0.033666573 -0.5780555 -0.2529102 -0.36203927 -0.20906934 -0.11402259 -1.1039249 -0.39545876
-0.1443454 -0.29439563 0.27203554 -0.16644794 0.06300111 0.04058292 0.19919999 -0.25769404
0.39736202 -0.45319363 -0.2075875 0.44724348 -2.634263 0.62714154 0.32225406 -0.07531033
-0.44220102 -0.2754424 0.07786324 0.455266 -0.23768084 -0.30915245 0.602472 0.16094437
-0.026330069 0.36375555 -0.00359274 -0.18847965 -0.17706636 0.9052987 0.6258253 0.30062175
0.19000912 -0.5675554 -0.9187589 -0.1182072 2.5344114 -0.40893435 -0.6164289 0.65455824
-0.5017342 -0.12323478 0.3426436 -0.19266056 -0.8798804 -0.3824779 0.08987981 -0.33701167
0.17269965 -0.009475003 0.32387194 -0.26652607 -0.006252514 -1.0081074 0.27014157 -0.51182806
-0.57399404 -0.891751 0.52752596 -3.2588902 1.4127399 0.44147483 -0.078754716 0.9206901
0.39216185 0.11492988 0.14574671 -0.25234073 -0.67306125 -0.09797668 -0.16988847 0.060603544
-0.2348996 0.0032942495 0.057673365 -0.45785147 0.69979656 0.41899735 -1.432035 -0.056834254
-0.5625269 2.420055 0.217184 -0.093940176 -0.48390144 0.5094943 0.82643276 -0.46369874
-0.3374095 0.051568866 0.77244025 -0.26135227 0.048255738 -0.32097307 0.35595027 0.13623229
0.3550493 0.30854592 -0.050182953 -0.17694172 -0.93708736 -0.022189433 0.30206284 0.10017931
-1.0187216 1.0354118 -0.68024015 0.67424834 -0.34718972 -0.33776775 0.5103997 0.02062548
0.14957272 -1.1404908 0.19117135 0.016687993 -0.015187714 0.24965425 0.1595029 0.21034522
-0.27141416 0.7936204 -0.21202305 0.6656663 -0.6563506 0.054835245 0.1846983 1.2102203
-0.34036645 -0.7345227 -0.77058953 -0.31289622 -0.5303807 0.3084627 0.07473338 0.055325028
0.094587214 -0.3239547 -0.45417982 -0.27145663 -0.21807545 0.42064494 0.0043890486 -0.23569338
0.46300355 0.5959948 -0.12950583 0.30068764 0.02427629 -0.23231037 0.2801015 -0.6358849
-0.083317764 0.2674575 -0.28756267 0.10689992 0.53380793 -0.46903384 0.14195138 -0.16457129
-0.10722725 0.24635796 -0.05995965 -0.13777693 -0.016145615 0.122064374 0.08304969 0.6174326
0.012643995 0.3355524 -0.10049871 -0.1273134 0.46741354 -2.3193083 0.21204458 0.7570497

network.0.bias f4 [256]
00000000: 4aee 90bf 3e61 9cbf b1da c93f da80 c7bf
00000010: 7428 c03f 0667 c3bf 01bf a6bf 3cad de3f
00000020: a13f e03f f861 0040 261b 0440 fcd3 8dbf
00000030: b2db f63f 8048 d8bf ab77 ccbf 0d48 da3f
00000040: d7c2 e93f 802a abbf afd4 dabf 9bb0 ed3f
00000050: f834 df3f 5d70 953f 6fc0 353f 3328 88bf
00000060: b886 be3f 45ea db3f 5256 cdbd d57d da3f
00000070: 48ac de3f 65f5 b9bf 43aa c3bf 9e1f 5bbf
00000080: a4df e83f 4b84 ec3f 3287 b73f bee2 ce3f
00000090: 2ce6 c6bf b6b7 d6bf a47a fd3f a19a fb3f
000000a0: 6824 d5bf 87e9 bebf 4765 ec3f b7ee d5bf
000000b0: 7df6 c2bf e1c6 bb3f afba a3bf 6913 eb3f
000000c0: 7a2f c5bf bd0e 1340 607b da3f de52 f33f
000000d0: 6ea4 f0bf 944d e43f 6119 b3bf 914e d3bf
000000e0: ed69 ee3f f987 953e d664 f03f 020e d1bf
000000f0: 222b bcbf 30b4 c3bf 92f3 be3f 3a6a cebf
00000100: 164f f83f ec31 e43f 8e90 5fbf 4af1 c93f
00000110: da06 e6bf 9711 78bf 5ab4 cbbf 07a7 adbf
00000120: 9ef8 f03f d818 0140 1050 c4bf 2f22 d53f
00000130: ac26 db3f 3352 b7bf 9e6e fd3f b7d1 963f
00000140: fec2 b23f 2508 b7bf 63cf a33f 1f07 0340
00000150: fdcf ee3f ce51 afbf 193a 0540 2285 be3f
00000160: b96f 80bf 8b8f da3f d965 d8bf d9a8 d43f
00000170: f41c e13f 79b1 0a40 c422 e03f 7b35 c43f
00000180: 1990 fd3f 2f2c ee3f d7df db3f c020 d0bf
00000190: 885f bebf 5196 b4bf d8ee c0bf 439a dc3f
000001a0: e5cc 53bf b64d ec3f 0227 aebf 80f0 eb3f
000001b0: bdc4 96bf 7442 933f d505 d43f 85b5 c6bf
000001c0: 9017 d43f ff05 0240 9ad5 f23f 7312 c6bf
000001d0: 1876 d7bf d9ca d2bf afbe 00bf b203 ed3f
000001e0: 1379 e63f 01af ee3f f22d 93bf a118 e9bf
000001f0: cbf5 f83f acdb e93f 413e bfbf b6d0 a9bf
00000200: d406 c5bf dcb4 c0bf fcbd bfbf 7330 8abf
00000210: 976c ff3f b7c8 adbf e94a e63f 44e7 e33f
00000220: f44a acbf 3a8c ec3f 6b92 aebf 7a83 8fbf
00000230: c458 b83f 5c4d b43f d8d9 bcbf 9760 0440
00000240: 0e5a ea3f 5cbc 81be bc3d e8bf bb66 c53f
00000250: 731a 5bbf ad3d c2bf 8d17 47bf d336 7dbf
00000260: f243 fe3f e80d b5bf 5055 f33f 6343 7dbf
00000270: 8b67 f33f 37fb e33f 7337 f53f 0748 eb3f
00000280: 5738 fd3f 3bd8 0040 72f4 d03f a447 1240
00000290: 7dfa c13f cc0c bbbf a161 cf3f da6e f53f
000002a0: e732 f73f 0e5f afbf 8358 67bf 5a87 3940
000002b0: 15f1 9dbf 9f23 903e 94d5 d93f e591 b5bf
000002c0: e399 97bf cdd1 afbf aac4 fd3f 738a b9bf
000002d0: 524c e43f d4b6 c33f d712 cbbf e322 7d3f
000002e0: 4197 d8bf 6ce6 d53f e5c5 e63f 0a3c 0040
000002f0: addc f63f 3eef bb3f 27a4 fa3f 5f01 52bf
00000300: f0da fb3f 6bfa 97bf b236 e93f 504d bd3f
00000310: 38de b5bf ea1d e23f 1c95 b2bf 5dba e43f
00000320: 347a ed3f 0a93 e43f 1ce9 c6bf 84cd b13f
00000330: 0e71 dc3f 358d d7bf a7d1 e93f c12d d5bf
00000340: e42f 8b3f 31e8 dfbf 6359 1a40 f568 0b40
00000350: 7445 a9be bc00 cebf 01d0 fd3f 4430 de3f
00000360: 9b13 b0bf 055e 9ebe 65da ef3f 6e9c a83f
00000370: ecdc ea3f acb1 a1bf bbd4 d13f 1a44 0340
00000380: 0e95 0140 f96f c6bf 2ebc f23f 3123 d0bf
00000390: 8446 d4bf d001 fd3f 6d22 d0bf 64f6 e43f
000003a0: e5c2 ef3f 0a5a f93f 4eb1 ed3f f7ed d1bf
000003b0: 8beb 0c40 62c2 c8bf 3c16 e03f 30f6 e53f
000003c0: ed04 dc3f 0cc0 e0bf d49a f23f 89f5 f83f
000003d0: ddb8 aabf dc20 8fbf 0401 f23f 512d e0bf
000003e0: 4d06 acbf d77f d93f a62a f23f 999d c4bf
000003f0: 8b2d de3f 854d d3bf 96cc f13f 0a16 e83f
-1.132272 -1.2217176 1.5769864 -1.5586197 1.5012345 -1.5265815 -1.302704 1.7396617
1.7519418 2.0059795 2.064157 -1.1080317 1.9285796 -1.6897125 -1.597402 1.7053238
1.8262585 -1.3372345 -1.7096156 1.8569521 1.743804 1.1674916 0.70996755 -1.0637268
1.4884863 1.7180868 -0.1002623 1.7069651 1.7396326 -1.4528013 -1.5286335 -0.8559512
1.819325 1.8477873 1.4338133 1.6162946 -1.5538993 -1.6774814 1.9803052 1.9656564
-1.6651735 -1.4915017 1.8468407 -1.6713475 -1.5231472 1.4670068 -1.2791346 1.8365299
-1.5405114 2.2977746 1.7068901 1.9009664 -1.880018 1.7836175 -1.399212 -1.6508352
1.8626076 0.292053 1.8780773 -1.63324 -1.4700663 -1.5289364 1.4918082 -1.6126168
1.9399135 1.7827735 -0.8732995 1.577676 -1.7970841 -0.9690184 -1.5914414 -1.3566598
1.8825872 2.0171413 -1.5336933 1.6651057 1.7121177 -1.432196 1.9799383 1.178275
1.3965757 -1.429936 1.2797664 2.0473096 1.8657223 -1.369684 2.081671 1.4884379
-1.0034095 1.7075056 -1.6906081 1.6614028 1.7586961 2.167082 1.751061 1.5328821
1.98096 1.8607234 1.7177685 -1.6259995 -1.4872904 -1.4108373 -1.5072889 1.7234577
-0.8273452 1.8461215 -1.3605654 1.843277 -1.177879 1.1504655 1.656428 -1.5524145
1.6569691 2.031616 1.8971436 -1.547438 -1.6832914 -1.6468154 -0.5029096 1.8516753
1.8005699 1.8647157 -1.1498396 -1.8210641 1.945001 1.8270164 -1.4940873 -1.3266819
-1.5392709 -1.5055194 -1.4979854 -1.0796036 1.9955014 -1.3576878 1.7991611 1.7804952
-1.3460374 1.8480294 -1.3638433 -1.1211998 1.4402089 1.4086108 -1.4753981 2.0683954
1.8308733 -0.2533902 -1.814384 1.5421976 -0.85587233 -1.5175072 -0.7777031 -0.9891178
1.9864485 -1.4144869 1.901041 -0.9893095 1.9015974 1.781104 1.9157547 1.8381356
1.9782819 2.0131977 1.6324599 2.2856226 1.5154568 -1.461328 1.6201669 1.9174454
1.9312409 -1.3700883 -0.90369433 2.8988862 -1.2339197 0.28152177 1.7018304 -1.4185148
-1.1843837 -1.3735901 1.9825642 -1.4495376 1.7835791 1.529017 -1.5865124 0.9888136
-1.6921159 1.6710944 1.8029143 2.0036645 1.9286095 1.4682386 1.9581345 -0.8203334
1.967619 -1.1873296 1.8219817 1.4789219 -1.4208441 1.7665379 -1.3951755 1.7869374
1.8552918 1.7857373 -1.5539889 1.3890843 1.7222002 -1.6839968 1.8267106 -1.6654588
1.087399 -1.7492734 2.4117057 2.178281 -0.330608 -1.6093974 1.9829103 1.735848
-1.3755983 -0.30931106 1.8738524 1.3172739 1.834867 -1.2632346 1.6393045 2.0510316
2.0247226 -1.5502921 1.8963678 -1.626074 -1.658402 1.9766178 -1.6260506 1.7887692
1.8731352 1.9480603 1.8569734 -1.6400746 2.2018764 -1.5684321 1.7506785 1.7965755
1.7189003 -1.7558608 1.89535 1.9449931 -1.3337666 -1.1181903 1.890656 -1.751383
-1.3439423 1.6992139 1.8919265 -1.5360595 1.7357649 -1.6508032 1.889056 1.8131726

network.2.weight f4 [256, 256]
00000000: d504 953d 26a5 2a3e 6772 98bd ae27 6b3e
00000010: cce0 cfbd 0381 d5bd 2898 773d f6dc a5ba
00000020: a266 04bb 522d dabd f366 27be 9f89 b33c
00000030: 8233 6dbe 3aad 223e b401 5e3e 946f 323d
00000040: 756a 14bd 2e68 aebd 9570 3cbd 8574 703d
00000050: 2dbd a23d 3016 9d3d 892d 253e b72e 3c3e
00000060: ad72 153e 8f69 3bbd 27a5 3b3d eecf 22be
00000070: d24d 393e 2d2b 713e 6e1a 813e a15f a73d
00000080: 195c 9e3d 468c c8bd 87a7 ac3d 4de6 173e
00000090: 0402 5d3d 309f cf3e 5bc3 acbc bbe4 4bbe
000000a0: 9786 8b3d 61a0 bfbd fdd0 4bbd cb2e 2f3e
000000b0: e555 473e 44b3 24bb 35cc 84be 9897 3b3e
000000c0: b7b5 783e 836a 06bf 0f8e bebd c3f5 1fbe
000000d0: 881a 2eb7 7627 84bd c7ca 833d fe88 a5bd
000000e0: 22e6 85bd 2a68 2dbe 34be f3bd a60e 2a3e
000000f0: 854c 1fbd a3f9 a83e 041c 4ebd 1a63 6e3e
00000100: ab68 1abb 40d1 aa3d 7a43 7b3d f771 a83d
00000110: a845 42bd 8608 6fbc 2e30 9d3c 0f65 0b3e
00000120: fca0 02be 1f3e 15be 9981 8d3e 9684 1c3e
00000130: b9ff 83be f744 0f3e f390 983d c28f eebd
00000140: 18ad 68bd 105c 173e 6329 aebe 00ff 2ebd
00000150: 4f9b 8d3d d418 a23d aa1d bbbd 2706 5cbd
00000160: 4307 3ebc 2558 1ebe 4af2 8f3e 17b5 b4bd
00000170: ae76 593d 3419 ad3c 54b6 8dbe 2179 d7bb
00000180: b59a 62be 6704 de3d 3616 3a3d 81d4 1bbe
00000190: aed4 573e d2e2 e0bd f234 31bd b472 57bd
000001a0: 2276 50be 197e 68be 2a2c 8abd 13fb 0f3d
000001b0: c25a 0d3d 5d20 c83d 0e11 973d 0ffd 31bc
000001c0: 2aa8 aabd a2f6 1f3e dd82 0abd 1479 f93d
000001d0: 1421 4d3d 87aa a53e d022 813d ebd2 0cbd
000001e0: a635 24be ce13 10be 533b 783e 20e9 723e
000001f0: e43a 7fbb a251 64be 9046 79bd a3fb 823e
00000200: 0886 663e 2852 763e f062 d5bd 446b a4be
00000210: c996 32be 8801 153f ce8e d53d b1e9 08bd
00000220: 5b18 8d3d 5a6b b7bd fcca 0cbe 92d4 5538
00000230: 2089 363b f9b7 673e e3ac af3b 9e4b f33d
00000240: 2dde da3d 2d35 1cbd 8aa0 343e 025f aabe
00000250: fa99 ee3d c642 1f3e f50c 52be 85dc a0bd
00000260: e40a 10be 3c8a 193d 5696 b03c d765 a13e
00000270: 06be ebbd e543 893d ca02 afbd d2d9 773e
00000280: 695d 58bc fa67 a33d 7c0f bd3d 02b1 89be
00000290: b360 18bd 8b9c cf3d 69a1 193e f232 723e
000002a0: 1f31 743d 1e58 9fbd 8b8f dc3e cb0d febe
000002b0: d7be 53be 52e2 bdbc f5fa f8bb 21bf 983c
000002c0: dc36 6d3e 4bb6 eb3d 93b5 cc3c b5ff a23d
000002d0: 63c9 d7bd 74b2 bbbe 8821 893e 4097 6abe
000002e0: 9479 d43d 164c 95bd a8ac 17be 92db 853d
000002f0: a50f 00be c306 0e3e 6f59 033e dc54 11be
00000300: 82f9 9fbd 9ca9 ef3d 78d4 67bc 871a 20bd
00000310: 971e 883e 22d6 17bd fc4e 9b3d 2b45 ba3d
00000320: e88d 203e a8a6 e8bd d466 83be e8b7 9cbe
00000330: 07fc 483e 0f94 853d fb2c 013e 65e2 67be
00000340: e540 723d 7946 033e c939 a7be 9678 88be
00000350: 7a60 0ebd 7be2 f23d c166 c8bd 49e4 8fbc
00000360: 33e7 c43d a0a7 d13d 83fa a33d 4d9e 21be
00000370: bfcd 07bd 137f c2bd bfd3 053e b4e5 d43d
00000380: 6868 43be 86d5 67be b348 a0be d28e 583e
00000390: 414c f63c e565 7cbe cec7 233e d8fd 9c3c
000003a0: de77 563d 01e1 dcbc 3b0e 8bbe e63c 5e3e
000003b0: 9bce 21be 6d8a 813e 4e71 ccbc 1eeb 433e
000003c0: 099d 803e 9c0e a9bd d2bf 723a 3c61 143d
000003d0: 6ba5 4fbc efe7 64be 7aff 033e 957f 073e
000003e0: 5d65 263d 19c1 65be e6a7 64bd f49a 293e
000003f0: ec56 04be 08cd 4e3e 2bde 0abe 04ad b1bc
0.07276312 0.16664562 -0.074436955 0.22964355 -0.101502985 -0.10424998 0.060447842 -0.0012654352
-0.0020202775 -0.106531754 -0.16347866 0.021916209 -0.2316418 0.15886393 0.21680337 0.04356344
-0.036234338 -0.085159644 -0.046005804 0.05870487 0.07946239 0.076702476 0.16130652 0.18377195
0.14594527 -0.045754965 0.0458118 -0.15899631 0.18096092 0.23551627 0.25215477 0.08172537
0.0773241 -0.0979238 0.08430391 0.14833947 0.053957 0.40551138 -0.021089246 -0.19911472
0.0681278 -0.09356762 -0.049759854 0.17107694 0.1946636 -0.0025131265 -0.25937048 0.18319547
0.24288069 -0.52506274 -0.09304439 -0.15621094 -1.03773855e-05 -0.06452839 0.06435161 -0.0808277
-0.06538035 -0.16934267 -0.11901513 0.1660715 -0.038891334 0.33002958 -0.050319687 0.23279992
-0.0023560922 0.083406925 0.061343648 0.08224862 -0.04742971 -0.0145894345 0.019188013 0.1361277
-0.12756723 -0.14574479 0.27637938 0.15284953 -0.25781038 0.13991152 0.07449522 -0.116485134
-0.0568057 0.14781213 -0.3401595 -0.042723656 0.069143884 0.07914892 -0.09136517 -0.053716805
-0.011598411 -0.15463312 0.2811454 -0.08823603 0.053091697 0.021130182 -0.27678168 -0.006575719
-0.22129329 0.108406834 0.04543134 -0.15217783 0.21077225 -0.109807625 -0.043263383 -0.052599624
-0.20357564 -0.22704352 -0.06746705 0.035151552 0.03451038 0.09771798 0.073763 -0.0108635565
-0.08332856 0.15621427 -0.033816207 0.12181297 0.050080374 0.32356665 0.06305468 -0.034380835
-0.1603609 -0.14070055 0.2424138 0.23721743 -0.0038945014 -0.22296765 -0.06085831 0.2558261
0.22512066 0.24054778 -0.104192615 -0.32113087 -0.17440332 0.5820546 0.104276285 -0.03342599
0.06889411 -0.089560226 -0.13749307 5.098113e-05 0.002785273 0.22628774 0.005361186 0.11879657
0.10686908 -0.03813665 0.17639366 -0.3327561 0.116504624 0.15552816 -0.20512755 -0.07854561
-0.14066654 0.037485346 0.02155606 0.3152301 -0.115108535 0.06702403 -0.08545454 0.24204186
-0.0132058645 0.07978816 0.09231469 -0.2689286 -0.037201595 0.1013728 0.1500298 0.23652247
0.059617158 -0.07780479 0.43078265 -0.49619898 -0.20678268 -0.023179207 -0.007598276 0.018645825
0.23165458 0.11509379 0.024988925 0.079589285 -0.10536458 -0.36659586 0.26783395 -0.2290926
0.10374752 -0.07289903 -0.14811957 0.0653602 -0.12505968 0.13869767 0.12827085 -0.14192528
-0.07811262 0.11702272 -0.014149778 -0.0390878 0.26585838 -0.037069447 0.075834244 0.09095224
0.15679133 -0.11359912 -0.2566439 -0.3060906 0.19627391 0.065223806 0.12614815 -0.22644956
0.05914392 0.12819852 -0.32661274 -0.266545 -0.034759976 0.11859604 -0.09785224 -0.01756491
0.0961441 0.1023705 0.08006766 -0.15783043 -0.0331552 -0.09496894 0.13069056 0.10395375
-0.19082797 -0.22640046 -0.31305465 0.21148232 0.030065658 -0.24648245 0.15994188 0.01916401
0.052360408 -0.026962759 -0.27159294 0.21702918 -0.1580147 0.25300923 -0.024956372 0.19132659
0.25119808 -0.0825474 0.0009260151 0.036225542 -0.012673716 -0.223541 0.12890425 0.13232262
0.04062401 -0.22436942 -0.055824183 0.16563016 -0.12923783 0.201954 -0.13561313 -0.021688946

network.2.bias f4 [256]
00000000: cc8e f5bf f9e8 babf ce3c 0440 efc0 0340
00000010: 628f fc3f d27e 0540 e09e 0440 df91 c6bf
00000020: 5693 eb3f 4cc4 fbbf 8300 e6bf dc5d 9cbf
00000030: 0b8c c03f c75d e3bf 2eb2 e0bf 19e0 bcbf
00000040: cf3a 0440 10a2 6abf c65b 0240 d8e8 0240
00000050: fc2e 0340 b986 d7bf 0e3e 0340 ada9 0540
00000060: 89be ef3f 7a24 0540 3a14 0440 42a8 0240
00000070: 5428 d7bf 5ac7 0340 3ebb d5bf 916c fc3f
00000080: 2eb2 cd3f e5ff 0240 5e71 0740 dca4 d9bf
00000090: 850c 003f 2873 abbf 92f1 afbf a24b 0340
000000a0: 91fa 6cbf 0798 e2bf 2cc4 0140 6a8f 0440
000000b0: 3859 cfbf edff d1bf 0ef8 0540 1e2d 0540
000000c0: e0bb 1240 679f 0240 9419 0340 15aa d5bf
000000d0: 708d e13f faab b6bf 0862 0340 889f b4bf
000000e0: 8443 c33f 2ff7 d7bf a062 d23f 4c3d 0140
000000f0: b92a 9fbf 8064 c5bf 6964 eebf 11f3 0140
00000100: 364b 0040 7f0e ccbf 37d4 e5bf 3461 0540
00000110: dd15 0740 ad5e 0440 db96 d63f 9c9c e2bf
00000120: 1833 b1bf 6287 0240 34d9 e7bf 49d8 dfbf
00000130: abc9 c9bf cb2e c4bf c6b7 0040 11ff cebf
00000140: ae93 d2bf 67cd 0340 5e5c fc3f 1e21 c83f
00000150: 1039 bfbf 571e d5bf d74e dbbf 7449 0240
00000160: b393 da3f 5717 b4bf c5ba 0240 8967 0240
00000170: a9e0 0d40 e978 0540 0df9 0540 ea92 c7bf
00000180: 6c23 cabf bfac 0540 0277 0740 857a 75bf
00000190: 2b6c 9ebf e884 0240 7a33 0440 774c a5bf
000001a0: 69fc 9ebf 67d1 f93f f3be 0640 4872 d9bf
000001b0: b8ad 0240 19ec 0140 82d8 e6bf 02d3 c2bf
000001c0: d516 d8bf 058d 0140 3f3b b4bf 9060 0340
000001d0: 5b68 9fbf b864 b4bf 10f6 b2bf 9533 0340
000001e0: 2a69 fe3f b0e4 f43f 45ad 0340 d725 0340
000001f0: 93c2 cdbf 3319 0240 3b56 d7bf 7583 fb3f
00000200: 91b1 cebf 09c9 d7bf 938e d93f 2bcc 0040
00000210: ecb9 0340 2f90 b2bf a8b5 c9bf dc7a 0240
00000220: e6a2 99bf 0504 e7bf 81f0 0340 ede3 0240
00000230: eb3b 0940 fa09 0340 5475 c8bf 7ee6 0340
00000240: 47e6 0240 9cd0 0440 4387 0440 e233 0340
00000250: f8fb e93f 4603 0440 fa1b b7bf 67aa cfbf
00000260: 393f d2bf 9f02 81bf 5f79 e1bf a5c4 0b40
00000270: 6eaa 0340 4271 0340 196e 0340 ff13 fabf
00000280: 9f02 cebf 3932 0340 aef1 e7bf 7cf2 e8bf
00000290: 74db adbf f04e 0640 6ce0 0240 abb1 c3bf
000002a0: 46d9 efbf c787 f63f 60cc 0140 c978 0240
000002b0: 0752 ed3f a5eb e7bf 7cee 0740 d712 c8be
000002c0: c3c9 a8bf 2398 0340 8943 c4bf 61ca e7bf
000002d0: 7f16 e7bf 13aa c4bf 8690 0340 cbb5 0340
000002e0: a1ee 0b40 5bed ccbf 1571 0940 2157 fb3f
000002f0: fe03 bd3f 878e 0d40 1759 0340 bb54 0340
00000300: 09db 0240 84b4 0240 8e30 d9bf 54f5 20bf
00000310: 62b9 ccbf 8522 ef3f 3d93 0240 5860 a6bf
00000320: 09f0 bbbf 4ed2 cfbf f1d2 bbbf 88a1 1240
00000330: f4e1 b0bf 6308 0440 24a4 f43f 9d5c d7bf
00000340: 9f0e fc3f 065f 9ebf 2141 f63f 3ed1 c6bf
00000350: 237c 0340 f75e 0340 8117 fa3f 59b8 c8bf
00000360: 1676 0840 e5f4 dfbf 985a dcbf ee83 0540
00000370: 77f4 e73f 6286 abbf cfd7 bebf b410 a0bf
00000380: d405 0340 3b7c 2940 6474 0440 6d6b 8fbf
00000390: 0f43 c33f 2c16 efbf 83fa 97bf 74fe 0540
000003a0: b7a9 e43f eb71 0340 2e03 0340 b0f0 c6bf
000003b0: ecf0 0140 5245 c1bf d46d 0340 e3cc c9bf
000003c0: d8cf b4bf 43a7 0440 0166 adbf 7ca2 ff3f
000003d0: 5d79 b1bf 3311 e5bf 927f 0040 81f8 8ebf
000003e0: 1bf3 a6bf 7dd6 0340 ed11 0640 c508 aebf
000003f0: c6f4 d9bf b071 f33f d10f e43f 7e23 0340
-1.9184203 -1.4602348 2.0662112 2.0586507 1.9731257 2.0858655 2.072197 -1.5513266
1.8404338 -1.966928 -1.7968906 -1.2216144 1.5042738 -1.7762994 -1.7554376 -1.4755889
2.0660894 -0.9165354 2.0368514 2.0454617 2.0497427 -1.6837989 2.0506625 2.0884812
1.8730022 2.0803514 2.0637345 2.0415196 -1.6809182 2.0590425 -1.6697767 1.9720632
1.6070001 2.0468686 2.1162944 -1.7003436 0.50019103 -1.3394518 -1.3745596 2.0514913
-0.92569834 -1.7702645 2.0275984 2.0712533 -1.6199102 -1.6406227 2.093265 2.0808787
2.292717 2.0409791 2.0484362 -1.669253 1.7621288 -1.4271233 2.0528584 -1.4111185
1.5254979 -1.687231 1.6436348 2.0193663 -1.2434913 -1.5421295 -1.8624393 2.0304606
2.0045905 -1.5941924 -1.7955388 2.0840578 2.1107094 2.0682786 1.6764787 -1.7704043
-1.3843718 2.039513 -1.811316 -1.748788 -1.5764669 -1.532678 2.0112166 -1.617159
-1.6451318 2.0594118 1.9715688 1.5635107 -1.4939289 -1.6649884 -1.7133435 2.0357332
1.7076324 -1.4069623 2.0426495 2.0375693 2.2168372 2.0855048 2.0933259 -1.559171
-1.579206 2.0886686 2.1166387 -0.95890075 -1.237676 2.039362 2.0656419 -1.291396
-1.242078 1.951703 2.1054046 -1.6988001 2.041853 2.0300353 -1.8034823 -1.5220644
-1.6881968 2.0242321 -1.408058 2.0527687 -1.2453722 -1.4093237 -1.3981342 2.0500233
1.9875844 1.913229 2.0574505 2.0491846 -1.6075004 2.032788 -1.682319 1.9649493
-1.6147939 -1.6858226 1.6996635 2.0124614 2.0582228 -1.3950251 -1.5758562 2.0387487
-1.2002838 -1.8048102 2.0615542 2.0451615 2.144282 2.047484 -1.5660806 2.0609431
2.045305 2.0752325 2.0707557 2.0500417 1.828002 2.0626998 -1.4305413 -1.6223878
-1.6425544 -1.0078925 -1.7615165 2.1838772 2.0572772 2.0537877 2.0535948 -1.9537352
-1.609455 2.0499403 -1.812063 -1.8199 -1.3582597 2.098568 2.0449476 -1.5288595
-1.8738182 1.9260186 2.028099 2.0386221 1.8540658 -1.8118788 2.123931 -0.39076874
-1.3186573 2.0561607 -1.533311 -1.8108636 -1.805374 -1.5364403 2.055696 2.0579708
2.1864398 -1.6009935 2.147527 1.9635965 1.4766843 2.2118242 2.0523126 2.0520465
2.0446188 2.0422678 -1.6967943 -0.6287434 -1.5994074 1.868241 2.0402367 -1.2998152
-1.4682628 -1.6236055 -1.4673749 2.291109 -1.3818955 2.063012 1.9112592 -1.6825138
1.9691962 -1.2372749 1.9238626 -1.5532606 2.0544517 2.0526712 1.9538423 -1.5681258
2.1322074 -1.7496611 -1.7215147 2.0861773 1.812148 -1.3400385 -1.490961 -1.2505097
2.0472307 2.6482074 2.069604 -1.1204659 1.525484 -1.8678641 -1.1873325 2.0936556
1.7864293 2.053828 2.047069 -1.5542202 2.0303297 -1.509928 2.0535784 -1.5765651
-1.4125929 2.0727088 -1.3546754 1.9971461 -1.3865162 -1.7895874 2.0077863 -1.1169587
-1.304294 2.0599663 2.094844 -1.3596426 -1.7027824 1.901907 1.7817327 2.0490413

network.4.weight f4 [1, 256]
00000000: 16eb b5be 211c 87be b85a 703e a068 703e
00000010: 31eb 873e 6e79 373e 09e2 f33d 19c6 28be
00000020: 3430 9d3f b3cb 49bf 5cfa 63be dfc7 20bf
00000030: c5f0 da3e 9711 a0be 52ce 8abe 12df debe
00000040: 2b5f 893e b12d d5be 919f 713e 9232 523e
00000050: 3671 5d3e 4c42 edbe c2fb 983e 782c 003f
00000060: af43 713e 9b62 5b3e 1726 2c3e 2360 413e
00000070: bbdb 1bbf a371 1e3e 9cb9 9fbe 8376 333e
00000080: 5287 713f 0fc0 1c3e e8dd 843e 4806 71be
00000090: d0fa ea3f 2323 70bf 539b c7be 9ac6 703e
000000a0: 5fc6 1abf c38f 42be b41c 953d 2bc3 613e
000000b0: eab1 aebe def0 3abe 327b 2d3e e15a df3d
000000c0: 38dd 3c3f 173e e63e c0e8 6a3f d0e4 f9be
000000d0: ab58 913f 1292 b9be 1bf2 243e c625 18bf
000000e0: 5640 d63e 0d14 28be 0ad0 db3e d9a3 903e
000000f0: 6ac0 67bf 044a 9bbe 2144 01be 0879 b23d
00000100: 4a78 0f3e 715c 17bf f848 50be 9a2a 0d3e
00000110: 0ec8 373e b65b 483e 0c9a 883e 5b29 62be
00000120: 710e a8be 54e7 6b3e 43a1 9dbe a261 59be
00000130: 40e3 a0be ff6f 72be 534d 813e aa87 55be
00000140: ab58 6bbe 6d6c 6a3e af41 ab3e 97f1 ce3e
00000150: f1ac 08bf 4f78 6bbe 3cb0 87be 22a9 7d3e
00000160: 2ea8 953f 754d 0ebf f922 2c3e bd0d 8d3e
00000170: de43 a43f 70b0 b63e 0186 013e 2a4c adbe
00000180: b191 b6be 6ae0 7a3e a561 093e b694 9bbf
00000190: 26e8 07bf fb77 543e 1ef4 993e 89be b8bf
000001a0: a97c 95bf 3f67 923e 333c 513e 2041 02bf
000001b0: 7023 443e a3f8 873e 546a 4dbe 9ac6 ebbe
000001c0: 0060 21bf 319f 4d3e b009 2bbf a14a 643e
000001d0: cced 7dbf 2836 aabe f4e9 a9bf a88d 883e
000001e0: 3bc5 4f3e d2fe a13e 618e 803e 450e 343e
000001f0: caa2 b5be f13c 863e 0842 7ebe 1d22 a03f
00000200: 277b 35bf dd17 97be 3e63 953f 7cbb ed3e
00000210: c1c3 c63e a6a1 0fbf 79a6 8dbe 08f8 3f3e
00000220: 26a6 0fbf 9a5d 12bf b8f9 083e abe0 913e
00000230: b52b 173e a1fa 2f3e 64b7 22be fac7 1e3e
00000240: 30d1 783e 2460 793e a223 423e 8144 3d3e
00000250: 4a39 873f 4baf 823e ea8d 59bf 537e 8abe
00000260: 38b4 d7be fe5c 40bf 61f6 03be 5bf3 8c3e
00000270: a20b 923e d762 3d3e ab09 6e3e c5ab 7ebe
00000280: 0e83 95be fb8b 043e 6b7d a7be 8ff0 53be
00000290: 5950 8abe 38db 793e 037c 8a3e 1b92 48bf
000002a0: d6e9 2cbe e095 2d3f 04d4 473e 9ea8 3a3e
000002b0: 5104 003f ecdb 96be 26fa 5e3e f666 a4bf
000002c0: 7ba0 03bf 1f4c 723e 2989 acbe 79be 0abf
000002d0: f237 f9bd f2ce b6be 867e 513e 782a 013e
000002e0: 5d75 7f3e 9d70 15bf dbf3 a03e 85f5 903e
000002f0: 73a2 d93e 7aac 333f 1ba9 6b3e a1cb 293e
00000300: 9480 123e a8ca 7d3e fe62 a5be d5c2 1fc0
00000310: cc95 cbbe 4fb1 8a3f 4c6e 5a3e e900 bfbe
00000320: 03b5 16bf 8795 17bf 785b 85be 655d 3c3f
00000330: d100 ccbe 3423 353e 7faf a23e b0f1 a8be
00000340: 2337 5d3e 29dd a4be 2a80 543e 19bb d2be
00000350: 38a0 8c3e e686 3f3e d5aa fe3e 5d92 49be
00000360: fbe1 093e 19e6 a6be eedf 15bf 6462 123e
00000370: 5233 e33e ab26 4bbe 0c59 a7be 2b79 92bf
00000380: 4883 7b3e 3e3e a83f 97cf 273e 7120 51bf
00000390: 92d0 fe3e c315 03bf 119d 98bf fe16 2c3e
000003a0: c95c ba3e d2b9 353e 079e 7b3e 50fe 45be
000003b0: 3480 6d3e d45f 9dbf 1caf db3d 9738 64be
000003c0: e040 48bf 3340 e13e 7ac8 21bf a2cd 073e
000003d0: 304d 99be 3c22 49be 6ac4 863e d007 9cbe
000003e0: 5de5 60bf 5e9e 8c3e be48 8c3e 9ea2 33bf
000003f0: f92e acbe 3225 ec3e 3b50 c33e 3e6b 3d3e
-0.3553092 -0.26388648 0.23472106 0.23477411 0.26546624 0.17917415 0.11908347 -0.16481818
1.2280335 -0.78826445 -0.22263473 -0.6280498 0.42761818 -0.3126342 -0.27110535 -0.43529564
0.2683042 -0.41636422 0.23596026 0.20527104 0.21625218 -0.46339643 0.29879576 0.50067854
0.23560975 0.21424334 0.16811405 0.1888433 -0.6088216 0.15473036 -0.31196296 0.17525677
0.9434711 0.1530764 0.2595055 -0.23537552 1.8357792 -0.93803614 -0.3898569 0.2351326
-0.6045894 -0.19000153 0.07280865 0.22047107 -0.34120113 -0.18255946 0.16941527 0.10906006
0.73775053 0.44969246 0.917614 -0.48807383 1.1355184 -0.36244255 0.16107981 -0.5943264
0.4184596 -0.16413899 0.4293216 0.28250006 -0.90527976 -0.30329907 -0.12623645 0.08714491
0.1401073 -0.5912543 -0.20340335 0.13785782 0.17947409 0.19566235 0.26680028 -0.22086088
-0.32823518 0.23037463 -0.30787095 -0.2122865 -0.31423378 -0.23675536 0.25254306 -0.20852533
-0.22983043 0.22892924 0.3344855 0.40418693 -0.5338889 -0.22995113 -0.26501644 0.2477155
1.1691949 -0.5558694 0.16810216 0.27549544 1.2833211 0.35681486 0.12648775 -0.3384717
-0.3565803 0.2449967 0.13416155 -1.2154758 -0.53088605 0.20748894 0.3006906 -1.4433147
-1.1678668 0.28594396 0.2043312 -0.5088062 0.19154143 0.26556882 -0.20060092 -0.46049958
-0.6303711 0.20080258 -0.66811657 0.22294094 -0.99190974 -0.33244443 -1.3274522 0.26670575
0.20290081 0.31639725 0.25108626 0.17583568 -0.3547576 0.2621837 -0.24829876 1.251041
-0.7089104 -0.29510394 1.1670911 0.46432102 0.38821223 -0.5610603 -0.2766607 0.1874696
-0.561129 -0.57174075 0.1337651 0.2849172 0.14762767 0.17185451 -0.1589027 0.15505973
0.24298549 0.24353081 0.18958905 0.18483163 1.0564358 0.25524363 -0.8498217 -0.27049503
-0.42129683 -0.75141895 -0.12886955 0.27529415 0.285245 0.18494736 0.23245876 -0.24870212
-0.2920155 0.12944023 -0.32712874 -0.20697235 -0.27014425 0.24400032 0.27047738 -0.7834794
-0.16886076 0.67806816 0.19514471 0.18228385 0.50006586 -0.29464662 0.21775112 -1.2843921
-0.5141675 0.2366185 -0.33698395 -0.5419689 -0.12168874 -0.35704762 0.20458421 0.12613857
0.24947114 -0.5837496 0.31436047 0.28312317 0.4250675 0.70185053 0.23013727 0.16581585
0.14306861 0.24784338 -0.32302088 -2.4962666 -0.39762723 1.083536 0.21331137 -0.37305382
-0.5886995 -0.59212536 -0.26046348 0.7358001 -0.39844373 0.1768921 0.31774518 -0.32996893
0.21603064 -0.32199982 0.20752016 -0.4115837 0.27465987 0.18703803 0.4973971 -0.1968474
0.13465111 -0.32597426 -0.58544815 0.14295346 0.44375092 -0.1983897 -0.32685125 -1.1443228
0.24561799 1.3143995 0.16387783 -0.81690127 0.49768502 -0.5120508 -1.1922933 0.16805646
0.36398914 0.17746666 0.24572001 -0.19335294 0.23193437 -1.229487 0.10726759 -0.22287212
-0.7822399 0.43994293 -0.6319653 0.13262036 -0.29941702 -0.19641966 0.26321727 -0.3047471
-0.8784998 0.27464575 0.27399248 -0.7017001 -0.33629587 0.46122128 0.38147148 0.18497941
