models/critic_400000.pt (torch, 291588 bytes, 5 tensors)

network.0.weight f4 [256, 23]
000000 00 15 0d be 90 14 a6 bf 14 86 63 3f 9a 92 95 3f
       -0.13777542 -1.2975025 0.8887646 1.1685364
000010 1a 01 fb 3e 08 80 80 bf 5c 86 02 bf 04 12 12 be
       0.49024278 -1.0039072 -0.50986266 -0.14264685
000020 bb cb 13 3e 32 ac d7 3e 5f 7a b1 be 91 71 ad 3e
       0.14433186 0.42123562 -0.34663674 0.33875707
000030 4d 19 70 bd b7 30 b6 be 14 fb 35 be 02 33 78 bd
       -0.05861788 -0.3558404 -0.1777156 -0.06059552
000040 65 09 21 3e 5b 6c 73 bf ba 66 cb 3f af 73 2a bf
       0.1572624 -0.9508721 1.5890725 -0.6658277
000050 a2 a2 38 bf d8 12 09 3e 41 66 9c be d9 b7 84 40
       -0.7212316 0.13386095 -0.30546764 4.1474423
000060 9c 9e b0 3f 23 4b c1 bc 1c c6 f4 3e 5e b7 3e bf
       1.3798404 -0.023595398 0.47807395 -0.74498546
000070 00 63 d9 be 1c 59 c9 3e 91 ae 8d 3f 41 ae 88 be
       -0.42458344 0.39325798 1.1068898 -0.26695445
000080 e0 da 34 3f 36 4c 80 3f 65 fd 8a be de 21 73 3e
       0.70646477 1.0023258 -0.2714645 0.23743388
000090 45 47 b4 3d 91 0d a1 3e 8d f7 22 3d 25 cc 6b be
       0.08802656 0.31455663 0.039786864 -0.23027094
0000a0 eb 0e 5f 3f 89 60 50 3d ef 70 8b bf bb ac 00 3f
       0.8713214 0.050873313 -1.089384 0.50263566
0000b0 60 fc 04 3d 7c 82 58 3f 5b 93 67 c0 c2 ee 60 be
       0.032467246 0.84574103 -3.6183689 -0.21966079
0000c0 8f 76 6f be d6 eb ca 3e 94 83 0c 3e 75 84 08 3e
       -0.2338507 0.39633054 0.13722068 0.13331778
0000d0 2c 09 ee be 99 a6 2e 3e a5 fd 95 3e bd 87 3e bf
       -0.46491373 0.1705574 0.29295078 -0.7442587
0000e0 b7 7e 80 3e ed 5d 95 be b1 9d 86 be 8c 62 b2 be
       0.25096676 -0.29173222 -0.26292184 -0.3484081
0000f0 b8 20 a7 be 5d 23 8d be ba f1 55 be 2c 78 0e bf
       -0.3264215 -0.27566043 -0.20892993 -0.5565212
000100 75 0d 18 3f fe 83 20 bf 0b 14 17 bf 17 7d 79 be
       0.59395534 -0.62701404 -0.5901496 -0.24364124
000110 a0 0b 4c 3f 5d 7c 3b 3f 4d 72 c3 be f1 ac 52 3d
       0.7970524 0.7323664 -0.38173142 0.05143446
000120 30 8a 91 3d 96 2e 0c bf a8 14 9a 3d bf e4 bd be
       0.07106435 -0.54758584 0.07523471 -0.37088582
000130 dc 57 96 be df 94 01 be ee 38 85 bf 50 c1 bf be
       -0.29363906 -0.12654446 -1.0407999 -0.37452173
000140 39 2d 15 be 63 72 9a be ef f7 8b 3e b3 da 24 be
       -0.14568032 -0.30165395 0.27337596 -0.16099052
000150 b9 70 7e 3d 6b 6d e5 3c 4e 77 18 3d 88 76 36 be
       0.06211922 0.028006276 0.037223153 -0.17818654
000160 46 3d aa 3e 89 01 cd be b9 6b a2 be 5f c6 8b 3e
       0.33249873 -0.40040234 -0.3172281 0.27299783
000170 01 9e 14 c0 21 ac 1b 3f 68 20 93 3e 40 90 cb bd
       -2.3221438 0.6080952 0.28735662 -0.09939623
000180 22 e3 f9 be fc c2 9e be fa a2 56 3c 62 d9 90 3e
       -0.488061 -0.31008136 0.01310038 0.2829085
000190 37 a3 58 be 85 45 9e be 05 51 01 3f be 4f 22 3e
       -0.21156012 -0.30912414 0.5051425 0.15850732
0001a0 f7 f2 6d bb 85 46 dd 3e 68 54 55 bd c1 4e 61 be
       -0.0036308148 0.43217865 -0.05208245 -0.22002698
0001b0 a8 76 6d be 9c 78 58 3f 1b a9 04 3f 1a b3 56 3e
       -0.23189795 0.84559035 0.51820534 0.2096676
0001c0 70 ce f2 3d 5e 1c 0d bf 8f fa 40 bf 71 a1 a3 be
       0.11855781 -0.5512141 -0.7538232 -0.31959108
0001d0 06 aa 1d 40 12 cf 84 be 44 f8 f1 be 2a ca 27 3f
       2.4635024 -0.25939232 -0.47259724 0.6554285
0001e0 f9 ad bf be d7 bb f2 bd 53 8f 92 3e db 56 64 be
       -0.37437418 -0.11852234 0.28624973 -0.22298758
0001f0 b7 91 20 bf d1 33 bc be be e1 01 3e ef e4 c1 be
       -0.62722343 -0.36758283 0.1268377 -0.37869975
000200 8c 35 61 3e 26 06 03 3d d9 fa c7 3e 07 99 8a be
       0.21993083 0.031988285 0.3905857 -0.27069876
000210 fc bf 05 3e cf b0 4d bf 89 0c 42 3e c5 4d b3 be
       0.13061517 -0.80347914 0.18950094 -0.3502027
000220 80 e7 21 bf cb b3 4f bf 09 3b b9 3e d9 87 3a c0
       -0.63243866 -0.8113372 0.36177853 -2.9145415
000230 20 ff 8f 3f 17 f1 d6 3e a9 22 19 be 63 6d 0d 3f
       1.1249733 0.41980812 -0.14954628 0.55245036
000240 3d 90 c0 3e c7 c0 5e 3e 71 d4 0b 3e bb 0b d2 be
       0.37610045 0.21753226 0.13655259 -0.41024575
000250 5f af 26 bf 23 e5 b5 bd 3b 66 2f be 5f 3b 9b 3d
       -0.65111345 -0.08881595 -0.17128842 0.075796835
000260 54 f3 88 be 1b 45 33 3c 9a d4 65 3d 7f 90 f2 be
       -0.26748145 0.010941769 0.056110956 -0.47375867
000270 bc bf 1e 3f 52 64 d0 3e 5f b2 b6 bf d8 02 ac bd
       0.62011313 0.40701538 -1.4273185 -0.0839898
000280 91 f1 1a bf cd cb 03 40 be 5c fc 3d 27 6d 09 bc
       -0.6052485 2.059314 0.12322377 -0.00838784
000290 43 b3 02 bf 5c 7a a2 3e d7 00 26 3f 4c 02 b3 be
       -0.5105478 0.31733978 0.6484503 -0.3496269
0002a0 30 78 27 be 10 5e a9 3d 17 c5 23 3f 9d 43 ab be
       -0.16354442 0.08269894 0.6397261 -0.33450022
0002b0 07 62 4b 3d 6c 24 af be 01 8a c8 3e ad ff 0c 3e
       0.049654033 -0.34207475 0.3916779 0.13769408
0002c0 e8 fc c8 3e 5e 5a a9 3e 8d 46 29 be c3 ed 63 be
       0.39255452 0.33076757 -0.16530819 -0.22258668
0002d0 3f 5f 78 bf f5 ba b8 3d c6 64 9b 3e d7 d3 92 3d
       -0.97020334 0.09020034 0.30350322 0.071693115
0002e0 cb 09 61 be 90 bd 6b 3f 17 02 2d bf 63 04 19 3f
       -0.21976392 0.92086124 -0.67581314 0.5977232
0002f0 8d 76 9f be b4 19 da be 9e a1 08 3f 49 51 1e 3d
       -0.31145135 -0.42597735 0.5337161 0.03865174
000300 da a3 3c 3e 14 76 80 bf 19 32 43 3e 5b b1 38 3a
       0.1842188 -1.0036035 0.1906208 0.0007045471
000310 31 58 c6 3b 88 89 91 3e f4 87 31 3e 4a d0 86 3e
       0.0060529937 0.2842524 0.17337018 0.26330787
000320 d1 cb a7 be b8 8e 49 3f da 87 4a be 31 69 2d 3f
       -0.32772687 0.78733397 -0.19778386 0.67738634
000330 84 43 18 bf f7 43 bd 3c 2e 62 92 3e ee 23 9c 3f
       -0.5947802 0.023103697 0.2859053 1.2198465
000340 26 a7 83 be 8f 33 42 bf 40 d8 39 bf 6b 40 b3 be
       -0.25713462 -0.7585992 -0.72595596 -0.35010085
000350 2b 94 c8 be 6d 15 af 3e 5a 63 fd 3d 71 be 7c 3d
       -0.39175543 0.34196034 0.123724654 0.061705057
000360 55 e9 9a 3d 00 f7 a5 be a0 2c f2 be 0c 2b 95 be
       0.07564036 -0.3241501 -0.4729967 -0.29134405
000370 2f 40 71 be 95 54 e1 3e 33 fd 39 3c 45 66 86 be
       -0.2355964 0.44009843 0.011351871 -0.262499
000380 91 00 07 3f 77 7d 1a 3f 99 40 9e bd e5 ee 7e 3e
       0.5273524 0.60347694 -0.07727165 0.24895819
000390 c1 e5 40 bd 63 90 85 be 95 c0 85 3e fc 20 0e bf
       -0.04709411 -0.2608672 0.2612349 -0.5551908
0003a0 ba db 6e bd d4 5e 8e 3e b3 3e c6 be 9e c3 c0 3d
       -0.058315016 0.27806723 -0.3871971 0.09412311
0003b0 7f 87 02 3f 38 ab f6 be 27 51 27 3e 68 dd ef bd
       0.50988 -0.48177505 0.16339551 -0.11712152
0003c0 33 1e d7 bd 45 48 84 3e da c3 97 bd 18 54 21 be
       -0.10503807 0.25836387 -0.074104026 -0.15754735
0003d0 46 e2 74 bc ed 15 05 3e a8 23 a0 3d fb 5a 1b 3f
       -0.014946526 0.12996645 0.07819301 0.606857
0003e0 e1 df a0 3c 7e 82 c5 3e 02 c9 ed bd d5 f3 0b be
       0.019638004 0.3857612 -0.11610605 -0.13667233
0003f0 64 0c dd 3e a3 5c 08 c0 95 74 03 3e 55 85 0c 3f
       0.43173516 -2.130654 0.12837441 0.5489095

network.0.bias f4 [256]
000000 23 ad 80 bf dd 2b 8b bf 7b 95 c0 3f 2e 02 b9 bf
       -1.0052837 -1.0872761 1.5045618 -1.445379
000010 4f 1e b8 3f 7c 49 b7 bf b4 1a 97 bf b6 e3 d6 3f
       1.438425 -1.4319301 -1.1805024 1.6788242
000020 6a 4f d5 3f 94 48 f5 3f ae f8 f6 3f 60 c1 78 bf
       1.666486 1.9162774 1.9294641 -0.97170067
000030 69 4f e5 3f c2 26 cd bf 26 2e c5 bf c2 cd d5 3f
       1.7914859 -1.6027453 -1.5404708 1.6703417
000040 93 d6 db 3f 5b 4c 9c bf 2e b3 ce bf a6 73 e2 3f
       1.7174858 -1.2210802 -1.6148431 1.7691543
000050 75 43 da 3f f4 3f 9a 3f 9b fd 27 3f 5f 50 8f bf
       1.7051836 1.2050767 0.65621346 -1.1196402
000060 7d ed b7 3f db cb cb 3f 12 86 32 bd 2e 70 ce 3f
       1.4369351 1.5921587 -0.04358489 1.6127985
000070 02 0c d2 3f 28 ed aa bf fc 7d b3 bf 7b c8 21 bf
       1.6409914 -1.3353624 -1.4022822 -0.63196534
000080 a3 cc e0 3f e6 30 dd 3f 07 ce ad 3f bd f3 c1 3f
       1.756245 1.7280548 1.35785 1.5152508
000090 70 a4 b9 bf c3 a4 c2 bf 09 fb ef 3f f1 cc e9 3f
       -1.4503307 -1.5206531 1.8748485 1.8265668
0000a0 9f 3f c9 bf 3b 57 ad bf 8e 8c e3 3f 99 ac ca bf
       -1.5722541 -1.3542246 1.7777269 -1.5833923
0000b0 6d 3a b7 bf c9 45 b8 3f 74 8c a6 bf 03 27 dd 3f
       -1.4314705 1.4396297 -1.3011613 1.727753
0000c0 bc ef b9 bf bc 9c 09 40 b0 63 d4 3f 50 c5 e2 3f
       -1.4526286 2.1501913 1.6592922 1.7716465
0000d0 51 bd de bf 31 28 d8 3f 36 11 ab bf 9c 1e c6 bf
       -1.7401525 1.6887265 -1.3364627 -1.5478091
0000e0 46 d7 e2 3f 88 1a 88 3e 17 35 ea 3f 5b b8 c5 bf
       1.7721946 0.26582742 1.8297452 -1.5446886
0000f0 76 60 b0 bf 3b af ba bf c0 56 b3 3f 12 35 b9 bf
       -1.3779438 -1.4584726 1.4010849 -1.4469321
000100 49 16 e9 3f 6a a4 d9 3f 30 41 43 bf fa 98 c4 3f
       1.8209926 1.70033 -0.76271343 1.5359185
000110 ff 96 d6 bf 41 65 85 bf 9b 13 ba bf 77 f3 9f bf
       -1.676483 -1.0421525 -1.4537233 -1.2496175
000120 fc d4 e3 3f 70 6f f9 3f 20 3a b6 bf c5 c4 cd 3f
       1.7799373 1.9487133 -1.4236488 1.6075674
000130 4c 8e cb 3f 4a 57 ae bf 84 c1 ef 3f 3f ae 94 3f
       1.59028 -1.3620389 1.8730931 1.1615676
000140 f5 1d a6 3f dd 37 a7 bf 83 14 9e 3f 11 cd fc 3f
       1.2977892 -1.3063923 1.235001 1.9750081
000150 69 e4 e3 3f 51 b4 a6 bf 88 d2 01 40 b5 0c b3 3f
       1.780408 -1.3023778 2.0284748 1.3988253
000160 cf c3 6b bf f4 20 d6 3f 59 4f ca bf 04 c9 cb 3f
       -0.92095655 1.6728806 -1.5805465 1.592072
000170 03 71 d4 3f 83 c8 03 40 31 76 d3 3f 7a ef b6 3f
       1.6596988 2.0591133 1.6520444 1.4291832
000180 18 50 f2 3f ff 22 e2 3f 3b 63 d0 3f 24 fa c5 bf
       1.8930693 1.766693 1.6280283 -1.5466962
000190 0d 32 b2 bf 84 3e a5 bf c0 b3 ad bf 60 1d d0 3f
       -1.3921524 -1.2909703 -1.357048 1.6258965
0001a0 25 cd 68 bf 1f b2 de 3f e1 86 9f bf 3f 20 dd 3f
       -0.90938026 1.7398108 -1.2463037 1.7275466
0001b0 7f 7a 8f bf de 08 8c 3f 36 e3 cb 3f 72 d2 bd bf
       -1.1209258 1.0940206 1.5928714 -1.4829848
0001c0 af 89 cf 3f a2 5d f9 3f d5 a3 e6 3f 42 1c b4 bf
       1.6213893 1.94817 1.8018748 -1.4071124
0001d0 ba fc c8 bf 3f 1b c6 bf 63 4f 06 bf 30 d3 dd 3f
       -1.5702126 -1.5477065 -0.52464885 1.7330074
0001e0 25 24 dc 3f ad 6e db 3f 7b c4 9a bf 0e 60 d7 bf
       1.719853 1.714315 -1.2091211 -1.6826189
0001f0 3c 54 ec 3f 95 94 dc 3f 10 5b b0 bf 23 e7 a0 bf
       1.8463206 1.7232844 -1.377779 -1.2570537
000200 18 5a b4 bf 96 cc b1 bf 3a fd ae bf 62 eb 86 bf
       -1.4089994 -1.389056 -1.3671029 -1.0540583
000210 42 89 ee 3f 41 1f a5 bf 46 20 df 3f 23 ef d5 3f
       1.8635638 -1.2900163 1.7431724 1.6713604
000220 de a4 a1 bf 37 99 db 3f 8b 12 a8 bf e2 23 83 bf
       -1.2628438 1.7156132 -1.3130659 -1.0245326
000230 82 c0 b1 3f 24 56 ab 3f 42 8c b1 bf 64 11 fc 3f
       1.3886874 1.3385663 -1.3870928 1.9692807
000240 99 23 db 3f ae e1 3e be b2 5f db bf b1 94 b9 3f
       1.7120239 -0.18640777 -1.7138579 1.4498502
000250 d7 46 5b bf eb 44 b7 bf e5 2d 33 bf b6 ce 66 bf
       -0.8565497 -1.4317907 -0.69991904 -0.90159166
000260 03 46 ee 3f ff 33 a8 bf 65 18 ea 3f 32 7e 7a bf
       1.8615116 -1.3140868 1.8288695 -0.9784881
000270 30 cf e2 3f 92 cb d7 3f 5b 57 ec 3f 70 8f db 3f
       1.7719479 1.6859 1.8464159 1.7153149
000280 7b a6 f0 3f ea 37 f5 3f 34 bb c1 3f 61 7d 0b 40
       1.8800806 1.9157689 1.5135255 2.1795275
000290 c9 2b b5 3f e2 6c b5 bf 65 fb c3 3f 0b ee ea 3f
       1.4153987 -1.4173853 1.5311095 1.8353895
0002a0 91 9d e5 3f 9b 23 a0 bf 8e 84 70 bf 19 3d 35 40
       1.793871 -1.2510866 -0.9395226 2.831854
0002b0 83 0d 9a bf f7 db 99 3e 63 2b d1 3f 91 61 a0 bf
       -1.2035373 0.30050632 1.6341366 -1.2529775
0002c0 b2 95 8d bf d3 3e ac bf 70 b6 f0 3f c5 ed a8 bf
       -1.1061308 -1.3456672 1.8805676 -1.3197562
0002d0 3e 8d d7 3f 86 6c ad 3f fa 09 c0 bf 36 7a 76 3f
       1.6839979 1.3548744 -1.5003045 0.9628023
0002e0 7a 0e ce bf ad 52 c9 3f 31 c3 df 3f 07 1f ed 3f
       -1.6098168 1.5728356 1.7481443 1.8525094
0002f0 03 a5 ea 3f 85 6f b8 3f 09 f3 ea 3f 05 f6 45 bf
       1.8331608 1.4409033 1.8355418 -0.7732852
000300 45 b7 ef 3f 6f 07 87 bf a5 c0 df 3f b1 38 ae 3f
       1.8727804 -1.0549144 1.7480665 1.3611051
000310 36 70 ae bf fa 99 d9 3f 9b 03 a4 bf 48 6b da 3f
       -1.3627994 1.7000115 -1.28136 1.706399
000320 3e 67 e5 3f db e9 d7 3f 03 6e b4 bf 54 d2 a3 3f
       1.7922132 1.6868242 -1.4096073 1.2798562
000330 e1 55 d3 3f 60 b6 c7 bf b9 8c dc 3f b0 35 c6 bf
       1.6510583 -1.5602531 1.7230445 -1.5485134
000340 40 71 8a 3f 5d dd d1 bf 8b de 12 40 55 b7 05 40
       1.0815811 -1.639568 2.294833 2.0893147
000350 75 9f 5d bd 21 89 bb bf 13 9d ee 3f 1b 72 d2 3f
       -0.05410715 -1.4651223 1.8641685 1.6441072
000360 bf 55 a6 bf 2d b6 ce bd 11 19 e1 3f a2 06 ab 3f
       -1.2994918 -0.10093341 1.7585775 1.3361399
000370 f3 1e db 3f e9 e4 8e bf d9 10 cb 3f 70 4b fc 3f
       1.711882 -1.1163608 1.5864516 1.9710522
000380 0a f9 f0 3f 9f fc b2 bf 0a 32 e6 3f 84 f5 c0 bf
       1.8826001 -1.3983344 1.7984021 -1.5074925
000390 8b a0 d0 bf f4 fa ee 3f 99 84 c3 bf 45 bf da 3f
       -1.6298994 1.8670335 -1.527484 1.7089621
0003a0 6c 78 e3 3f f6 c0 ec 3f 05 4d db 3f dc b5 c6 bf
       1.7771125 1.8496387 1.713288 -1.5524249
0003b0 d9 69 04 40 9a f8 b7 bf 3d df d6 3f df cc dc 3f
       2.0689604 -1.4372742 1.6786877 1.7250022
0003c0 a7 6b c7 3f 36 58 cb bf 87 37 e4 3f d1 d7 ec 3f
       1.5579728 -1.5886295 1.7829446 1.8503362
0003d0 49 bd a1 bf 1d 54 74 bf 77 30 e4 3f 70 0f cc bf
       -1.263589 -0.95440847 1.782729 -1.5942211
0003e0 3d cf 9c bf 2b 46 cb 3f 99 f6 e2 3f 56 33 b5 bf
       -1.2250744 1.5880789 1.7731506 -1.4156291
0003f0 92 6d d2 3f 20 52 c5 bf b3 d9 e6 3f 06 79 d9 3f
       1.6439688 -1.5415688 1.8035187 1.6990058

network.2.weight f4 [256, 256]
000000 a8 f8 98 3d 2b 17 21 3e 2a 4c b9 bd 8b 6b 46 3e
       0.074693024 0.15731494 -0.0904773 0.19376962
000010 07 df 8f bd bd cf 0c be 6c fd 2a 3d 72 78 5f 3b
       -0.07024961 -0.13751121 0.04174559 0.003409889
000020 af b5 a6 bc 69 bc c3 bd 66 d4 1a be 15 cd 5f 3b
       -0.020350305 -0.09557421 -0.15120086 0.0034149338
000030 26 7d 64 be 1c 82 fd 3d 64 1a 3d 3e fb 09 4f 3d
       -0.22313365 0.12378332 0.18467098 0.050546627
000040 15 67 6f bd f9 1e a9 bd 4c df 9d bd 8f 10 7c 3d
       -0.058447916 -0.08257861 -0.07708606 0.06153923
000050 c1 e6 a6 3d 21 ba e1 3d 03 b7 15 3e 39 bb 1f 3e
       0.081494816 0.110218294 0.14620595 0.15598764
000060 77 1f 07 3e 7e 9f 1f bd 5e 2a db bd f4 13 0d be
       0.13195597 -0.038970463 -0.1070144 -0.13777143
000070 31 ab 35 3e f5 93 62 3e aa 5a 53 3e 93 ce 03 3e
       0.17741086 0.22126754 0.20640054 0.1287177
000080 51 02 8f 3d d9 c7 21 bd c9 88 60 3d 1f 1d 14 3e
       0.06982864 -0.03949723 0.05481795 0.14464234
000090 22 b1 3b 3d c6 b1 c2 3e d7 50 e9 bc ab bf 44 be
       0.045823224 0.38026255 -0.02848093 -0.1921374
0000a0 de 31 49 3e 39 ce 14 bd 5a a6 a0 bd 7d 1f 2f 3e
       0.19647929 -0.03632948 -0.07844229 0.17101856
0000b0 8c 7e 27 3e b9 e2 fe 3b 67 67 95 be ef e7 3c 3e
       0.16356868 0.0077784923 -0.29180452 0.1844785
0000c0 91 1c 62 3e 8b ee ea be 15 f2 af bd d4 8b 26 be
       0.2208121 -0.4588512 -0.08591095 -0.16264278
0000d0 99 a8 25 3d b3 70 82 bd 1a 22 84 3d be fe de bd
       0.04044399 -0.06369152 0.06451817 -0.10888432
0000e0 da d1 44 bd 93 65 12 be 80 43 7f bd 41 b6 2f 3e
       -0.048051693 -0.1429656 -0.062320232 0.17159368
0000f0 8f d9 93 bd b2 ec ac 3e 86 13 74 bd 14 9f 52 3e
       -0.072192304 0.33774334 -0.05958893 0.20568496
000100 c0 47 82 3c fb 4f 8e 3d e2 7a 64 3d 83 65 86 3d
       0.015903354 0.06948849 0.055781253 0.065623306
000110 b4 2f d7 bc 68 50 50 3c 39 86 b5 3b 06 07 98 3d
       -0.026267864 0.012714483 0.005539682 0.074232146
000120 b7 81 17 be 56 95 2d be bb f1 5e 3e e5 c9 24 3e
       -0.14795576 -0.16951498 0.217719 0.16092642
000130 da 95 74 be b7 45 14 3e 57 3a bb 3d ca b4 12 be
       -0.23885289 0.14479719 0.09141987 -0.14326778
000140 3a b9 89 bd f2 83 c3 3d 2a 56 96 be 78 34 1d bd
       -0.06724782 0.09546651 -0.29362613 -0.038380116
000150 96 c2 76 3d 20 3a 80 3d cc fa b1 bd dc 8a 96 bd
       0.060244165 0.062610865 -0.08690414 -0.07350704
000160 0b b7 12 3d e5 20 25 be da f6 9b 3e 95 8b 6b bd
       0.035819095 -0.1612583 0.3046177 -0.057506163
000170 7f ea 1f 3d 29 d2 c7 3b a2 1b 22 be 8a d2 e0 bc
       0.039041992 0.006098051 -0.15830854 -0.027444143
000180 8a c0 62 be d9 b0 e5 3d 74 88 7e 3d 97 51 d5 bd
       -0.2214376 0.11215372 0.06214185 -0.10415953
000190 25 ba 79 3e 32 da cc bd 53 68 0c bd 8f 99 44 bd
       0.24387415 -0.10002555 -0.03427918 -0.047998007
0001a0 cf d5 4a be 04 03 3a be a1 36 ee bc 4e 3e 1a 3d
       -0.19808124 -0.18165213 -0.029078783 0.037657075
0001b0 41 5a 09 bd f2 ad c4 3d 45 0a 93 3d 6c 7a 5d bc
       -0.03353334 0.0960349 0.07179693 -0.013517957
0001c0 37 ce b3 bd c2 91 14 3e 51 a3 3e 3b 94 87 97 3d
       -0.08779567 0.14508727 0.0029089043 0.07398906
0001d0 43 17 4b 3d 48 d2 9b 3e 19 5e e9 bc fe 41 30 bd
       0.04958273 0.3043387 -0.028487252 -0.043031685
0001e0 5f 35 16 be f9 93 0f be d2 62 80 3e 9a 1b 49 3e
       -0.14668797 -0.14021291 0.25075394 0.19639435
0001f0 dc 22 f6 bb fe df 58 be 2d 72 92 bd 35 69 62 3e
       -0.00751148 -0.21179196 -0.071506836 0.22110446
000200 3a aa 43 3e 7e 14 aa 3e 26 e6 a3 bd 51 66 0b be
       0.19107905 0.3321876 -0.08002882 -0.1361325
000210 47 fa 3e be 68 f5 00 3f 83 c6 d6 3d 10 17 0b bd
       -0.1865016 0.5037446 0.10487082 -0.03395754
000220 67 03 94 3d b0 0a a8 bd 22 85 b8 bd 44 65 41 3a
       0.072272114 -0.082051635 -0.09009768 0.00073774555
000230 32 d8 be bc 06 78 78 3e 30 38 be bc f0 d5 05 3e
       -0.02329645 0.24264535 -0.023220152 0.13069892
000240 9e 92 d3 3d ce 37 c5 3b 49 27 30 3e 0f fb 8b be
       0.103306994 0.0060186153 0.17202486 -0.2733998
000250 9f fa a2 3d 9f 06 85 3a 84 2c 1c be 2f 56 59 bd
       0.079579584 0.0010149068 -0.15251356 -0.053060707
000260 76 10 0f be 1c c8 3e 3c 0a 79 ac 3a 83 50 49 3e
       -0.13971123 0.0116443895 0.0013158631 0.19659619
000270 78 59 e4 bd 30 ab 8c 3d 79 1d de bd db d3 64 3e
       -0.11149877 0.06868589 -0.10845465 0.22346441
000280 fb 04 dc bc 5b 0f c2 3d ca c7 74 3d f3 44 61 be
       -0.026857844 0.09475585 0.059760846 -0.21998958
000290 8d 46 96 bc c6 ef da 3d f6 b4 1c 3e 08 cd 63 3e
       -0.018344188 0.106902644 0.15303406 0.22246182
0002a0 30 ba 40 3d f8 16 7f bd 24 70 87 3e 25 b8 c8 be
       0.047052562 -0.062277764 0.26452744 -0.3920299
0002b0 21 06 06 be 71 f6 f0 bb c1 e6 ba bc 99 e6 7f bd
       -0.13088275 -0.007353597 -0.02281511 -0.062475774
0002c0 a0 d4 5e 3e a8 88 e1 3d 37 c2 c9 3c 44 e8 50 3d
       0.21760798 0.11012393 0.024628742 0.051002756
0002d0 4a 48 d7 bd 4e d9 a6 be be 2e 9a 3e b2 bc 26 be
       -0.10511835 -0.32587665 0.30113786 -0.16282919
0002e0 42 f1 cf 3d 0b 2b 9f bd 91 e4 c0 bd 51 ce c0 3d
       0.10153438 -0.07771882 -0.094185956 0.09414352
0002f0 c9 c3 0e be bd 1a 98 3d 7e 01 07 3e 11 11 53 be
       -0.13941874 0.07426975 0.13184163 -0.20611979
000300 dd 2e bf bd c5 2e 99 3d ef 1c 91 bb 74 9c 7f bc
       -0.0933511 0.07479624 -0.004428498 -0.015601266
000310 24 20 10 3e ea 0a 22 bd b0 c9 29 3d b3 e0 b6 3d
       0.1407476 -0.03956119 0.04145211 0.08929577
000320 86 4a 1b 3e 24 72 de bd 64 db 65 be de de 85 be
       0.15165147 -0.10861614 -0.22446972 -0.26146597
000330 86 b2 20 3e 3c 3a 97 3d 76 69 f1 3d d6 8f bb bd
       0.15693101 0.07384154 0.11787693 -0.09158294
000340 67 73 a9 3d ac 3b c0 3d 9d 3c 80 be 6e 06 64 be
       0.082739644 0.093863815 -0.25046244 -0.22268078
000350 5c 88 e2 bd 69 57 a9 3d 91 0e 72 bd f3 6a 9c bc
       -0.11061165 0.08268625 -0.059095923 -0.019093966
000360 e4 7e 59 3d e0 a7 c1 3d be 5b fb 3d 1c f6 ce bd
       0.053099528 0.09455848 0.12273358 -0.101055354
000370 47 55 23 bd 2d f5 62 bd 5f 48 fa 3d d1 c2 d1 3d
       -0.03987625 -0.0554096 0.12220835 0.102422364
000380 34 02 2f be 28 cc 17 be e7 3a 9a be 0e c9 46 3e
       -0.17090684 -0.14823973 -0.30123064 0.19412634
000390 a8 30 9c bb f4 c0 60 be d6 d6 11 3e ea 17 55 3d
       -0.0047665425 -0.21948606 0.1424211 0.05202476
0003a0 f6 5f 22 3d d7 a6 22 bd 9c ab 40 be 40 23 49 3e
       0.039642297 -0.039709892 -0.18815464 0.19642353
0003b0 3e b4 10 be d0 77 06 3e 9d 74 42 ba e1 3f 36 3e
       -0.14131257 0.13131642 -0.00074178894 0.17797805
0003c0 53 6b 65 3e 04 fe 23 be 9a 69 86 3a af a6 09 3d
       0.22404222 -0.16014868 0.001025486 0.033606227
0003d0 43 5a de ba f1 e8 1f be 85 fa dc 3d bf 24 18 3e
       -0.0016964156 -0.15616204 0.1078997 0.14857768
0003e0 11 ba 95 3d c1 73 6d be b7 a6 9c bd 07 93 c9 3d
       0.0731088 -0.23188688 -0.07648986 0.09842496
0003f0 b9 91 12 be 2c 56 28 3e 74 d9 1b be aa 63 92 bc
       -0.14313401 0.16439122 -0.1521967 -0.01786979

network.2.bias f4 [256]
000000 d0 9e df bf 74 ad ad bf ce 0f f4 3f 79 19 f3 3f
       -1.7470341 -1.3568559 1.9067323 1.8992149
000010 1d c6 e7 3f f8 c6 f6 3f b1 6b f5 3f 96 7b b6 bf
       1.8107334 1.927947 1.917349 -1.4256465
000020 00 7d df 3f 36 01 e7 bf 43 c2 d2 bf 03 86 94 bf
       1.7460022 -1.8047245 -1.6465534 -1.1603397
000030 31 fe af 3f 4c db d0 bf de 20 cc bf 6a 11 aa bf
       1.3749448 -1.6316924 -1.594753 -1.3286564
000040 8b f8 f3 3f f3 a5 52 bf 7f 4e f0 3f 2d 7c f1 3f
       1.9060224 -0.8228447 1.8773955 1.886602
000050 d1 02 f2 3f 2a 8e c7 bf 8e 9a f1 3f 7d 80 f5 3f
       1.890711 -1.559026 1.8875291 1.9179837
000060 24 76 dd 3f dd ef f5 3f a8 b6 f3 3f 60 0d f1 3f
       1.7301679 1.9213825 1.9040117 1.8832207
000070 6b ae c7 bf 1f 78 f3 3f 9a 94 c2 bf 10 f6 e8 3f
       -1.5600103 1.9021033 -1.52016 1.8200092
000080 25 51 c7 3f 29 eb f1 3f b7 fd fa 3f 90 c4 c6 bf
       1.5571638 1.889989 1.9608678 -1.5528736
000090 3b a7 1d 3f 1b e0 a2 bf 5e 19 a1 bf 0e 2e f2 3f
       0.615833 -1.2724642 -1.2585866 1.8920305
0000a0 f7 25 4d bf f1 dd cd bf 4b 62 f0 3f 49 3c f6 3f
       -0.80136055 -1.6083356 1.8779997 1.9237148
0000b0 c5 33 be bf f5 10 bc bf 66 1f f8 3f b2 a4 f6 3f
       -1.4859549 -1.4692675 1.9384582 1.9269011
0000c0 17 6c 0b 40 b0 72 f2 3f 99 be f9 3f 92 17 c2 bf
       2.1784723 1.894125 1.9511291 -1.5163443
0000d0 4b 11 d2 3f 46 3a a6 bf 30 01 f3 3f 62 89 a7 bf
       1.6411527 -1.2986534 1.8984737 -1.3088801
0000e0 fd 37 b0 3f fd 68 c3 bf f1 8d c4 3f 75 0d ee 3f
       1.3767086 -1.5266415 1.5355817 1.8597857
0000f0 94 34 96 bf 3c bc b5 bf 02 46 db bf 4f 7a f0 3f
       -1.1734796 -1.419807 -1.713074 1.8787326
000100 d1 19 ec 3f fd b0 bf bf b7 26 d1 bf f5 c7 f6 3f
       1.8445379 -1.4975888 -1.633994 1.9279772
000110 33 a6 f9 3f ef 74 f4 3f 80 fb c5 3f 69 16 cf bf
       1.9503845 1.9098185 1.5467377 -1.6178714
000120 42 2b a2 bf e6 a8 f0 3f c0 b6 d3 bf 06 9d cd bf
       -1.2669451 1.8801544 -1.6540146 -1.6063545
000130 b0 d0 b7 bf e9 50 b1 bf bb 8e ec 3f 93 ae bc bf
       -1.4360561 -1.3852817 1.8481058 -1.4740776
000140 11 cf c1 bf 17 36 f3 3f 14 fd e7 3f 03 8d b6 3f
       -1.5141317 1.9000882 1.8124108 1.4261783
000150 20 3b b0 bf da 56 c4 bf 40 c4 c9 bf 69 9e ef 3f
       -1.3768044 -1.5339005 -1.5763016 1.8720218
000160 b7 52 cc 3f 83 e0 a3 bf c4 4b f1 3f cf af ef 3f
       1.5962743 -1.280289 1.8851247 1.8725528
000170 73 fb 06 40 3e d6 f5 3f e1 10 f8 3f bd a6 b1 bf
       2.1090972 1.9206007 1.9380151 -1.387901
000180 a7 fc b9 bf ae ea f6 3f c8 98 fa 3f 9f 56 67 bf
       -1.4530228 1.9290369 1.9577875 -0.9036655
000190 86 59 8e bf 94 b4 f0 3f 0b 0b f3 3f 21 4a a1 bf
       -1.112107 1.8805108 1.8987745 -1.2600747
0001a0 53 c9 88 bf 71 b4 e8 3f d9 2d f9 3f 7a 71 c7 bf
       -1.0686439 1.8180066 1.9467117 -1.5581505
0001b0 41 16 f1 3f 6f c7 f0 3f 69 02 d7 bf 9c 8b b3 bf
       1.8834916 1.8810862 -1.679761 -1.402698
0001c0 e8 65 c5 bf f8 87 ee 3f d0 5b a6 bf a8 60 f2 3f
       -1.5421724 1.8635244 -1.2996769 1.8935747
0001d0 7d 8d 99 bf bb d1 a3 bf 1e 7b a9 bf 74 eb f1 3f
       -1.1996304 -1.279838 -1.3240697 1.889998
0001e0 bb 84 eb 3f 36 d3 df 3f 64 e7 f2 3f 2d 17 f2 3f
       1.8399881 1.7486331 1.8976865 1.8913323
0001f0 d0 53 bd bf d7 b8 ef 3f a8 95 c4 bf 34 85 ef 3f
       -1.4791203 1.8728284 -1.5358171 1.8712525
000200 8a b7 bc bf 93 b6 c8 bf 6c 53 ca 3f 43 bf ef 3f
       -1.4743512 -1.5680717 1.5806708 1.8730243
000210 7d 81 f6 3f 0c c2 a7 bf 80 c0 b9 bf 51 b3 f0 3f
       1.9258267 -1.3106093 -1.4511871 1.8804723
000220 c5 32 8f bf 34 16 d4 bf 1b ef f3 3f b3 43 f1 3f
       -1.1187369 -1.6569276 1.9057344 1.8848785
000230 4f 85 fd 3f 12 2e f1 3f f2 a3 b6 bf ee b6 f3 3f
       1.9806308 1.8842185 -1.4268782 1.9040201
000240 6d 5e f1 3f b1 ac f5 3f 5c 3d f4 3f 66 2a f2 3f
       1.8856941 1.9193326 1.9081225 1.8919189
000250 43 9d d5 3f f4 90 f3 3f 69 22 a2 bf d0 93 bc bf
       1.6688617 1.9028611 -1.2666751 -1.4732609
000260 d6 dc bd bf 1c 81 71 bf b8 e0 d1 bf e0 1f 01 40
       -1.4833019 -0.9433763 -1.6396704 2.0175705
000270 e5 96 f3 3f 46 a5 f2 3f 2d bb f1 3f 0b 9a e4 bf
       1.9030424 1.8956687 1.8885247 -1.785951
000280 fa 85 bb bf 28 79 f2 3f 74 a2 d2 bf c3 14 d6 bf
       -1.4650261 1.8943224 -1.6455827 -1.6725086
000290 53 19 9c bf 8f 2f f8 3f 0d 8a f0 3f 8b 28 b5 bf
       -1.2195228 1.9389514 1.879213 -1.4152998
0002a0 24 bc dd bf 38 1f e4 3f c6 7e ef 3f fe b5 f0 3f
       -1.7323041 1.7822027 1.8710563 1.880554
0002b0 5c 6b da 3f 75 6f d4 bf 39 1a fa 3f 9f 68 96 be
       1.7064013 -1.6596514 1.9539253 -0.29376695
0002c0 16 59 9b bf dc c5 f2 3f d3 2b b2 bf e5 de d5 bf
       -1.2136562 1.8966632 -1.3919624 -1.6708647
0002d0 1b 9b d3 bf 4f 59 b6 bf f5 ce f2 3f d9 87 f3 3f
       -1.653171 -1.4246005 1.8969408 1.9025832
0002e0 d0 b5 01 40 54 e4 ba bf 7e 51 fe 3f fe 5f e8 3f
       2.026722 -1.460093 1.986862 1.8154294
0002f0 a4 c5 ac 3f 8a ca 06 40 42 4d f2 3f 12 83 f2 3f
       1.3497815 2.106112 1.8929827 1.894625
000300 ac b0 f1 3f 47 f8 f0 3f 53 f7 c6 bf 41 10 27 bf
       1.8882041 1.8825768 -1.5544227 -0.65259176
000310 1a a2 c2 bf e0 eb dd 3f 21 cd f0 3f ca a2 97 bf
       -1.520572 1.7337608 1.88126 -1.1846554
000320 33 1b aa bf b5 9b bf bf e2 43 af bf 4e c5 07 40
       -1.328955 -1.4969393 -1.3692591 2.1214175
000330 49 60 a1 bf 57 ed f3 3f 99 94 e2 3f 71 e4 c7 bf
       -1.2607509 1.9056805 1.7701598 -1.561659
000340 c5 4a e8 3f 46 d0 8f bf 73 ea e2 3f 31 18 b0 bf
       1.8147818 -1.1235435 1.7727798 -1.3757383
000350 c3 78 f2 3f 5c 4e f2 3f 9f f5 e6 3f 92 e6 b7 bf
       1.8943104 1.8930163 1.8043708 -1.436724
000360 36 fa fc 3f cf 75 cd bf 75 ab ca bf 6c 04 f7 3f
       1.9763858 -1.6051577 -1.5833575 1.9298224
000370 b6 93 d5 3f 77 35 9e bf 23 5a ae bf 7f 2f 98 bf
       1.6685703 -1.2360066 -1.3621258 -1.1889495
000380 e9 9b f1 3f a8 0c 1f 40 9e c4 f4 3f e7 72 81 bf
       1.8875705 2.4851475 1.9122503 -1.011319
000390 c3 50 b4 3f e5 1f e0 bf c4 30 96 bf 34 d4 f7 3f
       1.4087147 -1.7509733 -1.1733632 1.9361634
0003a0 eb cb d2 3f f6 ae f2 3f 9a 28 f2 3f 7f 17 b6 bf
       1.6468481 1.8959644 1.8918641 -1.422592
0003b0 ea 23 ef 3f 05 5c b1 bf 8d 27 f3 3f f8 87 b9 bf
       1.8682835 -1.3856207 1.8996445 -1.4494619
0003c0 13 92 a9 bf 10 b7 f3 3f c6 6e 9d bf d3 f1 eb 3f
       -1.3247703 1.9040241 -1.229943 1.8433174
0003d0 d8 41 a3 bf 8e d3 d1 bf 3a 06 ed 3f 39 bd 80 bf
       -1.2754469 -1.6392686 1.8517525 -1.0057746
0003e0 1c 31 93 bf c3 2d f3 3f 6b a4 f7 3f 79 5e a1 bf
       -1.1499362 1.899834 1.9347051 -1.2606956
0003f0 67 39 c7 bf 31 a5 df 3f 0d 97 d3 3f 03 09 f2 3f
       -1.5564393 1.7472287 1.6530472 1.8909

network.4.weight f4 [1, 256]
000000 84 f0 af be 72 5d 88 be 58 73 76 3e ff 6d 73 3e
       -0.34363186 -0.26633793 0.24067438 0.23772429
000010 7e 63 88 3e 49 76 3b 3e 2f a6 ff 3d 67 7a 3e be
       0.26638407 0.18306841 0.12482869 -0.1860138
000020 50 55 a6 3f 7a 48 46 bf 9b 57 63 be ee ee 03 bf
       1.2994785 -0.7745434 -0.22201388 -0.5153645
000030 64 a9 d5 3e 27 4b 7e be 05 4c a0 be fc a9 e1 be
       0.41730797 -0.24833356 -0.31307998 -0.44075
000040 14 fb 8a 3e 38 4e f0 be f2 e9 74 3e 4c 4d 53 3e
       0.27144682 -0.46934676 0.23917368 0.20634955
000050 86 59 60 3e 3a f1 08 bf dc db a0 3e f6 96 01 3f
       0.2190915 -0.5349308 0.3141774 0.50620973
000060 98 44 79 3e 76 f7 5d 3e 84 9e 2f 3e 12 60 45 3e
       0.24342573 0.2167643 0.17150313 0.19274929
000070 37 e1 29 bf a7 6b 22 3e 4f cc aa be 8b 9f 4c 3e
       -0.66359276 0.15861379 -0.33359 0.19982736
000080 5a 8e 7a 3f af 23 21 3e 1d 2b 8d 3e 52 4e 7f be
       0.9787346 0.15736268 0.27571955 -0.2493222
000090 00 e5 cb 3f a1 df 64 bf b7 f4 e7 be 44 8d 73 3e
       1.592926 -0.8940373 -0.4530389 0.23784357
0000a0 fc 4c 30 bf 07 85 2f be 45 fb ad 3d 2c bf 6d 3e
       -0.6886747 -0.1714059 0.084951915 0.23217458
0000b0 04 aa aa be 16 20 51 be e0 07 36 3e 09 8c ea 3d
       -0.33332837 -0.20422396 0.17776442 0.11452491
0000c0 12 e4 5a 3f 00 7f e9 3e 29 7b 67 3f 7d fb ef be
       0.8550426 0.45604706 0.904223 -0.46871558
0000d0 b1 92 9b 3f 37 4d 9e be f6 6b 2b 3e 2b da f0 be
       1.2154142 -0.30918285 0.16740403 -0.4704145
0000e0 5d c6 cc 3e e6 fc 5b be ce c6 e7 3e a6 ee 98 3e
       0.3999509 -0.21483192 0.45268863 0.29869574
0000f0 6d 8e 7a bf a6 67 bc be 03 bb 3a be 88 fb c6 3d
       -0.97873574 -0.36797827 -0.18235402 0.097159445
000100 fc e8 1f 3e 47 a9 1b bf a7 af 43 be 75 bf 11 3e
       0.1561622 -0.6080517 -0.19109975 0.14233191
000110 49 2d 39 3e 2b 13 4b 3e 88 5f 91 3e de d4 6a be
       0.18083681 0.19831531 0.28393197 -0.22932765
000120 16 ef a9 be ea 47 6d 3e 1e 72 a6 be ed 61 60 be
       -0.3319022 0.23171964 -0.3250894 -0.21912356
000130 52 e2 9d be d6 08 99 be a9 4c 82 3e 90 ba 7f be
       -0.3083673 -0.29889554 0.25449112 -0.24973512
000140 72 0d 83 be 5b 85 6d 3e 9c e6 b8 3e ea d9 dc 3e
       -0.25596195 0.23195402 0.3611344 0.43135005
000150 06 e5 03 bf 08 22 48 be 68 a9 87 be 19 6c 7d 3e
       -0.5152134 -0.19544232 -0.26496434 0.24748267
000160 46 73 a3 3f 99 ef 0b bf 3c f0 2f 3e c5 03 91 3e
       1.2769554 -0.5466247 0.17181486 0.28323188
000170 8c 31 a9 3f e1 aa ba 3e d5 f7 04 3e 74 f1 c5 be
       1.3218246 0.36458495 0.12985165 -0.38660777
000180 97 71 c6 be 6f 35 7d 3e 01 3a 0a 3e 93 5f 82 bf
       -0.38758537 0.24727415 0.13498689 -1.0185417
000190 78 85 1a bf 7c e7 59 3e 3c e0 97 3e dc 60 ba bf
       -0.6035991 0.2127971 0.29663265 -1.4560809
0001a0 cf 59 98 bf f9 3d 92 3e 4a a2 53 3e 5c 97 fc be
       -1.1902407 0.28562906 0.20667377 -0.49334228
0001b0 4e 20 48 3e 78 48 8e 3e 7d c7 25 be 3e fa f1 be
       0.19543573 0.27789664 -0.1618938 -0.47261232
0001c0 77 d0 1d bf 79 95 4c 3e 8a a5 2f bf 14 2a 6a 3e
       -0.6164622 0.19978894 -0.6861197 0.22867614
0001d0 c7 f7 5b bf aa fd a5 be ff 6e a3 bf bd 13 8a 3e
       -0.85924953 -0.32420093 -1.2768248 0.26968184
0001e0 d5 d5 55 3e f8 62 9e 3e 69 ce 82 3e d7 e7 39 3e
       0.20882352 0.30934882 0.25548103 0.18154846
0001f0 fc fb a1 be 63 f1 87 3e f8 ad 6a be 92 52 b0 3f
       -0.3163756 0.2655135 -0.22917926 1.3775198
000200 d8 4f 41 bf 16 18 8c be 39 01 a4 3f a6 1e fd 3e
       -0.75512457 -0.27362126 1.2812873 0.49437445
000210 ee de dc 3e ab d8 20 bf ac 65 a2 be 07 2f 47 3e
       0.43138832 -0.6283061 -0.31718194 0.19451533
000220 51 af 0f bf e5 ed 16 bf aa c6 0c 3e ce e2 92 3e
       -0.56126887 -0.5895675 0.1374766 0.28688663
000230 3e cb 1a 3e 90 dd 36 3e 2c 41 60 be 8d f0 21 3e
       0.15116593 0.17857957 -0.21899861 0.15814419
000240 bc 9c 7e 3e 13 e8 75 3e e2 25 48 3e fe c9 3f 3e
       0.24864477 0.2401431 0.19545701 0.18729398
000250 96 1a 84 3f 1e f4 83 3e 43 d4 4b bf 03 41 64 be
       1.0320613 0.25772184 -0.7962076 -0.22290425
000260 2b c0 f4 be c2 b9 30 bf 42 72 12 be ff 93 89 3e
       -0.47802863 -0.69033444 -0.14301398 0.26870725
000270 13 23 97 3e 03 d9 40 3e c0 0f 78 3e 00 2c 7c be
       0.29518947 0.18832783 0.24224758 -0.2462616
000280 08 21 a6 be 4f e9 0b 3e 47 f0 a9 be cd 58 78 be
       -0.32447076 0.13663219 -0.3319113 -0.24252625
000290 ac 45 88 be a7 46 7c 3e 3c 24 8e 3e af eb 24 bf
       -0.26615655 0.24636327 0.2776202 -0.64422125
0002a0 02 fe 4c be 2a 2d 39 3f 2f 63 4c 3e 9b 79 3f 3e
       -0.20018771 0.7233454 0.1995971 0.18698733
0002b0 57 b2 f4 3e ec 8d 88 be 54 bd 64 3e 96 f5 a7 bf
       0.47792313 -0.26670778 0.22337848 -1.3121822
0002c0 35 91 0d bf 85 75 77 3e c9 22 a1 be 14 63 07 bf
       -0.55299693 0.24165924 -0.3147185 -0.52885556
0002d0 95 70 3c be c6 e6 e3 be 2c 65 55 3e 9e ce 07 3e
       -0.18402322 -0.44512004 0.20839375 0.13262412
0002e0 e2 09 7f 3e db 9e ec be de b3 a0 3e be 29 90 3e
       0.24906114 -0.46214947 0.31387228 0.28156847
0002f0 b7 99 f3 3e 94 2c 62 3f f5 9c 6c 3e f9 7f 2d 3e
       0.47578213 0.8834927 0.2310675 0.16943349
000300 b8 d2 1a 3e 15 a2 80 3e 08 85 a5 be c1 37 05 c0
       0.15119445 0.2512366 -0.32328057 -2.081528
000310 36 c8 ee be a0 fd 69 3f db 52 5d 3e ab 56 b1 be
       -0.46637124 0.91402626 0.21613638 -0.34636435
000320 5a b4 2f bf 2c 2a 24 bf dd ee 6a be 66 6e 3b 3f
       -0.6863457 -0.6412685 -0.22942682 0.7321533
000330 7c e1 e0 be a1 d3 45 3e e7 78 a8 3e 2a bd b1 be
       -0.4392203 0.19319011 0.3290474 -0.34714633
000340 c5 23 6a 3e b9 f2 af be e4 97 56 3e 8b 01 c8 be
       0.22865207 -0.3436487 0.20956379 -0.39063677
000350 71 ba 8d 3e bb db 36 3e c3 f1 0e 3f bb f6 93 be
       0.27681306 0.17857258 0.5583765 -0.28899178
000360 30 56 0c 3e a9 93 a5 be 1e de 1b bf 65 47 17 3e
       0.13704753 -0.32339218 -0.608858 0.14773329
000370 ac c8 fd 3e 10 94 43 be c4 ef a0 be 1b 75 74 bf
       0.49567163 -0.1909945 -0.31432927 -0.9549119
000380 97 e2 7f 3e bb ee a8 3f 3c b5 2d 3e 71 29 5b bf
       0.24988781 1.3197855 0.16963667 -0.8561011
000390 e9 d0 0e 3f 30 01 00 bf d6 56 96 bf 57 32 2f 3e
       0.5578752 -0.5000181 -1.174525 0.17109047
0003a0 d4 f7 be 3e 45 80 38 3e 3c a1 81 3e dd 02 49 be
       0.37298453 0.18017681 0.25318325 -0.19629999
0003b0 b2 b5 6e 3e ff ed a6 bf 04 44 eb 3d 46 aa 40 be
       0.23311499 -1.3041381 0.11487582 -0.18814954
0003c0 ea e0 52 bf 20 6a d8 3e 22 fd 34 bf 17 55 18 3e
       -0.8237444 0.42268467 -0.7069875 0.14876209
0003d0 49 d2 b4 be bb a5 43 be a6 f0 89 3e 89 35 ae be
       -0.35316685 -0.1910619 0.26941413 -0.3402522
0003e0 1a 78 73 bf 5a 9a 8d 3e f0 6b 8f 3e 1d 2c 2b bf
       -0.95105135 0.27656823 0.28012037 -0.66864187
0003f0 5c 0c aa be 51 d7 fe 3e 8a 61 c2 3e 3e 30 41 3e
       -0.33212554 0.49773648 0.3796504 0.18866059
