models/critic_500000.pt (torch, 291588 bytes, 5 tensors)

network.0.weight f4 [256, 23]
-0.23743609 -1.3832151 0.9281284 1.3211724 0.34821725 -1.0574431 -0.5382616 -0.1558092
0.14911787 0.4946649 -0.34503677 0.30794176 -0.054227993 -0.347415 -0.16306868 -0.06498674
0.13936022 -1.0074176 1.5718906 -0.711949 -0.7168462 0.122465745 -0.24796942 4.4638224
1.3830045 0.00023402538 0.5175467 -0.78771114 -0.31540173 0.3918875 1.2407042 -0.28231657
0.6374771 1.0758595 -0.26497346 0.23564145 0.09420842 0.34223554 0.056470882 -0.2456155
0.8954818 0.12098617 -1.1187438 0.56686735 -0.02301678 0.84458387 -4.2685003 -0.2962736
-0.20908938 0.3648247 0.14962275 0.10100005 -0.50476384 0.14193697 0.27248845 -0.73842293
0.21108691 -0.2791286 -0.24006015 -0.31309828 -0.30719045 -0.26569113 -0.19171561 -0.5613344
0.55493057 -0.60419065 -0.6181464 -0.264649 0.8471225 0.91297174 -0.5095488 0.067693844
0.003531133 -0.568781 -0.11255489 -0.36487988 -0.25833353 -0.12322371 -1.0813079 -0.39367715
-0.14646086 -0.2968819 0.2645783 -0.16818558 0.056023326 0.03729226 0.1366894 -0.22937433
0.3775967 -0.41342065 -0.26664492 0.35721865 -2.4285653 0.6278616 0.28395835 -0.07178155
-0.4468413 -0.31267798 0.06270533 0.36895144 -0.23063785 -0.3226116 0.5536561 0.15676875
-0.011220518 0.39667565 -0.0041244016 -0.20178315 -0.20513801 0.8812908 0.59355 0.25358877
0.14762668 -0.5682455 -0.85040367 -0.2122768 2.4977257 -0.34523946 -0.5647385 0.6567048
-0.45945016 -0.1006257 0.32849485 -0.20480962 -0.7307124 -0.38786757 0.11222803 -0.35885143
0.18910024 0.00068354164 0.36537477 -0.28129718 0.0781765 -0.92372245 0.22159718 -0.43413258
-0.6176582 -0.84338886 0.5097107 -3.092646 1.2720371 0.42655635 -0.14587541 0.76618993
0.38854238 0.15128231 0.13753423 -0.2934089 -0.65696484 -0.08948049 -0.16926318 0.06410828
-0.24147017 0.008888668 0.051528506 -0.47876623 0.641405 0.42176056 -1.4371868 -0.07290445
-0.57737744 2.2559383 0.18422578 -0.06614038 -0.5094485 0.4379229 0.7634965 -0.4049409
-0.22914515 0.06804184 0.6917548 -0.2912906 0.04942367 -0.34004247 0.37612653 0.13771653
0.37135047 0.31802902 -0.11811098 -0.19256341 -0.94837487 0.007350104 0.3083774 0.102566846
-0.6384724 1.0193243 -0.6722375 0.6231229 -0.3296779 -0.39174554 0.53765637 0.0138077
0.16172022 -1.0824246 0.19387177 0.013053669 -0.00012769281 0.26540956 0.16355938 0.23731868
-0.29728743 0.78523207 -0.21098185 0.68681926 -0.64311016 0.03822983 0.23781875 1.2295406
-0.28146955 -0.73511153 -0.75389194 -0.33842844 -0.46158934 0.31706756 0.088613525 0.057271853
0.09283131 -0.32856092 -0.46613747 -0.27976656 -0.2227248 0.431562 0.007805797 -0.24723965
0.48948172 0.6007975 -0.104693174 0.27760482 -0.010495959 -0.24389915 0.27565742 -0.61176205
-0.06544374 0.26712468 -0.33492613 0.1076934 0.5186912 -0.4856204 0.15264513 -0.14637026
-0.10653567 0.25200287 -0.06620719 -0.14662857 -0.015677342 0.12469133 0.07705866 0.6087729
0.016575247 0.35823306 -0.10734208 -0.12541622 0.46001068 -2.3650174 0.14163055 0.6544966
00000000: 7222 73be 310d b1bf d399 6d3f 2d1c a93f
00000010: 8849 b23e 4c5a 87bf 83cb 09bf 728c 1fbe
00000020: 5bb2 183e b844 fd3e a9a8 b0be 8baa 9d3e
00000030: 2c1e 5ebd 61e0 b1be 7afb 26be c517 85bd
00000040: 72b4 0e3e 0ff3 80bf b633 c93f 4a42 36bf
00000050: 3c83 37bf 52cf fa3d b2eb 7dbe a2d7 8e40
00000060: 4b06 b13f b664 7539 f17d 043f 70a7 49bf
00000070: 567c a1be 7aa5 c83e 65cf 9e3f cc8b 90be
00000080: b331 233f c4b5 893f 9aaa 87be fe4b 713e
00000090: 58f0 c03d 7f39 af3e 034e 673d a182 7bbe
000000a0: 4c3e 653f 99c7 f73d ff32 8fbf 381e 113f
000000b0: b08d bcbc a636 583f 8e97 88c0 2cb1 97be
000000c0: 871b 56be 4eca ba3e b536 193e 1dd9 ce3d
000000d0: 3438 01bf ed57 113e 9b83 8b3e 4909 3dbf
000000e0: 2b27 583e f2e9 8ebe 54d2 75be 6b4e a0be
000000f0: 1148 9dbe ab08 88be 1951 44be 9cb3 0fbf
00000100: ee0f 0e3f 3dac 1abf d83e 1ebf 1380 87be
00000110: 05dd 583f 84b8 693f ca71 02bf 12a3 8a3d
00000120: 956a 673b a29b 11bf 2e83 e6bd 89d1 babe
00000130: 4b44 84be b65c fcbd 4c68 8abf 0d90 c9be
00000140: d6f9 15be e800 98be cf76 873e d738 2cbe
00000150: b778 653d c5bf 183d 4ef8 0b3e 1be1 6abe
00000160: 5b54 c13e dfab d3be af85 88be 5de5 b63e
00000170: 9d6d 1bc0 8abb 203f fd62 913e 3502 93bd
00000180: 62c8 e4be 5417 a0be a76b 803d 34e7 bc3e
00000190: 542c 6cbe 592d a5be 68bc 0d3f fd87 203e
000001a0: 43d6 37bc 1219 cb3e fd25 87bb 3ea0 4ebe
000001b0: b30f 52be 469c 613f e5f2 173f 63d6 813e
000001c0: 732b 173e 8978 11bf 0eb4 59bf 175f 59be
000001d0: bdda 1f40 3ac3 b0be b492 10bf ce1d 283f
000001e0: 0d3d ebbe d914 cebd 7a30 a83e 9db9 51be
000001f0: f80f 3bbf 9496 c6be cfd7 e53d 60bb b7be
00000200: 7ea3 413e b42f 333a 6712 bb3e 2f06 90be
00000210: 001b a03d 1379 6cbf 5fea 623e a046 debe
00000220: d91e 1ebf 55e8 57bf 677c 023f e9ed 45c0
00000230: 1dd2 a23f 9865 da3e 5d60 15be 0625 443f
00000240: 07ef c63e c0e9 1a3e c6d5 0c3e b139 96be
00000250: d92e 28bf 8c41 b7bd 5453 2dbe 344b 833d
00000260: f543 77be c7a1 113c 8e0f 533d d920 f5be
00000270: 1e33 243f 00f1 d73e bdf5 b7bf ee4e 95bd
00000280: 02cf 13bf 4b61 1040 afa5 3c3e 9c74 87bd
00000290: 386b 02bf 6e37 e03e 8274 433f 6a54 cfbe
000002a0: 07a5 6abe 8559 8b3d d816 313f 0b24 95be
000002b0: 7970 4a3d 0c1a aebe a893 c03e 9005 0d3e
000002c0: a621 be3e b3d4 a23e 2be4 f1bd 582f 45be
000002d0: b2c8 72bf 24d9 f03b a4e3 9d3e 910e d23d
000002e0: ed72 23bf 3879 823f c217 2cbf fb84 1f3f
000002f0: 8bcb a8be df92 c8be d9a3 093f b139 623c
00000300: fc99 253e e48c 8abf 5286 463e 0edf 553c
00000310: 47e5 05b9 c3e3 873e 1c7c 273e ab03 733e
00000320: 0f36 98be f804 493f a00b 58be 63d3 2f3f
00000330: dea2 24bf e296 1c3d c286 733e 9661 9d3f
00000340: c71c 90be 4530 3cbf 10ff 40bf 7e46 adbe
00000350: 7055 ecbe ae56 a23e 027b b53d e495 6a3d
00000360: 581e be3d 2339 a8be 92a9 eebe 903d 8fbe
00000370: f811 64be b2f5 dc3e c5c7 ff3b 642c 7dbe
00000380: 599d fa3e ddcd 193f 6069 d6bd 3822 8e3e
00000390: 3ef7 2bbc b3c0 79be f822 8d3e 709c 1cbf
000003a0: 5e07 86bd 91c4 883e 707b abbe 5b8e dc3d
000003b0: f2c8 043f 3da3 f8be 014f 1c3e 16e2 15be
000003c0: 602f dabd 8506 813e a397 87bd cd25 16be
000003d0: c56d 80bc 2b5e ff3d eed0 9d3d 8ad8 1b3f
000003e0: d0c8 873c 536a b73e 2ad6 dbbd 1c6d 00be
000003f0: 8586 eb3e 725c 17c0 9907 113e 178d 273f

network.0.bias f4 [256]
-1.0660267 -1.1722713 1.5497705 -1.5121973 1.4725404 -1.4698417 -1.2498184 1.7127357
1.7137802 1.9646034 2.0028005 -1.043028 1.8672657 -1.6520338 -1.5792856 1.6899126
1.7787793 -1.2799882 -1.6704545 1.8188763 1.7315475 1.1934159 0.6940054 -1.0650356
1.4687487 1.6608715 -0.07435503 1.6654692 1.6944336 -1.3950725 -1.4701328 -0.75387824
1.796469 1.7923497 1.4052379 1.5664145 -1.5046532 -1.6082078 1.932185 1.9002397
-1.6299161 -1.4262532 1.8178953 -1.6291301 -1.4833372 1.4598277 -1.2772665 1.7880492
-1.4979485 2.2335615 1.6836735 1.8415203 -1.8192108 1.7429665 -1.3694513 -1.6033978
1.8238573 0.29490432 1.8583891 -1.5948203 -1.4281934 -1.4888163 1.4504918 -1.5329285
1.8868921 1.744052 -0.8198103 1.5593498 -1.7491314 -1.026633 -1.5282089 -1.3248317
1.8395023 1.9847773 -1.48825 1.6380895 1.658415 -1.3875862 1.9331337 1.185141
1.3575274 -1.3781804 1.2676159 2.0185068 1.8224187 -1.3371713 2.0573292 1.4466882
-0.96188766 1.6940453 -1.6407197 1.6301786 1.7170048 2.1244285 1.7036046 1.4887215
1.9414768 1.82169 1.6769475 -1.5898887 -1.4375578 -1.3610002 -1.4346197 1.676262
-0.8637609 1.7999482 -1.3049574 1.7917014 -1.1436653 1.1243176 1.6309536 -1.525604
1.6415205 1.9986221 1.852161 -1.4685512 -1.6327665 -1.5966282 -0.5137702 1.8038489
1.7654526 1.7945888 -1.1967181 -1.7591828 1.9011507 1.7792461 -1.4492238 -1.2981511
-1.472861 -1.4495376 -1.4399195 -1.0837233 1.9333069 -1.3208647 1.777112 1.7348883
-1.3167301 1.7873453 -1.3452581 -1.0759661 1.4137051 1.3842485 -1.4321098 2.0237541
1.7776835 -0.22405219 -1.7654041 1.5010443 -0.861702 -1.4878299 -0.73156554 -0.94839984
1.9322841 -1.3675444 1.8735899 -0.980103 1.8452859 1.7408214 1.8844556 1.782487
1.9322314 1.9697828 1.5830905 2.2401571 1.4610252 -1.4408115 1.579256 1.8755046
1.8719865 -1.311789 -0.8921614 2.8630726 -1.2115484 0.27526724 1.6710387 -1.3277153
-1.1515911 -1.3621275 1.9346957 -1.3913798 1.7374387 1.4534127 -1.5518755 0.9855404
-1.6580821 1.6288038 1.7749568 1.9324967 1.8917401 1.4511672 1.9076257 -0.7907582
1.9246131 -1.1319426 1.791417 1.4372994 -1.4018286 1.7349929 -1.3443607 1.7534761
1.830251 1.7436316 -1.4883683 1.3305333 1.6868863 -1.628021 1.7784632 -1.603564
1.1227326 -1.7017921 2.3605046 2.1363332 -0.22656776 -1.5443212 1.926456 1.6937066
-1.3361107 -0.21439825 1.8176378 1.3419738 1.780018 -1.1721752 1.61858 2.0131466
1.9575412 -1.466319 1.8521775 -1.5804653 -1.6523365 1.9274708 -1.5825089 1.7576238
1.8287593 1.9043026 1.7781463 -1.5934395 2.1382265 -1.5009522 1.7172862 1.7692168
1.6479007 -1.6882137 1.8465766 1.9007453 -1.2976191 -1.0596094 1.839154 -1.6695639
-1.2937737 1.6452793 1.8366431 -1.4785403 1.6952293 -1.6115903 1.8525856 1.7595416
00000000: 9073 88bf fc0c 96bf e15e c63f ae8f c1bf
00000010: 347c bc3f c623 bcbf 0dfa 9fbf ec3a db3f
00000020: 265d db3f 2078 fb3f e22d 0040 f181 85bf
00000030: 9002 ef3f d875 d3bf 0826 cabf 0e4f d83f
00000040: 0aaf e33f a7d6 a3bf 74d1 d5bf f0d0 e83f
00000050: 59a3 dd3f dac1 983f 57aa 313f 1653 88bf
00000060: f5ff bb3f 7097 d43f 7347 98bd 182e d53f
00000070: 33e3 d83f bc91 b2bf 502d bcbf 2afe 40bf
00000080: b2f2 e53f b76b e53f d6de b33f 4580 c83f
00000090: 7a98 c0bf c1d9 cdbf d751 f73f 0e3b f33f
000000a0: 17a1 d0bf 778f b6bf cbb0 e83f 5687 d0bf
000000b0: fedd bdbf a2db ba3f 787d a3bf ccde e43f
000000c0: c7bc bfbf acf2 0e40 9d82 d73f f0b6 eb3f
000000d0: e6db e8bf 8719 df3f 2e4a afbf 243c cdbf
000000e0: 2874 e93f b3fd 963e b2df ed3f 1223 ccbf
000000f0: 0bcf b6bf 8891 bebf b7a9 b93f 0037 c4bf
00000100: ae85 f13f 193d df3f 16df 51bf c698 c73f
00000110: 8ae3 dfbf b668 83bf 599c c3bf 1694 a9bf
00000120: d074 eb3f 2f0d fe3f fa7e bebf ebac d13f
00000130: f146 d43f 6d9c b1bf ed70 f73f b3b2 973f
00000140: 75c3 ad3f 3768 b0bf 3d41 a23f 372f 0140
00000150: 0445 e93f 6e28 abbf 48ab 0340 142d b93f
00000160: 453e 76bf 7ad6 d83f 1a03 d2bf b1a9 d03f
00000170: d0c6 db3f a3f6 0740 b70f da3f 6d8e be3f
00000180: 5082 f83f 232d e93f 37a6 d63f 7981 cbbf
00000190: e501 b8bf 4135 aebf 9ea1 b7bf c18f d63f
000001a0: 6f1f 5dbf b464 e63f d808 a7bf 7956 e53f
000001b0: a063 92bf a4e9 8f3f 16c3 d03f fe46 c3bf
000001c0: 581d d23f d9d2 ff3f 9d13 ed3f 7cf9 bbbf
000001d0: 7efe d0bf 505e ccbf 7286 03bf 85e4 e63f
000001e0: 5afa e13f 16b5 e53f 0f2e 99bf e72c e1bf
000001f0: e858 f33f 56be e33f 2a80 b9bf d129 a6bf
00000200: b686 bcbf 738a b9bf 484f b8bf 72b7 8abf
00000210: 9a76 f73f 1812 a9bf 6878 e33f d210 de3f
00000220: 9d8a a8bf bbc7 e43f 6b31 acbf 42b9 89bf
00000230: 4af4 b43f 0e2f b13f 604f b7bf 3085 0140
00000240: 228b e33f f06d 65be c3f8 e1bf 3822 c03f
00000250: 8198 5cbf 3671 bebf e147 3bbf 55ca 72bf
00000260: 1655 f73f b20b afbf cbd1 ef3f 08e8 7abf
00000270: 5432 ec3f 3cd3 de3f d735 f13f 8928 e43f
00000280: 5c53 f73f d821 fc3f b6a2 ca3f bc5e 0f40
00000290: e002 bb3f 836c b8bf 1025 ca3f 8910 f03f
000002a0: 419d ef3f b4e8 a7bf b164 64bf 953c 3740
000002b0: 0514 9bbf d4ef 8c3e 99e4 d53f 93f2 a9bf
000002c0: 5667 93bf 325a aebf 1ca4 f73f bc18 b2bf
000002d0: 6464 de3f 6d09 ba3f dba3 c6bf 604c 7c3f
000002e0: 093c d4bf a57c d03f c931 e33f 0d5c f73f
000002f0: 8a24 f23f d9bf b93f 142d f43f 216f 4abf
00000300: b959 f63f 7fe3 90bf 274d e53f 6df9 b73f
00000310: 1f6f b3bf 3f14 de3f 0314 acbf e871 e03f
00000320: aa45 ea3f 522f df3f da82 bebf ea4e aa3f
00000330: e4eb d73f fe62 d0bf afa4 e33f 9641 cdbf
00000340: b4b5 8f3f 53d4 d9bf 8212 1740 afb9 0840
00000350: 6101 68be 51ac c5bf 1c96 f63f 61cb d83f
00000360: ad05 abbf 378b 5bbe 5ba8 e83f ccc5 ab3f
00000370: a1d7 e33f d609 96bf a12d cf3f 65d7 0040
00000380: b690 fa3f 57b0 bbbf 2714 ed3f b04c cabf
00000390: c37f d3bf 5db7 f63f a78f cabf d1f9 e03f
000003a0: c914 ea3f 30c0 f33f 4c9a e33f d3f5 cbbf
000003b0: b4d8 0840 341f c0bf 09d0 db3f b275 e23f
000003c0: 69ee d23f 6317 d8bf 9f5c ec3f 9f4b f33f
000003d0: 6218 a6bf 48a1 87bf 6669 eb3f 45b4 d5bf
000003e0: 609a a5bf 8398 d23f 1f17 eb3f cf40 bdbf
000003f0: 46fd d83f 9748 cebf 8621 ed3f a938 e13f

network.2.weight f4 [256, 256]
0.07311431 0.16262664 -0.08305149 0.21124613 -0.08862444 -0.12981045 0.05092482 0.0010397783
-0.010418495 -0.10201103 -0.16024612 0.0128151765 -0.22608866 0.14059064 0.2069321 0.048575178
-0.041616958 -0.08059799 -0.062466808 0.06064579 0.082431026 0.103157796 0.15687534 0.17615254
0.13979302 -0.03837356 -0.018902853 -0.14615807 0.17861728 0.22805013 0.23309809 0.109942265
0.06932079 -0.06774779 0.069734134 0.1490184 0.053459827 0.4086715 -0.025600914 -0.19535583
0.12446613 -0.04380278 -0.061862025 0.1693576 0.1854974 0.0037277276 -0.28358644 0.18566307
0.23414029 -0.5021839 -0.08920045 -0.16357332 0.027020957 -0.06539155 0.05581988 -0.09679299
-0.052691754 -0.15744106 -0.09062748 0.17314579 -0.0643908 0.3466545 -0.05348744 0.22233295
0.0057907715 0.07605867 0.05827985 0.07434539 -0.034777787 -0.0056647747 0.009851713 0.102661714
-0.13968624 -0.15818723 0.2500016 0.16195554 -0.2540154 0.14061253 0.087086804 -0.123814546
-0.06525663 0.12512134 -0.31099495 -0.044174585 0.06591579 0.06564781 -0.09085145 -0.06370479
0.01334754 -0.16457087 0.30101588 -0.06460247 0.050720464 0.015046299 -0.19988327 -0.01780844
-0.2238594 0.110288635 0.053481646 -0.13240902 0.22805075 -0.10531387 -0.040835552 -0.049519148
-0.20262273 -0.20894757 -0.03797697 0.03929577 0.0023105338 0.107492566 0.07086628 -0.008246912
-0.085383624 0.15210824 -0.017251126 0.100978866 0.048535563 0.31668496 0.0020802305 -0.040964533
-0.15612914 -0.13748063 0.2527866 0.22522461 -0.0119485175 -0.21565627 -0.06959219 0.24366756
0.2047935 0.28850287 -0.083310835 -0.2372508 -0.17873779 0.5522654 0.10641579 -0.0291261
0.0653342 -0.078284085 -0.12181073 0.004704164 -0.011361716 0.23761599 -0.005020444 0.12576722
0.10708934 -0.013745656 0.17101109 -0.3034004 0.10288897 0.08625114 -0.17498507 -0.06608491
-0.14435197 0.037961826 0.016019976 0.22861595 -0.111998856 0.066195 -0.09589739 0.23535378
-0.015449934 0.08694163 0.07690246 -0.24257767 -0.024774486 0.09917088 0.1516673 0.23442107
0.057478346 -0.07962283 0.36023575 -0.4456427 -0.16599435 -0.006655131 -0.019443765 -0.029027723
0.22648704 0.115615346 0.02200484 0.06481386 -0.10713387 -0.35499105 0.286861 -0.19349751
0.099457085 -0.07281052 -0.124496154 0.08070023 -0.12474709 0.10030482 0.12537473 -0.18749678
-0.08791676 0.10163568 -0.011311469 -0.023345113 0.19597311 -0.036110114 0.05834422 0.086779065
0.15555926 -0.10952735 -0.23904173 -0.28572094 0.17370085 0.0659125 0.12739308 -0.16631518
0.08400864 0.11048798 -0.2984406 -0.25089172 -0.06611143 0.100513466 -0.07481277 -0.014020651
0.084434815 0.092527404 0.10085428 -0.13705057 -0.037301205 -0.072344184 0.1266946 0.10519736
-0.18290456 -0.19424558 -0.3050833 0.20723066 0.011241276 -0.23400602 0.14964812 0.03274293
0.042609457 -0.03317743 -0.23085785 0.20348978 -0.14997642 0.1986236 -0.0122660585 0.18386026
0.24053204 -0.10170507 0.0013287177 0.035001483 -0.012243403 -0.19179198 0.11790198 0.15308322
0.056898087 -0.22882338 -0.07286946 0.12352591 -0.13595752 0.17326635 -0.14814125 -0.01910392
00000000: f5bc 953d 9987 263e e616 aabd e850 583e
00000010: bb80 b5bd 08ed 04be 8b96 503d 2c49 883a
00000020: 56b2 2abc 29eb d0bd 8f17 24be bff6 513c
00000030: c983 67be fef6 0f3e 02e6 533e c4f6 463d
00000040: 8b76 2abd 8f10 a5bd 32dd 7fbd b867 783d
00000050: 99d1 a83d 6544 d33d eea3 203e 5561 343e
00000060: e725 0f3e 982d 1dbd 28da 9abc 76aa 15be
00000070: 73e7 363e f985 693e 44b1 6e3e 6929 e13d
00000080: 0ff8 8d3d 5abf 8abd c5d0 8e3d 4898 183e
00000090: b1f8 5a3d 643d d13e 02b9 d1bc 5c0b 48be
000000a0: 19e8 fe3d 8b6a 33bd 0963 7dbd 146c 2d3e
000000b0: 08f3 3d3e e44c 743b 3e32 91be 761e 3e3e
000000c0: 79c2 6f3e 208f 00bf baae b6bd c47f 27be
000000d0: 0e5b dd3c 01ec 85bd 63a3 643d 673b c6bd
000000e0: 4fd3 57bd 3b38 21be e69a b9bd 214d 313e
000000f0: 53df 83bd b37c b13e a515 5bbd 40ab 633e
00000100: 83c0 bd3b a6c4 9b3d dab6 6e3d 6542 983d
00000110: 2773 0ebd 939f b9bb 1469 213c 4e40 d23d
00000120: e909 0fbe d5fb 21be 3600 803e acd7 253e
00000130: 4e0e 82be bbfc 0f3e 915a b23d 7b92 fdbd
00000140: 45a5 85bd cf1f 003e bb3a 9fbe 69f0 34bd
00000150: dcfe 863d 5c72 863d 5310 babd a877 82bd
00000160: a4af 5a3c 4485 28be c11e 9a3e 4d4e 84bd
00000170: 43c0 4f3d c184 763c 33ae 4cbe 01e3 91bc
00000180: 663b 65be 02df e13d 920f 5b3d 3b96 07be
00000190: 2386 693e ccae d7bd 2e43 27bd 97d4 4abd
000001a0: 557c 4fbe 5af6 55be bd8d 1bbd 9af4 203d
000001b0: 536c 173b 1025 dc3d 5722 913d 0e1e 07bc
000001c0: 9cdd aebd 43c2 1b3e 3c52 8dbc 02ce ce3d
000001d0: 3acd 463d 8824 a23e 7a54 083b 6dca 27bd
000001e0: 51e0 1fbe b9c7 0cbe 3f6d 813e 48a1 663e
000001f0: b7c3 43bc ffd4 5cbe 5a86 8ebd fd83 793e
00000200: 63b5 513e a6b6 933e df9e aabd e0f1 72be
00000210: 0a07 37be 4461 0d3f 86f0 d93d dc99 eebc
00000220: f0cd 853d 6853 a0bd e777 f9bd 6325 9a3b
00000230: 7e26 3abc 9b51 733e 8982 a4bb 1fc9 003e
00000240: a851 db3d 7635 61bc 881d 2f3e 4c57 9bbe
00000250: 74b7 d23d 70a4 b03d 492f 33be 8657 87bd
00000260: 01d1 13be dc7d 1b3d 533c 833c 4d1a 6a3e
00000270: a85f e5bd 3f91 873d da65 c4bd 9500 713e
00000280: b821 7dbc 740e b23d 097f 9d3d 4866 78be
00000290: ddf3 cabc 1a1a cb3d ac4e 1b3e 140c 703e
000002a0: 6a6e 6b3d 4b11 a3bd d270 b83e 482b e4be
000002b0: 6cfa 29be 4913 dabb 8848 9fbc 8ccb edbc
000002c0: 38ec 673e bdc7 ec3d 7f43 b43c 21bd 843d
000002d0: 0169 dbbd 63c1 b5be 72df 923e 3624 46be
000002e0: 28b0 cb3d af1d 95bd d7f7 febd 2a46 a53d
000002f0: 677b ffbd 9d6c cd3d 3c62 003e 28ff 3fbe
00000300: b40d b4bd 5e26 d03d bd53 39bc 403e bfbc
00000310: 2dad 483e 33e8 13bd 59fa 6e3d 39b9 b13d
00000320: ed4a 1f3e e04f e0bd 5bc7 74be 044a 92be
00000330: a3de 313e 22fd 863d 5573 023e 874e 2abe
00000340: b90c ac3d 8647 e23d 35cd 98be e174 80be
00000350: 6e65 87bd 01da cd3d 7037 99bd dfb6 65bc
00000360: 29ec ac3d 027f bd3d b08c ce3d fc56 0cbe
00000370: 26c9 18bd 3029 94bd 3bbc 013e b771 d73d
00000380: 554b 3bbe 50e8 46be e133 9cbe 4634 543e
00000390: 542d 383c 469f 6fbe 5b3d 193e 731d 063d
000003a0: 4187 2e3d 0fe5 07bd 0066 6cbe a05f 503e
000003b0: 6b93 19be fc63 4b3e 94f7 48bc dd45 3c3e
000003c0: 084e 763e bf4a d0bd 5e28 ae3a b75d 0f3d
000003d0: 8e98 48bc 1e65 44be 9876 f13d d9c1 1c3e
000003e0: f80d 693d ad50 6abe 953c 95bd 27fb fc3d
000003f0: 7338 0bbe bc6c 313e 57b2 17be d37f 9cbc

network.2.bias f4 [256]
-1.8390281 -1.4153922 1.9921471 1.9846056 1.8978729 2.0126114 2.0005093 -1.4933842
1.797944 -1.89148 -1.726139 -1.1925397 1.4458618 -1.7123665 -1.6816192 -1.4060869
1.9917244 -0.8762973 1.9628005 1.9703403 1.9759048 -1.6255641 1.9731237 2.0105364
1.8067061 2.0065534 1.9893779 1.9680572 -1.622496 1.9862719 -1.5968201 1.9029596
1.5865848 1.9741281 2.0437129 -1.6319226 0.557834 -1.3137468 -1.3203294 1.9774371
-0.871534 -1.6938627 1.9587914 2.0029635 -1.5524973 -1.5636103 2.0214548 2.00963
2.241657 1.9724919 2.002629 -1.5959938 1.7039967 -1.3661233 1.9819443 -1.3656619
1.4550477 -1.6079199 1.5975347 1.9459947 -1.213443 -1.4885577 -1.7932953 1.9604642
1.9306296 -1.5516709 -1.7210346 2.011726 2.036709 1.9947348 1.6171433 -1.6945242
-1.3296984 1.9655079 -1.7374284 -1.6820625 -1.5123239 -1.4631788 1.9353343 -1.550491
-1.5831491 1.9854215 1.8980281 1.4981027 -1.4374819 -1.6050985 -1.6473104 1.961103
1.6521239 -1.3513862 1.9695846 1.9610322 2.1673336 2.009279 2.0213687 -1.4775358
-1.5235407 2.014528 2.0421236 -0.9383045 -1.1763774 1.9656278 1.9890412 -1.2793674
-1.1657089 1.8903421 2.0317416 -1.6340551 1.9683603 1.9606746 -1.7449938 -1.4641321
-1.6222836 1.9476866 -1.3623338 1.9788601 -1.2296952 -1.3483264 -1.3695427 1.9756856
1.919821 1.8367054 1.9832435 1.9759585 -1.5411752 1.9584851 -1.6133553 1.9228933
-1.551785 -1.6322976 1.6439843 1.9467055 1.996669 -1.3583848 -1.5187129 1.9653202
-1.1647223 -1.7367578 1.989349 1.9706899 2.068662 1.9712367 -1.5028143 1.9881814
1.9711827 2.0049517 1.9951721 1.9766686 1.7526914 1.9884506 -1.3544197 -1.5516738
-1.5684369 -0.97703946 -1.7053355 2.1075325 1.9858824 1.9804186 1.9774503 -1.8755853
-1.5439789 1.9778613 -1.7376143 -1.7507606 -1.2920582 2.0244358 1.968254 -1.4781736
-1.8090633 1.8576127 1.9559114 1.9652879 1.7830851 -1.7414019 2.0461054 -0.34579974
-1.2693267 1.9820857 -1.468324 -1.7456988 -1.7344527 -1.4806851 1.9820035 1.9860039
2.1122599 -1.5389774 2.0728695 1.8952186 1.4186516 2.1619947 1.9783167 1.979028
1.9721326 1.9680961 -1.6323078 -0.6468097 -1.5636859 1.8089067 1.9664242 -1.2424349
-1.4000496 -1.5624384 -1.4213187 2.2130847 -1.3263593 1.9906363 1.8451705 -1.6272922
1.8963453 -1.1845281 1.8513876 -1.4727669 1.9800522 1.9787889 1.8850807 -1.5087245
2.059984 -1.6852233 -1.6607031 2.0137007 1.744642 -1.2911977 -1.4299766 -1.2219809
1.9730736 2.5738845 1.9966397 -1.0727241 1.4753469 -1.818285 -1.1849362 2.020609
1.7190902 1.98059 1.9748156 -1.4933243 1.9546889 -1.4517401 1.9823743 -1.5180234
-1.3724003 1.9928396 -1.2925371 1.9265418 -1.3338656 -1.7200016 1.9337835 -1.063143
-1.2285348 1.9855686 2.020451 -1.3134286 -1.6339879 1.8295515 1.7249638 1.9756649
00000000: 4665 ebbf 922b b5bf adfe fe3f 8e07 fe3f
00000010: 80ed f23f a0ce 0040 5808 0040 3727 bfbf
00000020: 0723 e63f 041c f2bf 1ff2 dcbf 24a5 98bf
00000030: 0012 b93f d32e dbbf 4c3f d7bf a8fa b3bf
00000040: d3f0 fe3f 0555 60bf 0c3d fb3f 1c34 fc3f
00000050: 73ea fc3f 7c12 d0bf 518f fc3f a1ac 0040
00000060: 2542 e73f 5f6b 0040 efa3 fe3f 4ce9 fb3f
00000070: f3ad cfbf 283e fe3f 9a64 ccbf 2e94 f33f
00000080: 3615 cb3f 3bb0 fc3f 31cc 0240 d7e2 d0bf
00000090: 36ce 0e3f db28 a8bf 8e00 a9bf a91c fd3f
000000a0: da1c 5fbf 7ed0 d8bf adb9 fa3f 8e30 0040
000000b0: 3bb8 c6bf 6224 c8bf 845f 0140 c79d 0040
000000c0: 4f77 0f40 9d7a fc3f 132b 0040 8649 ccbf
000000d0: 901c da3f 21dd aebf 5ab0 fd3f 02ce aebf
000000e0: 013f ba3f 52d0 cdbf 047c cc3f 5b16 f93f
000000f0: 1a52 9bbf 0f89 bebf b38a e5bf 7ef0 fa3f
00000100: df1e f73f 279d c6bf dd4a dcbf 1ec0 0040
00000110: 7159 0240 7853 ff3f 8dfe ce3f 2be6 d8bf
00000120: 8f33 aabf c395 fb3f 0e64 debf d34d d7bf
00000130: d493 c1bf 7149 bbbf 09b9 f73f 7d76 c6bf
00000140: a1a4 cabf 4b22 fe3f 96f2 f23f d4c1 bf3f
00000150: 68ff b7bf de73 cdbf 11db d2bf 6c05 fb3f
00000160: cc78 d33f 39fa acbf 591b fc3f 1a03 fb3f
00000170: 98b5 0a40 0798 0040 1b5e 0140 e51f bdbf
00000180: 6203 c3bf 07ee 0040 27b2 0240 b934 70bf
00000190: 8993 96bf b199 fb3f e798 fe3f 50c2 a3bf
000001a0: f335 95bf bbf6 f13f 0e08 0240 b828 d1bf
000001b0: 3bf3 fb3f 63f7 fa3f f55b dfbf ae68 bbbf
000001c0: fda6 cfbf cb4d f93f f460 aebf 4a4b fd3f
000001d0: a766 9dbf f695 acbf 2d4d afbf 44e3 fc3f
000001e0: b2bc f53f 2a19 eb3f ecda fd3f 35ec fc3f
000001f0: 3b45 c5bf a4af fa3f 6d82 cebf 5e21 f63f
00000200: e4a0 c6bf 21ef d0bf 146e d23f a52d f93f
00000210: da92 ff3f 8edf adbf 2f65 c2bf 9d8f fb3f
00000220: 9f15 95bf 144e debf fda2 fe3f 913f fc3f
00000230: f564 0440 7c51 fc3f 385c c0bf ba7c fe3f
00000240: b74f fc3f 2151 0040 cd61 ff3f 7a03 fd3f
00000250: 3158 e03f 8d85 fe3f a05d adbf 3f9d c6bf
00000260: 8ac2 c8bf 421f 7abf 6f48 dabf d0e1 0640
00000270: 6531 fe3f 5b7e fd3f 171d fd3f 2e13 f0bf
00000280: 1aa1 c5bf 8f2a fd3f 256a debf ec18 e0bf
00000290: 2a62 a5bf 5b90 0140 bfef fb3f cb34 bdbf
000002a0: 638f e7bf 41c6 ed3f 4e5b fa3f 8e8e fb3f
000002b0: 223c e43f 42e6 debf 64f3 0240 aa0c b1be
000002c0: 4c79 a2bf fcb4 fd3f 0af2 bbbf 0f73 dfbf
000002d0: 8c02 debf 1787 bdbf 4ab2 fd3f 6035 fe3f
000002e0: 442f 0740 36fd c4bf e5a9 0440 8696 f23f
000002f0: 6096 b53f 1f5e 0a40 7b39 fd3f ca50 fd3f
00000300: d76e fc3f 93ea fb3f 76ef d0bf 5295 25bf
00000310: dc26 c8bf 418a e73f cab3 fb3f 1b08 9fbf
00000320: d334 b3bf fbfd c7bf c5ed b5bf 2ea3 0d40
00000330: 24c6 a9bf 2ccd fe3f 8c2e ec3f 1c4b d0bf
00000340: 71bb f23f 9e9e 97bf 45fa ec3f a083 bcbf
00000350: 5a72 fd3f f448 fd3f 534a f13f e21d c1bf
00000360: c7d6 0340 66b5 d7bf eb91 d4bf 79e0 0040
00000370: 6e50 df3f f745 a5bf 7909 b7bf df69 9cbf
00000380: ad8d fc3f 86ba 2440 e491 ff3f 064f 89bf
00000390: 2bd8 bc3f 90bd e8bf fdab 97bf a851 0140
000003a0: 260b dc3f f983 fd3f c2c6 fc3f 4025 bfbf
000003b0: 3f33 fa3f 9fd2 b9bf 71be fd3f 974e c2bf
000003c0: d0aa afbf 5e15 ff3f db71 a5bf ec98 f63f
000003d0: 1cbc aabf 0329 dcbf 3886 f73f 1215 88bf
000003e0: a140 9dbf 1d27 fe3f 124f 0140 6e1e a8bf
000003f0: 8426 d1bf be2e ea3f 9dcb dc3f 96e2 fc3f

network.4.weight f4 [1, 256]
-0.3538085 -0.26007366 0.23769249 0.23634036 0.26495904 0.18115427 0.12201329 -0.17776912
1.2694268 -0.77400094 -0.22253121 -0.57871604 0.42658237 -0.26992434 -0.29550803 -0.44540775
0.26982608 -0.44915697 0.23756725 0.20609944 0.21779408 -0.49917042 0.30626315 0.5031573
0.24021414 0.21558465 0.17043972 0.19091757 -0.63362145 0.15681295 -0.3159908 0.1881548
0.9720553 0.15536596 0.26680875 -0.24059011 1.7225902 -0.91299874 -0.42496145 0.2365288
-0.648853 -0.14102036 0.07916458 0.22640419 -0.33635768 -0.1871967 0.17264625 0.11199864
0.78864497 0.45701042 0.90386045 -0.47178385 1.1652601 -0.3400079 0.16421124 -0.5422353
0.40543395 -0.1830003 0.43752685 0.29120678 -0.9328484 -0.32923543 -0.15548709 0.09243348
0.14762649 -0.5932175 -0.20034203 0.14017642 0.18002339 0.1969755 0.2781355 -0.22387898
-0.31872943 0.23130046 -0.31678188 -0.21760982 -0.3097538 -0.27072123 0.2536264 -0.23436268
-0.23796338 0.23051396 0.34868333 0.41041738 -0.5277571 -0.20621714 -0.26316398 0.24774195
1.2163546 -0.55150586 0.16998489 0.2795751 1.3015168 0.35985255 0.12841965 -0.3641649
-0.37083134 0.24621771 0.13485788 -1.1330271 -0.5646807 0.21035238 0.29939047 -1.4538947
-1.1846131 0.2885246 0.20552582 -0.50531685 0.19358659 0.27149928 -0.17493063 -0.46995613
-0.62293327 0.20040473 -0.6813422 0.22583653 -0.941625 -0.33414835 -1.3135396 0.26824516
0.20481563 0.31322956 0.2533433 0.17870176 -0.3166385 0.26385266 -0.23880309 1.3019147
-0.7354169 -0.28886977 1.2252651 0.48214692 0.40691182 -0.59557515 -0.29423198 0.19098376
-0.5644456 -0.57804054 0.13574721 0.28597862 0.14984198 0.17559697 -0.19417298 0.15651482
0.2457268 0.242564 0.19260588 0.18613757 1.055073 0.2565189 -0.8541462 -0.24740726
-0.45246607 -0.7122538 -0.13328478 0.27245942 0.28922507 0.18675463 0.23711829 -0.24135353
-0.30617887 0.13311101 -0.32995376 -0.22740433 -0.2671986 0.24518353 0.27429256 -0.72671664
-0.19034232 0.704564 0.19768023 0.18458214 0.4900188 -0.28411293 0.22090383 -1.2753996
-0.5332367 0.23904432 -0.32746676 -0.5445876 -0.15235312 -0.3971996 0.20663868 0.1295041
0.24943238 -0.5253818 0.31430143 0.2822285 0.4514666 0.77684355 0.23064971 0.16763079
0.14710268 0.24965622 -0.3205049 -2.2992895 -0.43648562 1.0146855 0.21479452 -0.36954933
-0.6354565 -0.6110363 -0.24056394 0.7351735 -0.41411364 0.18509409 0.3234344 -0.3318454
0.2213791 -0.33066946 0.20706105 -0.39935374 0.27585506 0.18280369 0.5225966 -0.24600278
0.13600053 -0.32676688 -0.6114799 0.14534901 0.47296816 -0.19262525 -0.3365539 -1.064106
0.2477241 1.3156184 0.16676551 -0.82183045 0.5310311 -0.5065519 -1.1878872 0.16964008
0.36825746 0.17889987 0.24975012 -0.1927641 0.23259434 -1.2537758 0.11108608 -0.20812577
-0.8102028 0.42934322 -0.6715603 0.14213456 -0.32547203 -0.19020727 0.2658406 -0.31977105
-0.9163541 0.2756357 0.27705336 -0.69079614 -0.33317995 0.4805807 0.38081652 0.18695986
00000000: 6326 b5be 6028 85be a965 733e 3503 723e
00000010: b6a8 873e 8180 393e 1be2 f93d 1c09 36be
00000020: 947c a23f ed24 46bf 39df 63be bc26 14bf
00000030: 0169 da3e 8633 8abe d44c 97be 7c0c e4be
00000040: a526 8a3e e7f7 e5be d444 733e bb0b 533e
00000050: 6905 5f3e 4493 ffbe 86ce 9c3e ebce 003f
00000060: b2fa 753e 39c2 5c3e c087 2e3e e57f 433e
00000070: 0435 22bf 9393 203e 8cc9 a1be a7ab 403e
00000080: 9ed8 783f 4118 1f3e 289b 883e 415d 76be
00000090: d67d dc3f 49ba 69bf 8c94 d9be 9b34 723e
000000a0: 3b1b 26bf a467 10be 0a21 a23d 80d6 673e
000000b0: 1337 acbe 7eb0 3fbe 2eca 303e 8b5f e53d
000000c0: a3e4 493f 45fd e93e 6663 673f a78d f1be
000000d0: 3e27 953f 8415 aebe fe26 283e efcf 0abf
000000e0: 0a95 cf3e 6e64 3bbe 8503 e03e 0e19 953e
000000f0: 27cf 6ebf 8c91 a8be 0238 1fbe c44d bd3d
00000100: 662b 173e 1add 17bf 7626 4dbe 688a 0f3e
00000110: 0d58 383e f2b3 493e c767 8e3e 8840 65be
00000120: 8130 a3be 07da 6c3e 3c31 a2be 1cd5 5ebe
00000130: 0d98 9ebe f99b 8abe 52db 813e c5fc 6fbe
00000140: acac 73be da0b 6c3e 9f86 b23e 3a22 d23e
00000150: 171b 07bf 962a 53be 6ebd 86be 11b0 7d3e
00000160: 82b1 9b3f 7d2f 0dbf 8510 2e3e 7824 8f3e
00000170: 1a98 a63f 983e b83e 7180 033e d273 babe
00000180: 9bdd bdbe 7f20 7c3e 2f18 0a3e 0807 91bf
00000190: ea8e 10bf 9d66 573e b549 993e 3919 babf
000001a0: 67a1 97bf 7fb9 933e 5c75 523e 725c 01bf
000001b0: 903b 463e f401 8b3e 0421 33be 179e f0be
000001c0: 8e78 1fbf e636 4d3e 716c 2ebf b141 673e
000001d0: 560e 71bf 7e15 abbe 1122 a8bf 6e57 893e
000001e0: 30bb 513e a05f a03e 37b6 813e 98fd 363e
000001f0: 711e a2be b217 873e cc88 74be 24a5 a63f
00000200: 4844 3cbf bde6 93be 7dd5 9c3f f6db f63e
00000210: bf56 d03e 9d77 18bf 93a5 96be 3f91 433e
00000220: 827f 10bf 77fa 13bf 5101 0b3e ca6b 923e
00000230: 2d70 193e b1cf 333e 48d5 46be 6c45 203e
00000240: ce9f 7b3e b262 783e 7a3a 453e d99a 3e3e
00000250: a20c 873f 7256 833e 53a9 5abf 5458 7dbe
00000260: a2a9 e7be 4456 36bf ce7b 08be cd7f 8b3e
00000270: 4f15 943e 9b3c 3f3e 23cf 723e 6125 77be
00000280: 7ac3 9cbe 414e 083e b3ef a8be aedc 68be
00000290: 41ce 88be 6411 7b3e 1370 8c3e 1a0a 3abf
000002a0: 19e9 42be 4e5e 343f b06c 4a3e 1a03 3d3e
000002b0: bfe3 fa3e 4077 91be 9d34 623e 4b40 a3bf
000002c0: 3382 08bf 09c8 743e b9a9 a7be 186a 0bbf
000002d0: 7502 1cbe bf5d cbbe 1799 533e b99c 043e
000002e0: 346b 7f3e 6c7f 06bf 1eec a03e 4180 903e
000002f0: a126 e73e 38df 463f 702f 6c3e 68a7 2b3e
00000300: 16a2 163e e1a5 7f3e 3819 a4be 8f27 13c0
00000310: 0b7b dfbe 37e1 813f 18f3 5b3e 9235 bdbe
00000320: 47ad 22bf e06c 1cbf 6556 76be 5534 3c3f
00000330: b406 d4be 4e89 3d3e 3299 a53e a4e7 a9be
00000340: 34b1 623e 824d a9be d007 543e 1878 ccbe
00000350: e03c 8d3e e430 3b3e e4c8 053f 27e8 7bbe
00000360: b943 0b3e fd4d a7be f289 1cbf 5fd6 143e
00000370: e228 f23e 8e3f 45be cb50 acbe a034 88bf
00000380: 63ab 7d3e 2f66 a83f 94c4 2a3e 7b63 52bf
00000390: a7f1 073f 63ad 01bf b00c 98bf 21b6 2d3e
000003a0: 3e8c bc3e 8731 373e 7fbe 7f3e f463 45be
000003b0: 362d 6e3e ba7b a0bf 1981 e33d ec1e 55be
000003c0: 7369 4fbf e0d2 db3e 60eb 2bbf b98b 113e
000003d0: 45a4 a6be b2c5 42be 421c 883e 08b9 a3be
000003e0: 2f96 6abf 1f20 8d3e f0d9 8d3e 04d8 30bf
000003f0: 9096 aabe ac0e f63e 62fa c23e 6872 3f3e
