models/critic_700000.pt (torch, 291588 bytes, 5 tensors)

network.0.weight f4 [256, 23]
-0.32462588 -1.5471053 1.0821733 1.5579054 0.23129062 -1.1337092 -0.5894703 -0.20606561
0.15330935 0.548863 -0.3552173 0.29327893 -0.039345417 -0.312247 -0.12918599 -0.056169294
0.118495226 -1.1751435 1.5128165 -0.729662 -0.773598 0.22074363 -0.18856686 5.0199127
1.4614475 -0.0043953555 0.69079596 -0.9727182 -0.13432181 0.1858519 1.405456 -0.30803376
0.6554124 1.1245086 -0.24194972 0.22698687 0.09016799 0.36104023 0.09761678 -0.24014553
0.81000674 0.20603545 -1.0884973 0.67916673 -0.18055193 0.81118083 -5.2554655 -0.3502618
-0.13416433 0.3594707 0.2628326 0.1022438 -0.5586366 0.035184454 0.22861983 -0.696325
0.13594551 -0.265222 -0.21942903 -0.2672651 -0.29968086 -0.23837548 -0.16353895 -0.5678461
0.45354745 -0.5796052 -0.70619965 -0.20653512 0.9302286 1.0602918 -0.5084043 0.18494432
-0.03454194 -0.58711886 -0.37669656 -0.37725136 -0.2183866 -0.11065154 -1.162425 -0.40776944
-0.1401714 -0.30104387 0.27609295 -0.16927598 0.060265414 0.036698747 0.19518578 -0.24469613
0.4026056 -0.5764539 -0.12919405 0.5624135 -2.7955904 0.6105318 0.3679536 -0.05119361
-0.42534065 -0.24886781 0.06653897 0.48549843 -0.24589728 -0.30693385 0.6415165 0.1612458
-0.03676417 0.3400851 -0.0026527487 -0.17611429 -0.15319668 0.9248626 0.6380485 0.31066012
0.19233844 -0.54924536 -0.9519307 -0.010842799 2.5309603 -0.506305 -0.6425437 0.6676017
-0.5494537 -0.09537169 0.36935982 -0.18479256 -1.0299414 -0.36402097 0.08232254 -0.3248447
0.16241647 -0.0152134625 0.3002618 -0.25097638 -0.04030352 -1.0581965 0.30025113 -0.56506
-0.5233444 -0.92825615 0.5158297 -3.3696165 1.5603482 0.46492612 0.032422636 1.0460131
0.37122238 0.10572196 0.15563948 -0.20709755 -0.71349293 -0.11374361 -0.17600259 0.06668434
-0.23215681 -0.0011229212 0.061361242 -0.4425378 0.77351034 0.4304971 -1.4108337 -0.029453292
-0.54835767 2.5932503 0.2731934 -0.1199617 -0.45018756 0.5487542 0.8602969 -0.506572
-0.43939087 0.036293365 0.8197916 -0.24629597 0.048525486 -0.31291687 0.33838484 0.13777858
0.3383181 0.2977399 0.029673565 -0.17874515 -0.91565675 -0.038487848 0.29432264 0.068322174
-1.3227775 1.0496672 -0.6924088 0.7272348 -0.36113393 -0.28094295 0.48861915 0.040637076
0.14283133 -1.1716887 0.19366643 0.008955079 -0.017738106 0.24150145 0.15232664 0.19614686
-0.25442082 0.79239404 -0.20036988 0.63800603 -0.61161864 0.08618936 0.16107535 1.2268801
-0.39976284 -0.73887277 -0.77974445 -0.29062486 -0.57873046 0.2924679 0.0748304 0.049966104
0.083548345 -0.30894968 -0.44308698 -0.26385516 -0.21163587 0.4170138 -1.2654441e-05 -0.22567758
0.43144807 0.57209635 -0.1488869 0.3199532 0.061715 -0.23915027 0.252063 -0.67218083
-0.09847141 0.27258533 -0.24389869 0.08368751 0.54620934 -0.46346542 0.13289073 -0.20594183
-0.10909909 0.23968993 -0.05395436 -0.13053283 -0.012465391 0.11727102 0.08924864 0.6315697
0.015584829 0.3258425 -0.102250285 -0.13593665 0.46199712 -2.210014 0.29607677 0.8451212
00000000: 5d35 a6be 8c07 c6bf a884 8a3f 7269 c73f
00000010: 73d7 6c3e 621d 91bf 87e7 16bf dd02 53be
00000020: 20fd 1c3e 4982 0c3f 0bdf b5be a828 963e
00000030: a928 21bd d7de 9fbe 5549 04be c611 66bd
00000040: a0ad f23d 1a6b 96bf f9a3 c13f 21cb 3abf
00000050: 850a 46bf 9e0a 623e ac17 41be 20a3 a040
00000060: b610 bb3f ea06 90bb 01d8 303f 0f04 79bf
00000070: a88b 09be f64f 3e3e fbe5 b33f 9ab6 9dbe
00000080: 1bc9 273f e6ef 8f3f abc1 77be 3f6f 683e
00000090: ffa9 b83d 44da b83e 4eeb c73d b6e8 75be
000000a0: 9a5c 4f3f f5fa 523e e153 8bbf dfdd 2d3f
000000b0: 9be2 38be 8ca9 4f3f c62c a8c0 8455 b3be
000000c0: 6062 09be 8b0c b83e ff91 863e 3365 d13d
000000d0: cf02 0fbf 931d 103d 511b 6a3e 5b42 32bf
000000e0: 4d35 0b3e 2ecb 87be 01b2 60be f9d6 88be
000000f0: c56f 99be b418 74be c176 27be 5d5e 11bf
00000100: 5f37 e83e 0261 14bf 80c9 34bf f17d 53be
00000110: 7623 6e3f a4b7 873f c926 02bf 0b62 3d3e
00000120: d97b 0dbd 6c4d 16bf 5fde c0be 1727 c1be
00000130: bda0 5fbe 469d e2bd 58ca 94bf 28c7 d0be
00000140: 1789 0fbe 6c22 9abe 0e5c 8d3e af56 2dbe
00000150: ded8 763d 6d51 163d c8de 473e 9f91 7abe
00000160: 5222 ce3e 7c92 13bf 724b 04be 55fa 0f3f
00000170: f4ea 32c0 d04b 1c3f 6a64 bc3e 64b0 51bd
00000180: 40c6 d9be 34d7 7ebe 9545 883d 4093 f83e
00000190: 7fcc 7bbe 6f26 9dbe 6d3a 243f 9e1d 253e
000001a0: 0796 16bd a21f ae3e bdd9 2dbb 4e57 34be
000001b0: 97df 1cbe ccc3 6c3f 2657 233f d80e 9f3e
000001c0: 5ef4 443e 589b 0cbf bbb1 73bf ffa5 31bc
000001d0: 41fb 2140 349d 01bf be7d 24bf f2e7 2a3f
000001e0: ffa8 0cbf 3c52 c3bd bb1c bd3e 433a 3dbe
000001f0: 1fd5 83bf f560 babe b898 a83d 0b52 a6be
00000200: 8150 263e e341 79bc eabb 993e fa7f 80be
00000210: 4e15 25bd fc72 87bf 84ba 993e c6a7 10bf
00000220: e6f9 05bf 32a2 6dbf 6a0d 043f cca7 57c0
00000230: 7db9 c73f cc0a ee3e 99cd 043d c2e3 853f
00000240: dc10 be3e c184 d83d f55f 1f3e 6111 54be
00000250: 79a7 36bf 69f2 e8bd 063a 34be cd91 883d
00000260: 84ba 6dbe fc2e 93ba ed55 7b3d 5194 e2be
00000270: c604 463f 1e6a dc3e 3396 b4bf 0848 f1bc
00000280: 2b61 0cbf d0f7 2540 01e0 8b3e 7bae f5bd
00000290: fc7e e6be 287b 0c3f 6b3c 5c3f b4ae 01bf
000002a0: d7f7 e0be 5aa8 143d dddd 513f 0335 7cbe
000002b0: a9c2 463d a436 a0be c740 ad3e d415 0d3e
000002c0: 0838 ad3e 5d71 983e fa15 f33c f808 37be
000002d0: 7b68 6abf 6fa5 1dbd 75b1 963e 7fec 8b3d
000002e0: c650 a9bf 7f5b 863f b441 31bf 0f2c 3a3f
000002f0: 8ce6 b8be c1d7 8fbe 4a2c fa3e 1073 263d
00000300: 6042 123e e5f9 95bf 7e50 463e 53b8 123c
00000310: 814f 91bc 284c 773e 84fb 1b3e b9da 483e
00000320: 7243 82be 56da 4a3f c32d 4dbe 5d54 233f
00000330: 0a93 1cbf 0c84 b03d f0f0 243e 680a 9d3f
00000340: b7ad ccbe c426 3dbf 559d 47bf c8cc 94be
00000350: ae27 14bf 5abe 953e ae40 993d 42a9 4c3d
00000360: 651b ab3d a72e 9ebe 4cdc e2be 0618 87be
00000370: 13b7 58be d582 d53e 694e 54b7 0618 67be
00000380: c3e6 dc3e e874 123f cf75 18be e8d0 a33e
00000390: dec8 7c3d cfe3 74be 670e 813e 0b14 2cbf
000003a0: 61ab c9bd 4e90 8b3e 94c0 79be 5b64 ab3d
000003b0: 60d4 0b3f 574b edbe 8214 083e 6ae2 52be
000003c0: 586f dfbd 4771 753e 3fff 5cbd 66aa 05be
000003d0: a43b 4cbc ca2b f03d fec7 b63d 8dae 213f
000003e0: 8357 7f3c d4d4 a63e 9968 d1bd fa32 0bbe
000003f0: e38a ec3e df70 0dc0 6097 973e dd59 583f

network.0.bias f4 [256]
-1.1812413 -1.2428286 1.594149 -1.593625 1.5222306 -1.5969017 -1.3477424 1.7518878
1.7825867 2.0367875 2.11643 -1.1712368 1.9820737 -1.7329187 -1.6198014 1.7090586
1.8603734 -1.3926597 -1.7398576 1.8915215 1.7352103 1.1258008 0.7219063 -1.0335119
1.5110533 1.7621813 -0.10863146 1.7418997 1.7739402 -1.500403 -1.5833013 -0.9342547
1.8305582 1.8944145 1.4584395 1.6598711 -1.608402 -1.7292335 2.017864 2.0267081
-1.6904439 -1.5413324 1.8736562 -1.7087637 -1.5546138 1.4745271 -1.2798985 1.8801693
-1.5675411 2.3479877 1.7198347 1.9521143 -1.9262018 1.8186895 -1.4328984 -1.6968263
1.8800087 0.29742074 1.8908881 -1.6651022 -1.5092937 -1.571016 1.5301721 -1.6779515
1.98055 1.8185911 -0.92406803 1.595141 -1.8319612 -0.9452484 -1.6426346 -1.3913713
1.92291 2.0517354 -1.571672 1.68143 1.7486756 -1.4736148 2.0233676 1.1467226
1.4221842 -1.4726951 1.281894 2.0685287 1.8988028 -1.4009573 2.108746 1.5240755
-1.0559584 1.7086806 -1.7311817 1.6828448 1.796121 2.2057815 1.7953833 1.5648099
2.0166008 1.88819 1.7521979 -1.6616728 -1.5198323 -1.4517717 -1.5716119 1.7614002
-0.7928331 1.8824642 -1.4248544 1.8833833 -1.2118658 1.1628464 1.6702838 -1.5640366
1.6743511 2.0540674 1.9378054 -1.6049454 -1.7210625 -1.6985023 -0.51626194 1.8786378
1.8298147 1.9220191 -1.1005628 -1.8625774 1.9761392 1.86487 -1.5358744 -1.3525995
-1.5885146 -1.5602262 -1.5428544 -1.0692223 2.049283 -1.412915 1.814286 1.814728
-1.3842757 1.9041827 -1.3561007 -1.1571215 1.4521161 1.4450595 -1.5031145 2.1008337
1.872961 -0.28993043 -1.8622168 1.5756831 -0.8263374 -1.5351037 -0.81997806 -1.0325824
2.0264957 -1.4520856 1.9232261 -0.9824779 1.9499573 1.8139533 1.9490541 1.8842297
2.0259528 2.049957 1.6689117 2.319864 1.562082 -1.4878793 1.6555648 1.9626242
1.9825604 -1.4132055 -0.9243162 2.9292717 -1.2476104 0.32577828 1.7304511 -1.5022037
-1.2188708 -1.379113 2.0155716 -1.5010594 1.8201495 1.5844396 -1.6135311 0.98386437
-1.7250739 1.6967021 1.812871 2.0653315 1.9542049 1.4761163 2.0012405 -0.83127743
2.0035214 -1.2075341 1.84359 1.5075716 -1.4548162 1.7938322 -1.4479547 1.8152603
1.8775259 1.822454 -1.6149685 1.432917 1.7549683 -1.718305 1.8723826 -1.6956681
1.0606238 -1.7958289 2.4508414 2.2165895 -0.42841318 -1.6606392 2.026381 1.7716087
-1.4046936 -0.39832723 1.9106748 1.2694559 1.8780901 -1.3396666 1.6403964 2.0713413
2.0800867 -1.612374 1.9302018 -1.6714027 -1.6649153 2.0044513 -1.666972 1.8111771
1.9009687 1.9798592 1.9418702 -1.6883981 2.2594247 -1.6239365 1.7812756 1.8238374
1.7653675 -1.8094271 1.9331199 1.9831138 -1.3721141 -1.1642164 1.93993 -1.8156761
-1.3864096 1.7385299 1.9301835 -1.5759444 1.7727305 -1.6576838 1.9157217 1.8581239
00000000: ea32 97bf 0215 9fbf 130d cc3f e7fb cbbf
00000010: 74d8 c23f 4667 ccbf d382 acbf dc3d e03f
00000020: cd2b e43f ba5a 0240 9773 0740 16eb 95bf
00000030: 97b4 fd3f 48d0 ddbf a755 cfbf 6fc2 da3f
00000040: b720 ee3f ac42 b2bf a7b3 debf 601d f23f
00000050: 5f1b de3f 3e1a 903f dace 383f 1e4a 84bf
00000060: 326a c13f 288f e13f 2c7a debd 92f6 de3f
00000070: 7910 e33f 350d c0bf 9ea9 cabf 512b 6fbf
00000080: bb4f ea3f 2d7c f23f 25ae ba3f a876 d43f
00000090: 1ee0 cdbf 8657 ddbf af24 0140 96b5 0140
000000a0: 7760 d8bf 614a c5bf f7d3 ef3f c5b8 dabf
000000b0: 96fd c6bf 4ebd bc3f b7d3 a3bf 63a9 f03f
000000c0: 30a5 c8bf 6e45 1640 8b23 dc3f e2de f93f
000000d0: c88d f6bf d1ca e83f 3769 b7bf 9b31 d9bf
000000e0: 20a4 f03f 8847 983e 9f08 f23f 1222 d5bf
000000f0: 8930 c1bf 0d17 c9bf aedc c33f 1dc7 d6bf
00000100: aa82 fd3f 98c7 e83f b98f 6cbf 952d cc3f
00000110: b47d eabf cdfb 71bf da41 d2bf 7418 b2bf
00000120: ea21 f63f a24f 0340 8c2c c9bf 1939 d73f
00000130: 9ad4 df3f 699f bcbf db7e 0140 cec7 923f
00000140: 220a b63f 4681 bcbf 1a15 a43f c662 0440
00000150: f80b f33f 9252 b3bf b2f5 0640 e814 c33f
00000160: a529 87bf 0cb6 da3f 5d97 ddbf 7567 d73f
00000170: 4be7 e53f 862b 0d40 1fcf e53f b14b c83f
00000180: fd0f 0140 36b0 f13f 0548 e03f b2b1 d4bf
00000190: dd89 c2bf a8d3 b9bf 942a c9bf 9075 e13f
000001a0: 1cf7 4abf 96f4 f03f a161 b6bf b412 f13f
000001b0: 6b1e 9bbf 27d8 943f dccb d53f 5a32 c8bf
000001c0: 2351 d63f d775 0340 020a f83f da6e cdbf
000001d0: c74b dcbf 8668 d9bf be29 04bf 3477 f03f
000001e0: 5e37 ea3f b904 f63f 3edf 8cbf f068 eebf
000001f0: 21f2 fc3f 0fb4 ee3f 8897 c4bf fb21 adbf
00000200: 7254 cbbf 7eb5 c7bf 417c c5bf 47dc 88bf
00000210: 7427 0340 66da b4bf 863a e83f 0249 e83f
00000220: f22f b1bf 42bc f33f b594 adbf 8f1c 94bf
00000230: f1de b93f b6f7 b83f 0e66 c0bf 0f74 0640
00000240: 30bd ef3f c371 94be 1f5d eebf fcaf c93f
00000250: d98a 53bf 477e c4bf 15ea 51bf a92b 84bf
00000260: 1bb2 0140 f1dd b9bf 462c f63f ac83 7bbf
00000270: 3398 f93f 9f2f e83f 9b7a f93f 702e f13f
00000280: 36a9 0140 7f32 0340 e69e d53f a778 1440
00000290: 4ef2 c73f d472 bebf 8ce9 d33f 4537 fb3f
000002a0: 8ac4 fd3f ebe3 b4bf fd9f 6cbf 3079 3b40
000002b0: b3b1 9fbf 69cc a63e 6c7f dd3f 3648 c0bf
000002c0: f503 9cbf c686 b0bf 20ff 0040 b722 c0bf
000002d0: a9fa e83f ebce ca3f 3088 cebf 89de 7b3f
000002e0: 39cf dcbf 892d d93f 280c e83f 642e 0440
000002f0: 6323 fa3f 61f1 bc3f 5314 0040 99ce 54bf
00000300: b239 0040 7a90 9abf c2fa eb3f 1bf8 c03f
00000310: 6b37 babf 4b9c e53f 9456 b9bf 735a e83f
00000320: c552 f03f 2c46 e93f 4ab7 cebf d369 b73f
00000330: cda2 e03f 6bf1 dbbf 3caa ef3f a70b d9bf
00000340: 85c2 873f b9dd e5bf 96da 1c40 9adc 0d40
00000350: f958 dbbe d38f d4bf 3ab0 0140 13c4 e23f
00000360: 00cd b3bf 8cf1 cbbe fe90 f43f 887d a23f
00000370: 4265 f03f 327a abbf 82f8 d13f db90 0440
00000380: 2420 0540 4562 cebf da10 f73f 86f0 d5bf
00000390: f21b d5bf ee48 0040 575f d5bf a7d4 e73f
000003a0: f152 f33f 076c fd3f 348f f83f 6e1d d8bf
000003b0: 6a9a 1040 27dd cfbf d700 e43f 8173 e93f
000003c0: 90f7 e13f 4f9b e7bf 7970 f73f acd6 fd3f
000003d0: 6fa1 afbf 0b05 95bf a04f f83f 1368 e8bf
000003e0: df75 b1bf 2688 de3f 4110 f73f 8cb8 c9bf
000003f0: d5e8 e23f fc2e d4bf 5e36 f53f 01d7 ed3f

network.2.weight f4 [256, 256]
0.07726381 0.18506789 -0.071917616 0.23784836 -0.10890556 -0.075950526 0.05910024 -0.008098809
0.005691069 -0.10682137 -0.16295873 0.032416083 -0.23695265 0.1655433 0.21679449 0.044522382
-0.03136126 -0.09725394 -0.025364647 0.05644586 0.07316292 0.037749756 0.17187878 0.1736324
0.14977305 -0.05425983 0.08406108 -0.16240172 0.18054487 0.23747683 0.26938903 0.0855256
0.08423904 -0.10997829 0.10572886 0.15274948 0.039514467 0.34038547 -0.010919849 -0.19644853
0.04781942 -0.14758189 -0.040380366 0.17194794 0.21198148 -0.0059874887 -0.25226906 0.1804746
0.24700098 -0.52404356 -0.09169601 -0.14847076 -0.030683465 -0.06269165 0.057942696 -0.06656627
-0.07573458 -0.20219663 -0.16289814 0.173743 -0.005995986 0.32011557 -0.044783633 0.24314858
-0.0050609494 0.08659589 0.055548597 0.09094846 -0.06281663 0.0018113176 0.030117938 0.17410545
-0.123506136 -0.14081778 0.29273933 0.13905135 -0.2654993 0.13615863 0.060376093 -0.11342962
-0.049827203 0.17838392 -0.3595631 -0.04333673 0.0721967 0.09461779 -0.0816175 -0.049332827
-0.042592376 -0.1433405 0.2761065 -0.099885695 0.060232207 0.023178589 -0.34503886 -0.0008982871
-0.22023459 0.10953582 0.045094483 -0.15707615 0.20951551 -0.10874211 -0.05126608 -0.06195354
-0.19038534 -0.24581887 -0.085263394 0.02984173 0.020322902 0.08823816 0.07056117 -0.019189432
-0.08079424 0.15780917 -0.039945573 0.12358334 0.053529836 0.32408625 0.13058186 -0.030202629
-0.16869268 -0.14377229 0.26034158 0.23274502 0.008551825 -0.22214006 -0.05183381 0.2729356
0.24868792 0.19874714 -0.11982214 -0.3379649 -0.16954915 0.6229131 0.108220756 -0.033322096
0.06692457 -0.098135546 -0.1396338 -0.0046774577 0.015450735 0.21823445 0.009902677 0.11625833
0.1056318 -0.0687242 0.1912447 -0.35316697 0.124512374 0.20283942 -0.24839795 -0.0937377
-0.13521756 0.03215884 0.022847008 0.42385063 -0.11967939 0.06917224 -0.074882485 0.24584463
0.0028329445 0.07254444 0.094486274 -0.28757778 -0.04289796 0.105643846 0.15322225 0.25350472
0.06102625 -0.075523935 0.47699058 -0.5559504 -0.24993454 -0.042898886 -0.0010303175 0.03471941
0.2404679 0.11883935 0.024882158 0.09833715 -0.09994037 -0.3683791 0.24648765 -0.257174
0.10775574 -0.07339715 -0.16857629 0.052763674 -0.12731425 0.17201178 0.127353 -0.09640272
-0.07836593 0.13184915 -0.016984079 -0.03908463 0.3462677 -0.04658428 0.09381176 0.09236453
0.17430297 -0.11890801 -0.28219113 -0.3185514 0.21419686 0.07605735 0.12570693 -0.26596767
0.047829553 0.13707493 -0.33509725 -0.2630283 0.035929043 0.14263515 -0.12193856 -0.01734752
0.1029308 0.11379271 0.07054818 -0.16591503 -0.031167518 -0.10781435 0.1470564 0.10448234
-0.19632308 -0.22698118 -0.31938663 0.22200254 0.04039435 -0.2519115 0.16122936 0.012300277
0.06653668 -0.024717491 -0.28259078 0.22861898 -0.16670151 0.2995205 -0.038807146 0.19488572
0.26417315 -0.04605414 0.0019516606 0.04374756 -0.007222256 -0.25624475 0.13989773 0.1124575
0.024077127 -0.22326496 -0.031710688 0.20616303 -0.12161818 0.24346024 -0.11817392 -0.021590017
00000000: 7d3c 9e3d 7082 3d3e 8b49 93bd 858e 733e
00000010: e109 dfbd f38b 9bbd 1813 723d deb0 04bc
00000020: 267c ba3b 2ac5 dabd a7de 26be bac6 043d
00000030: b7a3 72be 2f84 293e 60ff 5d3e 1a5d 363d
00000040: aa74 00bd 132d c7bd 85c9 cfbc c633 673d
00000050: 71d6 953d 7d9f 1a3d fe00 303e b1cc 313e
00000060: 1b5e 193e 8e3f 5ebd 3728 ac3d a34c 26be
00000070: c1e0 383e 202d 733e 5ced 893e 0c28 af3d
00000080: 8585 ac3d 4c3c e1bd 5f88 d83d 5c6a 1c3e
00000090: ecd9 213d 0147 ae3e 2be9 32bc ce29 49be
000000a0: 4cde 433d b51f 17be e265 25bd 1f13 303e
000000b0: ac11 593e b232 c4bb 6929 81be 55ce 383e
000000c0: d3ed 7c3e b827 06bf 1ecb bbbd b808 18be
000000d0: e45b fbbc 7b64 80bd 5255 6d3d e653 88bd
000000e0: bb1a 9bbd a20c 4fbe c5ce 26be afe9 313e
000000f0: fa79 c4bb 30e6 a33e 0b6f 37bd f1fb 783e
00000100: 52d6 a5bb 3059 b13d ed86 633d 3043 ba3d
00000110: 01a6 80bd bc69 ed3a e5b9 f63c b348 323e
00000120: c9f0 fcbd 8932 10be eee1 953e 7a63 0e3e
00000130: 86ef 87be 2b6d 0b3e ec4c 773d ca4d e8bd
00000140: 9c17 4cbd 46aa 363e a818 b8be db81 31bd
00000150: dddb 933d f9c6 c13d 1327 a7bd 3811 4abd
00000160: 5875 2ebd dac7 12be d55d 8d3e df90 ccbd
00000170: 0cb6 763d 06e1 bd3c efa8 b0be 077b 6bba
00000180: 2d85 61be 5154 e03d feb4 383d 92d8 20be
00000190: 3c8b 563e 2fb4 debd 62fc 51bd ffc2 7dbd
000001a0: 60f4 42be f1b7 7bbe 939e aebd a576 f43c
000001b0: 377c a63c 35b6 b43d 6082 903d 2833 9dbc
000001c0: 7377 a5bd ba98 213e f89d 23bd 4319 fd3d
000001d0: 1a42 5b3d a2ee a53e 40b7 053e 816b f7bc
000001e0: c6bd 2cbe 0b39 13be 7e4b 853e b654 6e3e
000001f0: f41c 0c3c af78 63be b04f 54bd 37be 8b3e
00000200: 0ca8 7e3e 5f84 4b3e 4f65 f5bd bc09 adbe
00000210: 4b9e 2dbe 3c77 1f3f d8a2 dd3d c07c 08bd
00000220: c00f 893d 4afb c8bd 2afc 0ebe 5c45 99bb
00000230: 1425 7d3c da78 5f3e d63e 223c d918 ee3d
00000240: 7c55 d83d 46bf 8cbd a7d5 433e 4dd2 b4be
00000250: 5800 ff3d 23b5 4f3e 085c 7ebe 8df9 bfbd
00000260: 7976 0abe fdb8 033d a629 bb3c f302 d93e
00000270: 781a f5bd 2daa 8d3d fd5b 99bd b2be 7b3e
00000280: eca8 393b 2e92 943d 0582 c13d 653d 93be
00000290: c5b5 2fbd cd5b d83d 4be6 1c3e 5fcb 813e
000002a0: a9f6 793d 4bac 9abd 1c38 f43e c452 0ebf
000002b0: d7ee 7fbe beb6 2fbd b80b 87ba f135 0e3d
000002c0: 383d 763e 0c62 f33d abd5 cb3c fd64 c93d
000002d0: 89ad ccbd 2f9c bcbe 4267 7c3e 4fac 83be
000002e0: 0baf dc3d 3f51 96bd 439f 2cbe b91e 583d
000002f0: ab5e 02be db23 303e d368 023e ca6e c5bd
00000300: 517e a0bd 7703 073e 3222 8bbc 3417 20bd
00000310: 004a b13e 28cf 3ebd 6120 c03d 9d29 bd3d
00000320: 7a7c 323e 0b86 f3bd 5b7b 90be 2b19 a3be
00000330: 6c56 5b3e f5c3 9b3d 51b9 003e ea2c 88be
00000340: ece8 433d 5f5d 0c3e de91 abbe a5ab 86be
00000350: 552a 133d f30e 123e ecba f9bd 631c 8ebc
00000360: 62cd d23d 270c e93d 907b 903d a1e5 29be
00000370: 0653 ffbc c5cd dcbd f495 163e d6fa d53d
00000380: eb08 49be c16d 68be a586 a3be a254 633e
00000390: 8c74 253d 8bfa 80be 4f19 253e 1a87 493c
000003a0: 6244 883d 567c cabc bdaf 90be 181b 6a3e
000003b0: cdb3 2abe c05a 993e 3ef4 1ebd 1f90 473e
000003c0: b441 873e 44a3 3cbd ddce ff3a a430 333d
000003d0: ada8 ecbb 8332 83be 5a41 0f3e 1e50 e63d
000003e0: 653d c53c 929f 64be 11e3 01bd 671c 533e
000003f0: f412 f9bd a44d 793e 2b05 f2bd 8cdd b0bc

network.2.bias f4 [256]
-1.9853945 -1.5064789 2.1315656 2.1240165 2.0388274 2.1504667 2.135055 -1.6059377
1.8758603 -2.0293837 -1.8589807 -1.2466917 1.5558857 -1.8341396 -1.8182484 -1.5409173
2.1317732 -0.950381 2.1022284 2.1097271 2.1149118 -1.7416434 2.1192584 2.1575089
1.9328842 2.1454914 2.1291316 2.1062994 -1.7364768 2.1231246 -1.7396052 2.0323627
1.6302584 2.1109223 2.1802092 -1.7634532 0.4409554 -1.3613003 -1.4223262 2.1168678
-0.9696385 -1.8403308 2.0869164 2.1309674 -1.6814888 -1.7110037 2.1572156 2.1432474
2.3324153 2.1004045 2.0884793 -1.7329581 1.8071523 -1.4817169 2.1138 -1.4509138
1.5864227 -1.7541734 1.6864916 2.083958 -1.2677655 -1.5866129 -1.9241531 2.09131
2.0677173 -1.6324303 -1.8614542 2.1476548 2.1755266 2.1331618 1.732423 -1.8358499
-1.4310724 2.104849 -1.8769628 -1.8073292 -1.6317009 -1.5954458 2.0766187 -1.6749109
-1.7051952 2.1247208 2.0385454 1.6200207 -1.5447412 -1.7244622 -1.7706461 2.1011157
1.7566445 -1.4556593 2.107047 2.1036503 2.2655368 2.151591 2.1565204 -1.6213907
-1.6294374 2.1541386 2.181444 -0.9806553 -1.2924128 2.104415 2.1324933 -1.306185
-1.2952864 2.0037775 2.1704082 -1.7562704 2.1066656 2.0905836 -1.857881 -1.577222
-1.7443064 2.091481 -1.4502882 2.1179924 -1.2562594 -1.4629756 -1.4249494 2.1156914
2.0498176 1.9802147 2.1229858 2.1137302 -1.6646061 2.0984268 -1.7411813 1.9955629
-1.6687909 -1.732699 1.7477752 2.0719113 2.1152906 -1.4253131 -1.6256152 2.1034837
-1.2346125 -1.8642877 2.1250196 2.1109757 2.2100792 2.1139152 -1.6225394 2.1250417
2.1107473 2.1348639 2.1365201 2.1147554 1.8942441 2.1282678 -1.4984586 -1.6845675
-1.710587 -1.0460225 -1.8145809 2.2498631 2.1211336 2.1184943 2.1200497 -2.02397
-1.6666231 2.1132026 -1.8752781 -1.8792 -1.4178923 2.1640377 2.1113873 -1.5692698
-1.9327743 1.9874839 2.090304 2.1032805 1.9145368 -1.8698792 2.1904733 -0.4252398
-1.3656937 2.1215415 -1.5940979 -1.8717505 -1.8684093 -1.5815178 2.1207023 2.121123
2.2519624 -1.6568569 2.2135468 2.0271916 1.525053 2.2581959 2.1176488 2.1164029
2.1083329 2.1077611 -1.7530435 -0.6011947 -1.629641 1.9208139 2.1053767 -1.3526928
-1.5247513 -1.6773572 -1.5058312 2.3568656 -1.4305863 2.1258676 1.965331 -1.7341578
2.0350382 -1.2914988 1.9893271 -1.6213189 2.1201932 2.118606 2.0146651 -1.621485
2.1957173 -1.8041344 -1.7775794 2.1499276 1.8740865 -1.3861777 -1.5462898 -1.2706835
2.1127033 2.712042 2.1338747 -1.1699216 1.5612547 -1.9134284 -1.1918031 2.1580448
1.848228 2.118405 2.1104174 -1.6099981 2.096063 -1.5614762 2.1158783 -1.6322886
-1.4489902 2.1417303 -1.4070134 2.0588102 -1.4355767 -1.8553325 2.0743709 -1.1716747
-1.3768462 2.1256998 2.1605623 -1.3984443 -1.7667613 1.9658701 1.8294146 2.1137505
00000000: 6821 febf 4dd4 c0bf 926b 0840 e3ef 0740
00000010: 267c 0240 3fa1 0940 bea4 0840 5e8f cdbf
00000020: 311c f03f 6ce1 01c0 14f3 edbf 9893 9fbf
00000030: 4327 c73f 16c5 eabf 5dbc e8bf c73c c5bf
00000040: f96e 0840 2b4c 73bf e98a 0640 c505 0740
00000050: b75a 0740 2cee debf eea1 0740 a014 0a40
00000060: c068 f73f bb4f 0940 b143 0840 9ccd 0640
00000070: df44 debf 46e1 0740 62ab debf 3b12 0240
00000080: 4fac d03f 5a19 0740 8c88 0b40 d6b8 e1bf
00000090: e8c4 e13e 173f aebf c90e b6bf c37a 0740
000000a0: 3b3a 78bf f68f ebbf 0a90 0540 c561 0840
000000b0: 063b d7bf 2b02 dbbf d20f 0a40 f72a 0940
000000c0: 4b46 1540 076d 0640 a5a9 0540 92d1 ddbf
000000d0: c450 e73f e6a8 bdbf 8048 0740 8bb7 b9bf
000000e0: e60f cb3f c188 e0bf f5de d73f 915f 0540
000000f0: 2446 a2bf 2216 cbbf a64a f6bf 06d8 0540
00000100: 7b55 0440 7af3 d0bf 2244 eebf 2d73 0940
00000110: d43b 0b40 b985 0840 09c0 dd3f 21fd eabf
00000120: 612d b7bf d9b5 0640 5140 f0bf 9056 e7bf
00000130: 93db d0bf 9137 ccbf 52e7 0440 7b63 d6bf
00000140: d643 dabf 6dfb 0740 8777 0240 d75c cf3f
00000150: 14ba c5bf 2dbb dcbf 88a4 e2bf ae78 0640
00000160: bad9 e03f 0b53 babf dcd9 0640 35a2 0640
00000170: 8efe 1040 abb3 0940 6e04 0a40 bb89 cfbf
00000180: 6891 d0bf 68dd 0940 c79c 0b40 3a0c 7bbf
00000190: c86d a5bf bcae 0640 c57a 0840 1231 a7bf
000001a0: f2cb a5bf e43d 0040 f8e7 0a40 78cd e0bf
000001b0: 9cd3 0640 1fcc 0540 0bcf edbf 69e2 c9bf
000001c0: 6f45 dfbf d3da 0540 0ba3 b9bf 308d 0740
000001d0: 1ccd a0bf c942 bbbf be64 b6bf 7d67 0740
000001e0: 3630 0340 ad77 fd3f 00df 0740 5b47 0740
000001f0: d011 d5bf a04c 0640 07df debf 9b6e ff3f
00000200: f19a d5bf 15c9 ddbf 19b7 df3f 329a 0440
00000210: ec60 0740 a970 b6bf 2914 d0bf 7a9f 0640
00000220: c807 9ebf fba0 eebf 5200 0840 3a1a 0740
00000230: f071 0d40 634a 0740 5faf cfbf af00 0840
00000240: 7c16 0740 9ca1 0840 bfbc 0840 2758 0740
00000250: 9776 f23f 8a35 0840 7ecd bfbf e89f d7bf
00000260: 84f4 dabf 11e4 85bf 3044 e8bf c2fd 0f40
00000270: a7c0 0740 6995 0740 e5ae 0740 b988 01c0
00000280: e853 d5bf b63e 0740 1d09 f0bf a089 f0bf
00000290: 7f7d b5bf 987f 0a40 f820 0740 d5dd c8bf
000002a0: 2665 f7bf df65 fe3f 8ac7 0540 269c 0640
000002b0: 8b0f f53f 3458 efbf b730 0c40 08b9 d9be
000002c0: 0dcf aebf 56c7 0740 660b ccbf 8595 efbf
000002d0: 0928 efbf 2d6f cabf 96b9 0740 7bc0 0740
000002e0: 2720 1040 e313 d4bf c0aa 0d40 82bd 0140
000002f0: f034 c33f 4886 1040 8f87 0740 2573 0740
00000300: edee 0640 8fe5 0640 bb63 e0bf e5e7 19bf
00000310: 1498 d0bf 3bdd f53f 7ebe 0640 0a25 adbf
00000320: 0d2b c3bf a4b3 d6bf 14bf c0bf e3d6 1640
00000330: 741d b7bf 370e 0840 f78f fb3f e2f8 ddbf
00000340: 113e 0240 d54f a5bf 45a2 fe3f 6187 cfbf
00000350: 3fb1 0740 3e97 0740 46f0 0040 d28c cfbf
00000360: a286 0c40 e0ed e6bf b987 e3bf 6a98 0940
00000370: 11e2 ef3f 456e b1bf d3ec c5bf c2a5 a2bf
00000380: 8836 0740 1992 2d40 6791 0840 febf 95bf
00000390: 32d7 c73f 39eb f4bf 018d 98bf 681d 0a40
000003a0: bc92 ec3f f393 0740 1411 0740 6b14 cebf
000003b0: e525 0640 74de c7bf 8d6a 0740 d5ee d0bf
000003c0: 8378 b9bf 1c12 0940 0419 b4bf 8cc3 0340
000003d0: fac0 b7bf 897b edbf 7ec2 0440 70f9 95bf
000003e0: 7f3c b0bf 770b 0840 a746 0a40 3900 b3bf
000003f0: 3c25 e2bf a2a1 fb3f 422a ea3f b047 0740

network.4.weight f4 [1, 256]
-0.3598538 -0.26336884 0.23152354 0.23325963 0.26572716 0.17727774 0.11610713 -0.16819665
1.199726 -0.80325985 -0.22374089 -0.66365534 0.4235643 -0.34921062 -0.25125524 -0.4423768
0.2667818 -0.38907006 0.2342489 0.20397964 0.2147174 -0.43883237 0.29092053 0.50017977
0.23319627 0.21282053 0.16522798 0.1864679 -0.5695124 0.15243304 -0.3145395 0.16245943
0.90438515 0.15076351 0.25287446 -0.21753603 1.9401107 -0.9898727 -0.35400006 0.23365209
-0.5892568 -0.244106 0.06546043 0.21430662 -0.33671606 -0.19598395 0.16759516 0.10578846
0.7113792 0.4413766 0.91918516 -0.49222106 1.1119492 -0.37791702 0.15833732 -0.61761004
0.4192952 -0.14718308 0.43119898 0.27465087 -0.8698699 -0.3005459 -0.09804914 0.08140744
0.13289355 -0.58402514 -0.19621682 0.13556643 0.1797313 0.1941529 0.2608048 -0.2180557
-0.37385753 0.22938217 -0.29183474 -0.20354412 -0.32051376 -0.21832998 0.25101238 -0.17970623
-0.22489429 0.22720401 0.32077578 0.40157154 -0.54023546 -0.25127795 -0.25529164 0.24763712
1.1196345 -0.5617123 0.16636445 0.27146113 1.2665857 0.3529371 0.1244829 -0.3169424
-0.34858873 0.24367817 0.13504627 -1.2578642 -0.5203782 0.20465548 0.30146694 -1.4323552
-1.137024 0.28230697 0.20284797 -0.49645898 0.189469 0.26088414 -0.23328196 -0.45695356
-0.6370927 0.20072053 -0.6601541 0.22011253 -1.0186561 -0.32139775 -1.3201642 0.26518503
0.20469736 0.31693107 0.24879603 0.17299797 -0.37925857 0.26064715 -0.24352424 1.2108881
-0.6796528 -0.29418188 1.1340446 0.44611907 0.37179413 -0.5534989 -0.2594167 0.18385912
-0.5712686 -0.56258255 0.13173005 0.2838672 0.14505781 0.16802272 -0.1315286 0.15364182
0.24033025 0.24482243 0.18651819 0.18327622 1.05307 0.25385702 -0.8466534 -0.28615844
-0.40368152 -0.768327 -0.13176127 0.27781445 0.2809186 0.18306917 0.22763568 -0.26026908
-0.29440293 0.12552418 -0.31793734 -0.18578465 -0.28537998 0.24266611 0.266747 -0.83226466
-0.15227982 0.64515865 0.19172601 0.17989582 0.5039378 -0.2966903 0.2138396 -1.2681695
-0.4905899 0.23421015 -0.3472121 -0.53848344 -0.10315653 -0.33517063 0.20239946 0.12276232
0.24937057 -0.6146532 0.31416225 0.28719193 0.3906874 0.6454318 0.229249 0.16385068
0.13894542 0.24595103 -0.32636586 -2.672738 -0.386336 1.0872755 0.21184954 -0.37653607
-0.5506051 -0.5797283 -0.27600014 0.7302465 -0.3888817 0.16811767 0.31193167 -0.3335883
0.21196216 -0.31525242 0.2098466 -0.42012042 0.27333328 0.19132183 0.4747183 -0.16580859
0.13299489 -0.32949972 -0.555247 0.14050998 0.42965743 -0.20251699 -0.31985122 -1.1956376
0.24349074 1.2935246 0.16085486 -0.80152386 0.46536383 -0.50827026 -1.1900244 0.16630821
0.3633099 0.17594446 0.24171688 -0.19254687 0.2309589 -1.1999946 0.10348443 -0.2398791
-0.7555163 0.45205474 -0.5992998 0.123273596 -0.28183448 -0.21749267 0.2610286 -0.2832292
-0.84541774 0.27358723 0.27123383 -0.7131473 -0.33668157 0.43979502 0.3797604 0.1828615
00000000: c23e b8be 48d8 86be 8214 6d3e 9ddb 6e3e
00000010: 640d 883e 4c88 353e 93c9 ed3d be3b 2cbe
00000020: 9f90 993f 70a2 4dbf 551c 65be 51e5 29bf
00000030: 6cdd d83e bccb b2be 87a4 80be 367f e2be
00000040: a097 883e 3134 c7be f2de 6f3e 0ae0 503e
00000050: e1de 5b3e a3ae e0be 89f3 943e c80b 003f
00000060: 01cb 6e3e a0ed 593e 8631 293e 71f1 3e3e
00000070: 91cb 11bf 6817 1c3e 520b a1be c45b 263e
00000080: c985 673f c061 1a3e c378 813e c4c1 5ebe
00000090: 8c55 f83f 4c68 7dbf 7f3f b5be 7e42 6f3e
000000a0: 89d9 16bf ecf6 79be 1e10 863d 3273 5b3e
000000b0: 0c66 acbe 04b0 48be 119e 2b3e 9fa7 d83d
000000c0: f21c 363f 1dfc e13e b84f 6b3f 6604 fcbe
000000d0: 5a54 8e3f 577e c1be 2e23 223e b11b 1ebf
000000e0: dcad d63e 29b7 16be 1dc6 dc3e 0a9f 8c3e
000000f0: cbaf 5ebf 27e1 99be fdcd c8bd f2b8 a63d
00000100: 3f15 083e ac82 15bf 10ed 48be edd1 0a3e
00000110: 7b0b 383e 05d0 463e 3588 853e fe49 5fbe
00000120: 416a bfbe 29e3 6a3e 5d6b 95be df6d 50be
00000130: 611a a4be e591 5fbe b284 803e e904 38be
00000140: b04a 66be 2ba8 683e b93c a43e c99a cd3e
00000150: df4c 0abf 81a7 80be 96b5 82be 9694 7d3e
00000160: 2f50 8f3f 61cc 0fbf 715b 2a3e f4fc 8a3e
00000170: 7b1f a23f 2cb4 b43e e4f0 fe3d 4646 a2be
00000180: 397a b2be c586 793e 9249 0a3e b201 a1bf
00000190: 8137 05bf 3591 513e e059 9a3e 6a57 b7bf
000001a0: 018a 91bf 8a8a 903e 61b7 4f3e df2f febe
000001b0: 2904 423e 9b92 853e 77e1 6ebe d1f5 e9be
000001c0: 8218 23bf af89 4d3e dcff 28bf 2e65 613e
000001d0: 5363 82bf 3f8e a4be 24fb a8bf 55c6 873e
000001e0: 2f9c 513e ca44 a23e 63c4 7e3e 6126 313e
000001f0: 2e2e c2be 8b73 853e 6b5e 79be 62fe 9a3f
00000200: bafd 2dbf 029f 96be 6028 913f b869 e43e
00000210: cd5b be3e 1bb2 0dbf 44d2 84be 9145 3c3e
00000220: a93e 12bf 6905 10bf 3ee4 063e 0b57 913e
00000230: 098a 143e 260e 2c3e 6faf 06be 4854 1d3e
00000240: 2219 763e bbb2 7a3e a0fe 3e3e c3ac 3b3e
00000250: ffca 863f 8cf9 813e 47be 58bf 5c83 92be
00000260: 58af cebe 14b1 44bf 6dec 06be b23d 8e3e
00000270: 90d4 8f3e 7c76 3b3e 5419 693e fd41 85be
00000280: fbbb 96be 6989 003e afc8 a2be 553e 3ebe
00000290: 531d 92be 777d 783e 1093 883e 4c0f 55bf
000002a0: 3eef 1bbe 1e29 253f d353 443e 9c36 383e
000002b0: 1102 013f cae7 97be c5f8 5a3e 6153 a2bf
000002c0: 992e fbbe c9d4 6f3e c9c5 b1be 0dda 09bf
000002d0: bb43 d3bd 7c9b abbe ce41 4f3e d06a fb3d
000002e0: 005b 7f3e ea59 1dbf e0d9 a03e d20a 933e
000002f0: 2e08 c83e 053b 253f 40c0 6a3e 79c8 273e
00000300: b547 0e3e 96da 7b3e 6d19 a7be 240e 2bc0
00000310: d5cd c5be d82b 8b3f 16ef 583e 56c9 c0be
00000320: 75f4 0cbf 1369 14bf e44f 8dbe 6ff1 3a3f
00000330: 811b c7be 0a27 2c3e 82b5 9f3e 16cc aabe
00000340: 9c0c 593e c468 a1be 07e2 563e 061a d7be
00000350: 57f2 8b3e dfe9 433e 470e f33e bac9 29be
00000360: d02f 083e 30b4 a8be ab24 0ebf d9e1 0f3e
00000370: 0ffc db3e 9d60 4fbe 8ac3 a3be a70a 99bf
00000380: a355 793e 3792 a53f 23b7 243e ab30 4dbf
00000390: 2b44 ee3e 001e 02bf b852 98bf b34c 2a3e
000003a0: c103 ba3e c92a 343e a184 773e 022b 45be
000003b0: 7d80 6c3e 6c99 99bf a5ef d33d dea2 75be
000003c0: 8469 41bf b873 e73e b66b 19bf de76 fc3d
000003d0: 9c4c 90be 66b6 5ebe 8aa5 853e 6b03 91be
000003e0: 4c6d 58bf a013 8c3e 29df 8a3e d290 36bf
000003f0: 8761 acbe d02c e13e f56f c23e 0c40 3b3e
