models/critic_900000.pt (torch, 291588 bytes, 5 tensors)

network.0.weight f4 [256, 23]
-0.24571925 -1.5843365 1.1479878 1.7344053 0.11554103 -1.1262318 -0.5926812 -0.23144026
0.16470149 0.500307 -0.32766238 0.30684865 -0.019193819 -0.29910406 -0.123994656 -0.032285072
0.11141974 -1.2332066 1.4928062 -0.71694595 -0.81477624 0.22107407 -0.24772826 5.4564347
1.5202708 -0.116451316 0.8601408 -1.0956017 0.011874314 0.012190345 1.6247901 -0.3206379
0.7398961 1.1344775 -0.20922647 0.23379631 0.09339324 0.3624534 0.1484973 -0.23182072
0.7624126 0.25188264 -1.0994493 0.8350126 -0.2924032 0.75820976 -6.167076 -0.28863513
-0.07119663 0.41541338 0.34966698 0.05951513 -0.53707993 -0.05129659 0.20846798 -0.75504667
0.05196948 -0.24863333 -0.20490727 -0.23850872 -0.2856566 -0.20633307 -0.15436438 -0.5505178
0.4346234 -0.5527291 -0.78188515 -0.15385331 0.9875365 0.8444063 -0.43004256 0.33918083
-0.013575548 -0.55506307 -0.4412163 -0.38411677 -0.22421893 -0.11473106 -1.3064167 -0.42675006
-0.15005802 -0.33449942 0.26806992 -0.17322217 0.038866073 0.048356846 0.15503079 -0.2643861
0.39451334 -0.73643285 0.030788917 0.7050508 -3.1967213 0.54807776 0.39230445 0.05851179
-0.36699685 -0.29575562 0.05383188 0.50989133 -0.25112346 -0.31685257 0.66734725 0.14400245
-0.021306427 0.31890357 -0.014457703 -0.14243948 -0.124184534 0.9566844 0.6521506 0.32339758
0.11636783 -0.521923 -1.0028014 -0.026937043 2.4426367 -0.79109174 -0.60728836 0.7228879
-0.6248401 0.07164628 0.382426 -0.18520398 -1.1733007 -0.36582515 0.058408003 -0.31794244
0.18309593 -0.042048376 0.27711952 -0.25278664 -0.04680149 -1.1130033 0.4064089 -0.5703067
-0.49029714 -1.0267239 0.6134445 -3.567255 1.7777529 0.59748834 0.3192577 1.1767111
0.31502616 0.24006186 0.17536509 -0.076751284 -0.820343 -0.14947395 -0.18757586 0.09810798
-0.22396985 -0.004552771 0.06747849 -0.416193 0.9160355 0.46747136 -1.3919162 0.02917591
-0.53616047 2.971438 0.46818098 -0.15042955 -0.4535547 0.55649316 1.020131 -0.5505803
-0.6266022 0.009268008 0.8154515 -0.23020044 0.042568926 -0.28378245 0.291456 0.12674895
0.3087715 0.26994878 0.18404287 -0.15854456 -0.8789391 -0.06029743 0.2876183 0.036659457
-1.7179073 1.1038585 -0.7480481 0.80843174 -0.35593465 -0.22011569 0.49260193 0.11756166
0.13511634 -1.2146232 0.1910171 -0.0039168447 -0.027683685 0.22853015 0.13261063 0.17263687
-0.2211782 0.77703476 -0.19218999 0.59389895 -0.5257849 0.15119804 0.14355226 1.2807859
-0.50197726 -0.74882275 -0.76624006 -0.25153205 -0.60201836 0.28004143 0.10951179 0.045174725
0.0397923 -0.27113646 -0.4241653 -0.24605097 -0.19766143 0.41420233 -0.0028724927 -0.211676
0.37897313 0.5260023 -0.16297585 0.33213833 0.1195595 -0.24273047 0.1749885 -0.7522788
-0.09279256 0.2715658 -0.16532782 0.026728885 0.5518452 -0.48301962 0.122134805 -0.23694873
-0.109780595 0.22616187 -0.043458708 -0.12115404 -0.0077128247 0.107127056 0.099484086 0.6541015
0.0056843637 0.34116203 -0.10417862 -0.14217015 0.4556404 -1.9886066 0.4324982 0.94565505
00000000: d49d 7bbe 8acb cabf 44f1 923f fe00 de3f
00000010: c7a0 ec3d 5d28 90bf f5b9 17bf adfe 6cbe
00000020: 82a7 283e 1f14 003f 5dc3 a7be 441b 9d3e
00000030: 5b3c 9dbc 2b24 99be e9f0 fdbd 5a3d 04bd
00000040: 0830 e43d b7d9 9dbf 4614 bf3f c589 37bf
00000050: 2d95 50bf 3e61 623e 7aac 7dbe 1d9b ae40
00000060: 3c98 c23f 077e eebd 3032 5c3f ad3c 8cbf
00000070: 7c8c 423c 03ba 473c 1ff9 cf3f a72a a4be
00000080: d569 3d3f 8f36 913f 773f 56be 4d68 6f3e
00000090: f444 bf3d 7e93 b93e ad0f 183e 6962 6dbe
000000a0: 792d 433f c3f6 803e c1ba 8cbf 63c3 553f
000000b0: dfb5 95be 091a 423f b058 c5c0 fcc7 93be
000000c0: 8acf 91bd 10b1 d43e 8d07 b33e 23c6 733d
000000d0: 127e 09bf 601c 52bd a178 553e bd4a 41bf
000000e0: f3dd 543d bc99 7ebe 36d3 51be a13b 74be
000000f0: 9541 92be fa48 53be b211 1ebe bcee 0cbf
00000100: f586 de3e a87f 0dbf a029 48bf b98b 1dbe
00000110: 31cf 7c3f 032b 583f 8a2e dcbe 1ca9 ad3e
00000120: fa6b 5ebc 9d18 0ebf 1ae7 e1be f4aa c4be
00000130: a699 65be 1ef8 eabd aa38 a7bf fc7e dabe
00000140: cfa8 19be 8243 abbe 7640 893e 2761 31be
00000150: 0832 1f3d d411 463d 64c0 1e3e 9d5d 87be
00000160: a7fd c93e dd86 3cbf 0a39 fc3c 367e 343f
00000170: 1597 4cc0 d34e 0c3f 21dc c83e 0faa 6f3d
00000180: 03e7 bbbe 486d 97be d17e 5c3d 3d88 023f
00000190: 4193 80be 803a a2be 45d7 2a3f 6175 133e
000001a0: d18a aebc 5447 a33e 00e0 6cbc a8db 11be
000001b0: 7654 febd 45e9 743f 57f3 263f 5e94 a53e
000001c0: 4252 ee3d bf9c 05bf cc5b 80bf 13ab dcbc
000001d0: 2954 1c40 fd84 4abf 4077 1bbf 2e0f 393f
000001e0: 85f5 1fbf 49bb 923d 57cd c33e 1da6 3dbe
000001f0: b82e 96bf 6f4d bbbe 3b3d 6f3d 5ac9 a2be
00000200: 807d 3b3e eb3a 2cbd 9ce2 8d3e 406d 81be
00000210: ebb2 3fbd e476 8ebf d414 d03e 9fff 11bf
00000220: 3a08 fbbe b06b 83bf b30a 1d3f e84d 64c0
00000230: 688d e33f fff4 183f bf75 a33e 789e 963f
00000240: 1c4b a13e c7d2 753e e892 333e c72f 9dbd
00000250: 0002 52bf b30f 19be e313 40be d6ec c83d
00000260: 5a58 65be 692f 95bb 2a32 8a3d 4017 d5be
00000270: 4d81 6a3f 6858 ef3e 4f2a b2bf 5102 ef3c
00000280: d041 09bf 0a2c 3e40 6bb5 ef3e 340a 1abe
00000290: 5238 e8be 5676 0e3f a793 823f d5f2 0cbf
000002a0: 0069 20bf d8d8 173c 6ec1 503f aab9 6bbe
000002b0: c15c 2e3d ef4b 91be b939 953e 7aca 013e
000002c0: 4c17 9e3e ba36 8a3e bc75 3c3e 8159 22be
000002d0: 2702 61bf 70fa 76bd b542 933e 3a28 163d
000002e0: 63e4 dbbf 3c4b 8d3f 1580 3fbf 62f5 4e3f
000002f0: 113d b6be 0266 61be 5236 fc3e 2bc4 f03d
00000300: f05b 0a3e c678 9bbf fd99 433e e058 80bb
00000310: e5c8 e2bc cf03 6a3e 15cb 073e b8c7 303e
00000320: 8a7c 62be c0eb 463f 74cd 44be c309 183f
00000330: d799 06bf a9d3 1a3e 5dff 123e cbf0 a33f
00000340: 9581 00bf d9b2 3fbf 4f28 44bf cfc8 80be
00000350: e01d 1abf 9761 8f3e b847 e03d 2209 393d
00000360: 40fd 223d 66d2 8abe 322c d9be c9f4 7bbe
00000370: c267 4abe 5412 d43e 6e40 3cbb 98c1 58be
00000380: c408 c23e 16a8 063f 24e3 26be 090e aa3e
00000390: 9cdb f43d 568e 78be 2f30 333e 5895 40bf
000003a0: 070a bebd ac0a 8b3e b24b 29be 89f6 da3c
000003b0: ba45 0d3f 594e f7be d021 fa3d b0a2 72be
000003c0: a6d4 e0bd fa96 673e c201 32bd 9c1f f8bd
000003d0: ddbb fcbb 6e65 db3d 50be cb3d 3273 273f
000003e0: e643 ba3b caac ae3e 9a5b d5bd 0d95 11be
000003f0: b349 e93e a98a febf 6770 dd3e 7316 723f

network.0.bias f4 [256]
-1.2938236 -1.2562716 1.6332783 -1.7005595 1.539345 -1.7058512 -1.4042023 1.7683038
1.8157561 2.0958815 2.1997876 -1.2536443 2.0779219 -1.8061517 -1.6097919 1.7101518
1.9102774 -1.4865706 -1.7957292 1.9442894 1.7110198 1.062805 0.72939897 -0.97159415
1.5465134 1.8437709 -0.11734194 1.8016595 1.834256 -1.5988376 -1.680043 -1.0030352
1.8191025 1.9672567 1.4947395 1.7311361 -1.6620127 -1.8668814 2.0745838 2.133878
-1.7323612 -1.6275219 1.9120623 -1.7711446 -1.5929475 1.4653406 -1.3233918 1.953596
-1.6232536 2.4381137 1.7219256 2.0379496 -2.0001507 1.8833548 -1.490412 -1.7806135
1.9161379 0.27247372 1.9169768 -1.7177882 -1.5796461 -1.6836494 1.5857377 -1.7737783
2.0368593 1.8758847 -0.99890137 1.595083 -1.8761274 -0.894353 -1.7682941 -1.4528675
1.9968902 2.1109648 -1.6480918 1.6979419 1.8028449 -1.531915 2.0982883 1.0958378
1.4455609 -1.5505577 1.2174537 2.101913 1.9632905 -1.4750291 2.1652737 1.607969
-1.1230736 1.7179384 -1.7942437 1.6969432 1.860855 2.267905 1.8731601 1.6145287
2.0782225 1.927837 1.8055924 -1.6989466 -1.5607383 -1.5081728 -1.654524 1.8184507
-0.71187836 1.9488937 -1.5039128 1.9407761 -1.2532223 1.2084535 1.6763997 -1.5717254
1.6743038 2.0871146 2.010802 -1.6621867 -1.7829758 -1.7911699 -0.5658812 1.9391462
1.8699416 2.0158308 -1.0211321 -1.9353709 2.033434 1.9345315 -1.6712174 -1.3829626
-1.6316957 -1.6603421 -1.6270522 -1.0636963 2.1167305 -1.4917586 1.836572 1.8751826
-1.393959 1.9860414 -1.3348713 -1.2178569 1.4502107 1.470893 -1.5427455 2.156126
1.940167 -0.38162994 -1.9589869 1.6347997 -0.7916525 -1.5918553 -0.89253527 -1.1247674
2.081242 -1.4957776 1.9672887 -0.945482 2.0335436 1.8681365 1.9950441 1.9567472
2.0853739 2.1151361 1.724963 2.3689911 1.6332633 -1.5667791 1.7123549 2.0413263
2.063722 -1.4328488 -0.88421845 2.9812775 -1.1965905 0.374283 1.7472873 -1.6679293
-1.2859808 -1.3911824 2.0701118 -1.580095 1.891255 1.6524796 -1.6486748 0.98515266
-1.7783334 1.7406766 1.8409078 2.1705549 1.996217 1.4923878 2.0731523 -0.84851044
2.0515487 -1.2777714 1.8768002 1.5309982 -1.5287242 1.849337 -1.5194309 1.8667598
1.9080695 1.8944355 -1.741499 1.570764 1.8243188 -1.7705498 1.9460418 -1.7534755
0.9976111 -1.8710389 2.5246506 2.2935684 -0.59578663 -1.7343922 2.1027594 1.829687
-1.467681 -0.6006778 1.9413555 1.2620151 1.9425911 -1.4217254 1.6250095 2.091947
2.1599474 -1.7640798 2.0108726 -1.7753717 -1.6815627 2.0454152 -1.7492179 1.8542119
1.9660556 2.0351865 2.0915601 -1.7904882 2.3393917 -1.7010212 1.848501 1.8667991
1.824354 -1.9015619 2.0026336 2.0487444 -1.4473679 -1.2527993 2.0169628 -1.9300753
-1.4737693 1.800851 1.9876739 -1.6450181 1.8267494 -1.6772779 1.9567502 1.934006
00000000: 039c a5bf 82cd a0bf 430f d13f efab d9bf
00000010: 4209 c53f 5559 dabf e7bc b3bf c757 e23f
00000020: b26a e83f ec22 0640 52c9 0c40 6b77 a0bf
00000030: acfc 0440 fb2f e7bf a90d cebf 41e6 da3f
00000040: f883 f43f f247 bebf 74da e5bf 7ade f83f
00000050: b202 db3f ff09 883f e4b9 3a3f 65ba 78bf
00000060: 27f4 c53f af00 ec3f f950 f0bd c79c e63f
00000070: e7c8 ea3f b6a6 ccbf a60b d7bf 7563 80bf
00000080: 5ad8 e83f 11cf fb3f a053 bf3f de95 dd3f
00000090: d5bc d4bf f8f5 eebf fbc5 0440 7591 0840
000000a0: 03be ddbf a352 d0bf 75be f43f deb4 e2bf
000000b0: b4e5 cbbf 4890 bb3f e764 a9bf 6f0f fa3f
000000c0: c6c6 cfbf 0e0a 1c40 0f68 dc3f c46d 0240
000000d0: 7802 00c0 c511 f13f d2c5 bebf 25eb e3bf
000000e0: 0244 f53f ad81 8b3e 7f5f f53f 7ce0 dbbf
000000f0: d831 cabf d381 d7bf 74f9 ca3f 2b0b e3bf
00000100: e75b 0240 fd1c f03f 00b8 7fbf ae2b cc3f
00000110: f124 f0bf 51f4 64bf 7657 e2bf 90f7 b9bf
00000120: 199a ff3f 0c1a 0740 acf4 d2bf 2956 d93f
00000130: 9fc3 e63f ca15 c4bf 5b4a 0640 6a44 8c3f
00000140: 2408 b93f ad78 c6bf 86d5 9b3f be85 0640
00000150: 1a4d fb3f c1cd bcbf d893 0a40 eed1 cd3f
00000160: e0c0 8fbf 68e5 db3f c7a9 e5bf 6f35 d93f
00000170: 7f30 ee3f 5b25 1140 b6c3 ef3f e0a8 ce3f
00000180: 9901 0540 5dc3 f63f a71d e73f 1577 d9bf
00000190: 46c6 c7bf ce0b c1bf 71c7 d3bf fec2 e83f
000001a0: a93d 36bf 5975 f93f 3780 c0bf 5a6b f83f
000001b0: 9769 a0bf 9bae 9a3f 4494 d63f 4c2e c9bf
000001c0: 964f d63f 4993 0540 fbb0 0040 89c2 d4bf
000001d0: 8d38 e4bf 0e45 e5bf 97dd 10bf f135 f83f
000001e0: 3f5a ef3f 5f03 0140 75b4 82bf 3cba f7bf
000001f0: c823 0240 ba9e f73f 74ea d5bf eb04 b1bf
00000200: 68db d0bf 1786 d4bf 3f43 d0bf 3327 88bf
00000210: 8378 0740 f2f1 bebf cb14 eb3f fc05 f03f
00000220: 406d b2bf 9b36 fe3f 10dd aabf bce2 9bbf
00000230: 81a0 b93f 3946 bc3f af78 c5bf f8fd 0940
00000240: 6457 f83f 0065 c3be 15c0 fabf 1e41 d13f
00000250: bda9 4abf eac1 cbbf 317d 64bf 61f8 8fbf
00000260: 1233 0540 a475 bfbf 1ed0 fb3f 1c0b 72bf
00000270: 9425 0240 191f ef3f 9b5d ff3f b176 fa3f
00000280: c476 0540 645e 0740 96cb dc3f 8d9d 1740
00000290: c60e d13f 388c c8bf 722e db3f 17a5 0240
000002a0: 0514 0440 9767 b7bf 245c 62bf 40cd 3e40
000002b0: e129 99bf 05a2 bf3e 1ca7 df3f b57e d5bf
000002c0: 059b a4bf 4412 b2bf b67c 0440 8e40 cabf
000002d0: a514 f23f 7484 d33f c707 d3bf f732 7c3f
000002e0: 6ea0 e3bf 7ece de3f dea2 eb3f 5fea 0a40
000002f0: 0a84 ff3f 9006 bf3f 87ae 0440 fb37 59bf
00000300: 934c 0340 038e a3bf fd3a f03f c0f7 c33f
00000310: 3cad c3bf 13b7 ec3f b67c c2bf fcf1 ee3f
00000320: 9f3b f43f dd7c f23f 70e9 debf cb0e c93f
00000330: 4783 e93f 60a1 e2bf e617 f93f e371 e0bf
00000340: 7163 7f3f 347e efbf e093 2140 d3c9 1240
00000350: 7985 18bf 9000 debf 9c93 0640 2f33 ea3f
00000360: f9dc bbbf 05c6 19bf 567e f83f b689 a13f
00000370: d3a6 f83f 19fb b5bf 5000 d03f 76e2 0540
00000380: 943c 0a40 5ecd e1bf 23b2 0040 613f e3bf
00000390: 723d d7bf 15e8 0240 5fe6 dfbf d156 ed3f
000003a0: b6a7 fb3f 7f40 0240 1fdc 0540 b82e e5bf
000003b0: 98b8 1540 10bb d9bf ae9b ec3f 46f3 ee3f
000003c0: 6f84 e93f 6166 f3bf 262b 0040 a11e 0340
000003d0: 5a43 b9bf ba5b a0bf eb15 0140 b50c f7bf
000003e0: 79a4 bcbf 4982 e63f 196c fe3f f48f d2bf
000003f0: edd2 e93f 0bb1 d6bf ca76 fa3f 828d f73f

network.2.weight f4 [256, 256]
0.093757614 0.18204707 -0.07272389 0.2193958 -0.13197234 -0.037069056 0.052753784 -0.034955755
0.030089326 -0.103075095 -0.15201806 0.023988329 -0.25963068 0.17934625 0.2145657 0.04704593
-0.030513115 -0.13519447 -0.01292497 0.045409046 0.054885812 -0.0597521 0.18869334 0.1537293
0.17499253 -0.047076598 0.16369508 -0.15256205 0.18056111 0.240145 0.30972385 0.06368079
0.088667676 -0.14604264 0.1474983 0.14531371 0.05342319 0.21361722 0.009053732 -0.19978052
0.019761736 -0.26193634 -0.021447405 0.17532437 0.19737999 -0.0010725701 -0.2877215 0.17833792
0.23539107 -0.5824911 -0.088659436 -0.14137717 -0.072178185 -0.05848165 0.028236778 -0.03942867
-0.08095818 -0.20418347 -0.195398 0.18013483 0.036106247 0.34169742 -0.042491768 0.25001365
-0.0028927147 0.09417055 0.022092257 0.09990088 -0.09598324 0.0397549 0.054740444 0.21120475
-0.12360816 -0.12928255 0.32278222 0.12269203 -0.28046596 0.12103654 0.053028077 -0.095049046
-0.04145855 0.19683696 -0.42239124 -0.038682286 0.07877243 0.13954201 -0.07525596 -0.044336706
-0.09148427 -0.113640934 0.30989793 -0.11310019 0.07431091 0.018175263 -0.44637257 0.00171654
-0.2250804 0.11222231 0.06151317 -0.17119104 0.23066628 -0.120904475 -0.06390535 -0.0719497
-0.18183284 -0.266549 -0.08171 0.043589983 -0.032872178 0.037224445 0.069645405 -0.04857936
-0.07504616 0.15566756 -0.04668226 0.10290132 0.0751822 0.32251054 0.23274207 -0.019321162
-0.17506215 -0.14501198 0.26387563 0.21051808 0.027385987 -0.20968263 -0.07890277 0.3055331
0.29982582 0.14774173 -0.13781577 -0.35142285 -0.13463448 0.6794799 0.110963404 -0.042282756
0.04796158 -0.10919347 -0.113240466 -0.0120924255 0.040523354 0.20168985 0.0024664872 0.113079146
0.11761008 -0.11185094 0.22554019 -0.39020726 0.1537557 0.17684141 -0.2688091 -0.1230216
-0.1125122 0.07414839 0.024708487 0.51442647 -0.13096127 0.08084914 -0.0652578 0.25583255
0.046283726 0.07137877 0.10294877 -0.31623977 -0.058635123 0.09289882 0.1656688 0.2942867
0.063497715 -0.046091862 0.5106016 -0.7121937 -0.30796573 -0.07723568 0.000588931 0.015282334
0.2392737 0.110750176 0.025882205 0.12568721 -0.08573674 -0.4064103 0.24096674 -0.30007648
0.10050509 -0.0631689 -0.24222413 0.033818413 -0.13604438 0.18911399 0.13683595 -0.008171242
-0.08830486 0.10491099 -0.011964445 -0.03954811 0.43632853 -0.06343358 0.11026237 0.10127734
0.19395861 -0.12544933 -0.29040736 -0.33206803 0.2608284 0.10932966 0.12279611 -0.30302054
0.05186405 0.15601078 -0.3512778 -0.2776356 0.14954838 0.22267903 -0.13916461 -0.016780693
0.09917915 0.13525008 0.06079558 -0.16137221 -0.04026457 -0.112845264 0.18552601 0.08390995
-0.19497068 -0.22433294 -0.33614856 0.2299065 0.059440278 -0.23613349 0.1604054 0.017143227
0.082520634 -0.009074342 -0.3621887 0.23049334 -0.1663884 0.35117817 -0.043666422 0.20087862
0.2763158 -0.0028795123 0.015510385 0.04663932 0.0013698232 -0.2831181 0.16074859 0.08403465
-0.010289854 -0.20198703 -0.0073784282 0.24326201 -0.11973706 0.32423553 -0.07057346 -0.016806046
00000000: fe03 c03d 8c6a 3a3e 43f0 94bd 4ba9 603e
00000010: c223 07be b9d5 17bd 5a14 583d c42d 0fbd
00000020: e47d f63c 0919 d3bd 9faa 1bbe 2c83 c43c
00000030: 50ee 84be 8ba6 373e 1cb7 5b3e 3cb3 403d
00000040: a4f6 f9bc 6b70 0abe 41c3 53bc d6fe 393d
00000050: f2cf 603d 9ebe 74bd d438 413e 376b 1d3e
00000060: 3e31 333e 64d3 40bd af9f 273e 3a39 1cbe
00000070: 03e5 383e 92e8 753e 2094 9e3e 136b 823d
00000080: 6697 b53d 348c 15be cb09 173e 1ecd 143e
00000090: 46d2 5a3d 79be 5a3e 1b56 143c 4493 4cbe
000000a0: 5de3 a13c 851c 86be 78b2 afbc 3b88 333e
000000b0: fb1d 4a3e 7b95 8cba 3c50 93be 379e 363e
000000c0: 5b0a 713e 231e 15bf 1493 b5bd 2dc5 10be
000000d0: 28d2 93bd 748a 6fbd d150 e73c f57f 21bd
000000e0: 67cd a5bd 7915 51be 6a16 48be 4475 383e
000000f0: 25e4 133d f7f2 ae3e d90b 2ebd ca01 803e
00000100: b393 3dbb 7ddc c03d d2fa b43c d598 cc3d
00000110: dc92 c4bd 09d6 223d 8437 603d 0f46 583e
00000120: 4626 fdbd a562 04be b643 a53e f645 fb3d
00000130: 3c99 8fbe 01e2 f73d f833 593d 13a9 c2bd
00000140: 71d0 29bd a18f 493e aa43 d8be 5171 1ebd
00000150: 7153 a13d 1ae4 0e3e cc1f 9abd 689a 35bd
00000160: 1b5c bbbd 94bc e8bd f1aa 9e3e 13a1 e7bd
00000170: 5230 983d 4ae4 943c f28a e4be 86fd e03a
00000180: 7a7b 66be cfd4 e53d 3cf5 7b3d b44c 2fbe
00000190: c833 6c3e c49c f7bd cfe0 82bd 5d5a 93bd
000001a0: 6332 3abe 1c79 88be 9357 a7bd 698b 323d
000001b0: faa4 06bd a978 183d 40a2 8e3d 27fb 46bd
000001c0: cdb1 99bd 5167 1f3e e635 3fbd edbd d23d
000001d0: 20f9 993d 1a20 a53e f053 6e3e 6a47 9ebc
000001e0: 7e43 33be 057e 14be b51a 873e 0d92 573e
000001f0: 9458 e03c 0bb7 56be c797 a1bd d66e 9c3e
00000200: c582 993e 9c49 173e 941f 0dbe b2ed b3be
00000210: 9fdd 09be 65f2 2d3f c840 e33d af30 2dbd
00000220: 5d73 443d d3a0 dfbd 9eea e7bd 4f1f 46bc
00000230: d1fb 253d c987 4e3e caa4 213b 0a96 e73d
00000240: 8edd f03d 1b12 e5bd 02f4 663e 3fc9 c7be
00000250: 2272 1d3e ea15 353e 59a1 89be c0f2 fbbd
00000260: cc6c e6bd 1cdb 973d 7469 ca3c 74b1 033f
00000270: b61a 06be 3c94 a53d e2a5 85bd 7cfc 823e
00000280: 0194 3d3d 082f 923d ced6 d23d 2eea a1be
00000290: 622b 70bd bd41 be3d 15a5 293e bfac 963e
000002a0: 170b 823d d2ca 3cbd c9b6 023f 5452 36bf
000002b0: afad 9dbe bd2d 9ebd 7e62 1a3a c162 7a3c
000002c0: 2a04 753e fdd0 e23d eb06 d43c 26b4 003e
000002d0: be96 afbd 0315 d0be fcbf 763e a0a3 99be
000002e0: 9dd5 cd3d b25e 81bd 9a09 78be 2d85 0a3d
000002f0: 384f 0bbe 19a7 413e b91e 0c3e ace0 05bc
00000300: 2ed9 b4bd 93db d63d 8506 44bc 33fd 21bd
00000310: 7466 df3e 77e9 81bd 3dd1 e13d 7e6a cf3d
00000320: 169d 463e ca75 00be 46b0 94be d204 aabe
00000330: 4d8b 853e 3be8 df3d 877c fb3d 8225 9bbe
00000340: 666f 543d 4ac1 1f3e afda b3be 4126 8ebe
00000350: 3623 193e f905 643e 2b81 0ebe aa77 89bc
00000360: 701e cb3d ff7e 0a3e c904 793d c23e 25be
00000370: 76ec 24bd 6b1b e7bd 88fa 3d3e fbd8 ab3d
00000380: 65a6 47be 89b7 65be aa1b acbe 9c6c 6b3e
00000390: a677 733d facc 71be 5041 243e f46f 8c3c
000003a0: 9400 a93d 8dac 14bc cc70 b9be 7206 6c3e
000003b0: b961 2abe a0cd b33e 90db 32bd 20b3 4d3e
000003c0: 4479 8d3e 33b6 3cbb 451f 7e3c df08 3f3d
000003d0: a48b b33a dbf4 90be 479b 243e 5c1a ac3d
000003e0: c796 28bc b0d5 4ebe bec6 f1bb ad19 793e
000003f0: b438 f5bd 3302 a63e d188 90bd d5ac 89bc

network.2.bias f4 [256]
-2.0980132 -1.5946103 2.2472842 2.239814 2.1509748 2.2646155 2.2455254 -1.7081404
1.9316653 -2.144654 -1.9702705 -1.2962073 1.6519074 -1.9268516 -1.9388391 -1.6561184
2.2482252 -1.0179846 2.2180386 2.228337 2.2302868 -1.8446903 2.2386994 2.2787247
2.0319219 2.2608204 2.2412531 2.2207975 -1.8315556 2.2361422 -1.8605503 2.1363845
1.6651274 2.2238493 2.2934017 -1.8770998 0.32838967 -1.3805672 -1.5111308 2.2326913
-1.019785 -1.965615 2.1869893 2.240685 -1.7934538 -1.8326689 2.2671053 2.2525923
2.3962007 2.202266 2.1601598 -1.8492379 1.887815 -1.5752662 2.227161 -1.5214878
1.6939514 -1.8755132 1.7707633 2.1946516 -1.3109124 -1.664723 -2.0337799 2.196381
2.179311 -1.6975832 -1.9793601 2.2596927 2.288335 2.2479372 1.8349801 -1.951657
-1.5078629 2.2205858 -1.995838 -1.9111357 -1.7302588 -1.7085009 2.190936 -1.7734019
-1.8152832 2.240396 2.1528609 1.7107799 -1.6380591 -1.8447062 -1.8729544 2.2136
1.8450073 -1.5382733 2.2207658 2.220109 2.3545766 2.2648904 2.2677555 -1.7322828
-1.7080383 2.2701576 2.2967608 -1.0068825 -1.3937266 2.2194905 2.2512126 -1.3306433
-1.3841311 2.0961647 2.2854462 -1.8594458 2.2212627 2.198073 -1.9570946 -1.682319
-1.8449888 2.2051134 -1.5304303 2.233453 -1.2682852 -1.5569606 -1.4774519 2.2321134
2.1568763 2.0926118 2.239093 2.2276928 -1.7690696 2.2147787 -1.8407813 2.0429265
-1.7525568 -1.81961 1.8351476 2.1796675 2.2161453 -1.4795283 -1.7130735 2.2178745
-1.2937264 -1.9681405 2.2367983 2.2276857 2.3252852 2.2296405 -1.7267638 2.238151
2.2266562 2.2364495 2.2513244 2.2291818 2.0127444 2.2444968 -1.6146743 -1.8029451
-1.8313634 -1.0972757 -1.9114424 2.3659325 2.2333224 2.2328746 2.2356954 -2.1450634
-1.7717439 2.2244024 -1.9739028 -1.9871511 -1.5163976 2.280043 2.2292266 -1.6174741
-2.0326371 2.0905406 2.1997273 2.2175405 2.0195234 -1.9765615 2.3025148 -0.49014145
-1.4462293 2.2373538 -1.6968658 -1.9836869 -1.9789133 -1.6700712 2.2357364 2.2321355
2.3681202 -1.7481271 2.3306828 2.132485 1.6077795 2.343771 2.2333825 2.2299957
2.220428 2.223805 -1.856282 -0.5474075 -1.6812233 1.9984412 2.2207 -1.4444643
-1.6282372 -1.7653987 -1.5781856 2.4713106 -1.5156528 2.232442 2.0655499 -1.8280865
2.1541283 -1.3877987 2.1045365 -1.7413583 2.2367628 2.2323313 2.1181428 -1.7185953
2.3076174 -1.8943769 -1.8671453 2.2622511 1.9811596 -1.4773154 -1.6367493 -1.3011438
2.2287083 2.8281064 2.2472537 -1.2626787 1.6257175 -1.9967302 -1.197288 2.2717526
1.9497465 2.232529 2.2227018 -1.7107546 2.211878 -1.6544131 2.2249706 -1.7296509
-1.5109726 2.2614248 -1.5016305 2.1657937 -1.5208745 -1.9761198 2.1899436 -1.2653295
-1.4893001 2.2422607 2.277053 -1.4650836 -1.8753157 2.0755377 1.9124553 2.2281368
00000000: d945 06c0 311c ccbf 81d3 0f40 1d59 0f40
00000010: 92a9 0940 76ef 1040 b0b6 0f40 58a4 dabf
00000020: cf40 f73f 0342 09c0 d331 fcbf 1fea a5bf
00000030: b471 d33f 13a3 f6bf e12b f8bf b0fb d3bf
00000040: ece2 0f40 524d 82bf 58f4 0d40 139d 0e40
00000050: 05bd 0e40 d01e ecbf da46 0f40 a0d6 1140
00000060: 020b 0240 48b1 1040 b170 0f40 8c21 0e40
00000070: 6a70 eabf f41c 0f40 8326 eebf 86ba 0840
00000080: e522 d53f 8c53 0e40 18c7 1240 ce44 f0bf
00000090: b122 a83e 6db6 b0bf bc6c c1bf 6ae4 0e40
000000a0: 5188 82bf 4699 fbbf a2f7 0b40 6267 0f40
000000b0: e58f e5bf e594 eabf 4118 1140 792a 1040
000000c0: 5a5b 1940 edf1 0c40 0f40 0a40 d4b3 ecbf
000000d0: eca3 f13f 53a2 c9bf ce89 0e40 1dc0 c2bf
000000e0: 66d3 d83f d110 f0bf 5fa8 e23f 2c75 0c40
000000f0: facb a7bf a515 d5bf 7329 02c0 8291 0c40
00000100: d579 0b40 684a d9bf ac5b fdbf ce9e 1040
00000110: 1574 1240 34de 0f40 a1e0 ea3f e6cf f9bf
00000120: a701 c1bf 141e 0e40 9f77 ffbf 18a0 f4bf
00000130: 1f79 ddbf 28b0 dabf 4c38 0c40 d5fe e2bf
00000140: 335b e8bf a662 0f40 79c8 0940 d6fa da3f
00000150: ecab d1bf 551f ecbf f8bc efbf 9fab 0d40
00000160: 3329 ec3f 24e6 c4bf 0721 0e40 4416 0e40
00000170: 62b1 1640 f7f3 1040 e822 1140 71bb ddbf
00000180: 00a1 dabf 434a 1140 21fe 1240 87e1 80bf
00000190: a265 b2bf 220c 0e40 de13 1040 8552 aabf
000001a0: 352b b1bf 9027 0640 c044 1240 5202 eebf
000001b0: 2b29 0e40 3aad 0c40 1382 fabf 3b56 d7bf
000001c0: 9828 ecbf 9420 0d40 24e5 c3bf e5f0 0e40
000001d0: 2b57 a2bf 7c4a c7bf 251d bdbf f2da 0e40
000001e0: 430a 0a40 5aed 0540 4d4d 0f40 8592 0e40
000001f0: df70 e2bf efbe 0d40 b99e ebbf 4fbf 0240
00000200: c853 e0bf fbe8 e8bf 1ee6 ea3f ac7f 0b40
00000210: 53d5 0d40 2f61 bdbf fe45 dbbf a8f1 0d40
00000220: d498 a5bf 07ec fbbf b427 0f40 6792 0e40
00000230: 79d1 1440 6eb2 0e40 9906 ddbf de3d 0f40
00000240: 8981 0e40 fd21 0f40 b315 1040 eaaa 0e40
00000250: ced0 0040 d6a5 0f40 a6ad cebf e8c6 e6bf
00000260: 1e6a eabf 8873 8cbf 25aa f4bf 706b 1740
00000270: c1ee 0e40 6be7 0e40 a215 0f40 b848 09c0
00000280: 81c8 e2bf 9c5c 0e40 d9a8 fcbf f85a febf
00000290: 5119 c2bf 39ec 1140 a6ab 0e40 6409 cfbf
000002a0: ba16 02c0 6bcb 0540 55c8 0c40 2fec 0d40
000002b0: df3f 0140 f8ff fcbf 675c 1340 d2f3 fabe
000002c0: 0b1e b9bf ce30 0f40 e632 d9bf 74e9 fdbf
000002d0: 084d fdbf e5c4 d5bf 4e16 0f40 4fdb 0e40
000002e0: 488f 1740 a1c2 dfbf e829 1540 a27a 0840
000002f0: b8cb cd3f 5800 1640 bdef 0e40 40b8 0e40
00000300: 7e1b 0e40 d252 0e40 a69a edbf e622 0cbf
00000310: 5332 d7bf eccc ff3f f31f 0e40 35e4 b8bf
00000320: 146a d0bf 96f8 e1bf fc01 cabf f429 1e40
00000330: e900 c2bf 54e0 0e40 f831 0440 bdfe e9bf
00000340: 3ddd 0940 63a3 b1bf bab0 0640 d4e4 debf
00000350: 1f27 0f40 84de 0e40 a78f 0740 eefa dbbf
00000360: 01b0 1340 f17a f2bf 9efe eebf b9c8 1040
00000370: a396 fd3f ac18 bdbf 0081 d1bf e18b a6bf
00000380: 28a3 0e40 b2ff 3440 01d3 0f40 759f a1bf
00000390: 8317 d03f db94 ffbf bc40 99bf 6564 1140
000003a0: 4b91 f93f c1e1 0e40 bf40 0e40 02fa dabf
000003b0: 698f 0d40 cfc3 d3bf eb65 0e40 3365 ddbf
000003c0: 8d67 c1bf 2fbb 1040 6e35 c0bf 5d9c 0a40
000003d0: 04ac c2bf 7ef1 fcbf 0928 0c40 51f6 a1bf
000003e0: 63a1 bebf 3381 0f40 3dbb 1140 dc87 bbbf
000003f0: 580a f0bf 9cd5 0440 56cb f43f cb99 0e40

network.4.weight f4 [1, 256]
-0.36449897 -0.24271083 0.22590043 0.23066951 0.2609331 0.17389108 0.110189326 -0.17430538
1.1567539 -0.8199449 -0.2199353 -0.6776267 0.41206968 -0.41016477 -0.22073033 -0.4215428
0.2641378 -0.3890259 0.23125176 0.20053777 0.21217708 -0.40415737 0.27482298 0.5018502
0.22624077 0.21042913 0.1583462 0.18182236 -0.52082634 0.14802286 -0.32868433 0.13776883
0.84072053 0.14626992 0.24176824 -0.17592402 2.1331077 -1.0590085 -0.30466464 0.2314124
-0.5707932 -0.31394923 0.04841252 0.20335613 -0.34484378 -0.23237438 0.1663432 0.0991179
0.72025853 0.42283773 0.9127013 -0.46379235 1.0797491 -0.39454672 0.15345748 -0.60192955
0.41164508 -0.12106077 0.43153942 0.2566878 -0.7716944 -0.31264818 -0.054353636 0.068788886
0.12130522 -0.5631713 -0.16960031 0.1310724 0.18166944 0.1912193 0.27084714 -0.22788028
-0.41833144 0.22753377 -0.26133576 -0.20542169 -0.32184908 -0.20810802 0.24560152 -0.17520186
-0.19787608 0.22429132 0.3045843 0.40397903 -0.5539513 -0.2809115 -0.25798884 0.24410856
1.033102 -0.5679974 0.16351113 0.26296008 1.2132714 0.3504421 0.12026607 -0.3082854
-0.34747005 0.24116755 0.13392915 -1.3100691 -0.5311485 0.19939578 0.30167925 -1.3993769
-1.097349 0.27579147 0.20043924 -0.4429166 0.18534242 0.25059992 -0.28907436 -0.44437158
-0.6362938 0.19864483 -0.65764713 0.21549702 -1.0273155 -0.32233146 -1.2875165 0.26250902
0.20734678 0.31648096 0.24484539 0.16765334 -0.42890096 0.25795183 -0.22645523 1.1834444
-0.6265599 -0.29540503 1.0648879 0.42434567 0.33692953 -0.5614539 -0.23897552 0.17755228
-0.57436746 -0.55637246 0.12738362 0.2821664 0.13844578 0.15861587 -0.08594865 0.15074013
0.23561703 0.24624965 0.17923842 0.18050057 1.0459015 0.25142995 -0.8200157 -0.2918917
-0.38919753 -0.7960513 -0.13942601 0.280185 0.2736518 0.17970166 0.21456182 -0.2824587
-0.30135047 0.11808216 -0.30504572 -0.15979171 -0.31575575 0.24017055 0.2585988 -0.8888022
-0.13004729 0.58176214 0.18653105 0.1756315 0.49977496 -0.29032782 0.20065469 -1.2968036
-0.4488268 0.23034629 -0.35549837 -0.5358593 -0.072445616 -0.30894083 0.19870119 0.11638169
0.24941753 -0.6164108 0.3138519 0.29441616 0.3383426 0.5874557 0.22770216 0.1601968
0.13085788 0.2426799 -0.3289381 -2.9912615 -0.37327558 1.0580075 0.20903833 -0.3595389
-0.49476492 -0.5722843 -0.28869617 0.71937454 -0.3592039 0.14975484 0.29681998 -0.33301967
0.20465143 -0.3223369 0.2100863 -0.4097715 0.27114236 0.1959172 0.4555873 -0.120281026
0.12959948 -0.3313827 -0.47554204 0.13553591 0.4274317 -0.21204342 -0.35148767 -1.2643797
0.24008507 1.2652615 0.15508583 -0.7160796 0.42830682 -0.47688943 -1.1728961 0.1630339
0.37627593 0.17306472 0.23387688 -0.20493701 0.2271826 -1.1313242 0.09563401 -0.27112004
-0.7148838 0.45945513 -0.5592624 0.108404666 -0.2500169 -0.2566497 0.2538842 -0.2336187
-0.7641006 0.27176276 0.2662646 -0.7073069 -0.3151257 0.39768472 0.3705671 0.179135
00000000: 9c9f babe 3089 78be 7152 673e a134 6c3e
00000010: 0699 853e 8110 323e f1aa e13d 1c7d 32be
00000020: 8310 943f e9e7 51bf b836 61be f278 2dbf
00000030: ccfa d23e 1e01 d2be 2207 62be 75d4 d7be
00000040: 123d 873e 672e c7be 43cd 6c3e c659 4d3e
00000050: f344 593e b7ed cebe 99b5 8c3e 4179 003f
00000060: a9ab 673e bc7a 573e 8225 223e a42f 3a3e
00000070: e054 05bf 4e93 173e 5049 a8be 4613 0d3e
00000080: 7639 573f c8c7 153e 1892 773e 6d25 34be
00000090: d684 0840 978d 87bf 01fd 9bbe 5ff7 6c3e
000000a0: 811f 12bf f4bd a0be 354c 463d 973c 503e
000000b0: 5d8f b0be 8df3 6dbe df55 2a3e 53fe ca3d
000000c0: dd62 383f 307e d83e cba6 693f 3176 edbe
000000d0: 3835 8a3f 0702 cabe f523 1d3e 0e18 1abf
000000e0: 25c3 d23e b5ee f7bd bcf2 dc3e 956c 833e
000000f0: c48d 45bf 6c13 a0be eba1 5ebd 30e1 8c3d
00000100: df6e f83d ff2b 10bf b4ab 2dbe d837 063e
00000110: 8e07 3a3e fece 433e 7aac 8a3e 7359 69be
00000120: 8a2f d6be 9dfe 683e cdcd 85be 105a 52be
00000130: 67c9 a4be 451a 55be f77e 7b3e 1e68 33be
00000140: 07a0 4abe a0ac 653e 79f2 9b3e 57d6 ce3e
00000150: c1cf 0dbf a2d3 8fbe 1d17 84be 98f7 793e
00000160: b03c 843f 4768 11bf 766f 273e b4a2 863e
00000170: 7a4c 9b3f 266d b33e 0f4e f63d 95d7 9dbe
00000180: 98e7 b1be a0f4 763e b924 093e 58b0 a7bf
00000190: 59f9 07bf 682e 4c3e b475 9a3e c81e b3bf
000001a0: ef75 8cbf 8a34 8d3e f23f 4d3e f7c5 e2be
000001b0: 67ca 3d3e a24e 803e 8e01 94be ac84 e3be
000001c0: 27e4 22bf 8d69 4b3e 905b 28bf 40ab 5c3e
000001d0: 137f 83bf a108 a5be 57cd a4bf 9567 863e
000001e0: b752 543e cb09 a23e c0b8 7a3e 51ad 2b3e
000001f0: e898 dbbe 4312 843e e1e3 67be 1b7b 973f
00000200: 3b66 20bf 543f 97be 3f4e 883f d643 d93e
00000210: 0782 ac3e 71bb 0fbf 00b6 74be 44d0 353e
00000220: bf09 13bf 6d6e 0ebf da70 023e 1d78 903e
00000230: bbc4 0d3e 336c 223e d905 b0bd 9f5b 1a3e
00000240: 9745 713e de28 7c3e 478a 373e 24d5 383e
00000250: 1ae0 853f 6dbb 803e 8dec 51bf d472 95be
00000260: e644 c7be 05ca 4bbf b1c5 0ebe 6974 8f3e
00000270: 171c 8c3e b603 383e 18b6 5b3e 6d9e 90be
00000280: 9c4a 9abe 0fd5 f13d f42e 9cbe 70a0 23be
00000290: bdaa a1be 45ef 753e 1067 843e 8a88 63bf
000002a0: 1e2b 05be 5dee 143f ff01 3f3e bed8 333e
000002b0: 81e2 ff3e d9a5 94be 6c78 4d3e a9fd a5bf
000002c0: a0cc e5be e6df 6b3e e203 b6be 132e 09bf
000002d0: 5e5e 94bd 7e2d 9ebe 5378 4b3e 8659 ee3d
000002e0: 4f67 7f3e 19cd 1dbf 32b1 a03e b7bd 963e
000002f0: 3e3b ad3e 7f63 163f c12a 693e a10a 243e
00000300: 9cff 053e 1481 783e 936a a8be d470 3fc0
00000310: fa1d bfbe ca6c 873f 250e 563e 7c15 b8be
00000320: d451 fdbe 3981 12bf fccf 93be ee28 383f
00000330: 93e9 b7be 5559 193e caf8 973e 8e81 aabe
00000340: 2590 513e 5809 a5be dd20 573e 92cd d1be
00000350: 2cd3 8a3e 859e 483e bd42 e93e e655 f6bd
00000360: bab5 043e feaa a9be 3f7a f3be edc9 0a3e
00000370: 54d8 da3e e921 59be 31f6 b3be 32d7 a1bf
00000380: dcd8 753e 17f4 a13f d2ce 1e3e fe50 37bf
00000390: 084b db3e da2a f4be 7621 96bf 5cf2 263e
000003a0: 3da7 c03e e137 313e 6c7d 6f3e 02db 51be
000003b0: 8ea2 683e 3bcf 90bf c4db c33d 3fd0 8abe
000003c0: a002 37bf b43d eb3e d22b 0fbf 4403 de3d
000003d0: 3702 80be 9767 83be 1cfd 813e be39 6fbe
000003e0: 199c 43bf 7d24 8b3e d553 883e 1112 35bf
000003f0: 2858 a1be 559d cb3e f9ba bd3e 2a6f 373e
